app/src/main/assets/respeck_lstm_essential4_64_n_ng9921.tflite (tflite, 186668 bytes, 30 tensors)

sequential/normalization/truediv;sequential/normalization/Sqrt f4 [1, 1, 6]
0	0x40205b14	2.505559
1	0x3fd6f6c8	1.6794062
2	0x40096110	2.1465492
3	0x3d38aef6	0.04508873
4	0x3d29dd95	0.041471083
5	0x3d8f1f41	0.06988383

Const_1 f4 [1, 1, 6]
0	0xbe06a769	-0.131498
1	0xbf2ffc1a	-0.6874405
2	0x3e76e6e9	0.24111523
3	0x3e8a9285	0.2706491
4	0xbe1ea644	-0.15493113
5	0xbd1571d2	-0.0364855

sequential/dense/BiasAdd/ReadVariableOp f4 [64]
0	0x3d442bf0	0.047893465
1	0x3d118795	0.03552969
2	0xb8ce4311	-9.8353376e-05
3	0x3d2780c9	0.040894303
4	0x3dd4381e	0.10362266
5	0x3ce8563b	0.02836143
6	0x3cd6234d	0.02613988
7	0x3d087d79	0.033322785
8	0x3d6a1def	0.057157453
9	0xba4c2ca5	-0.0007788635
10	0x3ce20344	0.027589448
11	0x3c31b54b	0.010846446
12	0x3c44c615	0.012010117
13	0x3cb1405e	0.021637138
14	0x3cf1b821	0.029506745
15	0xbcc783a9	-0.024354773
16	0x3cd04e05	0.025427828
17	0x3cdfd310	0.027322322
18	0xbb96eb75	-0.0046057054
19	0x3c9e3e67	0.019316865
20	0x3c3efefc	0.011657473
21	0xbc0066e6	-0.007837033
22	0x3d2800c1	0.041016344
23	0x3d345e60	0.044035316
24	0x3cd596db	0.02607291
25	0x3d61d546	0.055135034
26	0x3cc45b52	0.023969326
27	0x3d40fa73	0.047113847
28	0x3cfa3d8e	0.03054693
29	0x3cc7b5ca	0.024378676
30	0x3ca7a7c4	0.02046574
31	0x39ad6f61	0.00033080115
32	0x3d2f70ab	0.042832058
33	0x3d0a0ffb	0.033706646
34	0xbbcf661f	-0.0063293125
35	0x3c8a290b	0.016865274
36	0x3c09df71	0.008415089
37	0x3d0f0463	0.034916293
38	0xbb857df3	-0.004073852
39	0x3ba283df	0.004959568
40	0x3cc69571	0.024241181
41	0x3d84900a	0.06472786
42	0xbbf2aa03	-0.007405521
43	0xbadbaeaa	-0.0016760428
44	0xbc93e32e	-0.018052664
45	0x3d381e0d	0.044950534
46	0x3cae07d6	0.02124397
47	0x3d0e28b6	0.034706794
48	0x3c7f541e	0.01558402
49	0x3caee6a6	0.021350216
50	0x3d218865	0.039436717
51	0x3bcb9281	0.006212533
52	0x3cfe6605	0.031054506
53	0x3c34a862	0.011026474
54	0x3ca9df38	0.020736322
55	0x3c0e1c8b	0.008673797
56	0x3cf3c73a	0.029758085
57	0x3989c4b4	0.00026277232
58	0x3cf767f6	0.03020094
59	0x3d7cd780	0.061728954
60	0x3d1554d1	0.03645784
61	0x3d2d35e2	0.042287715
62	0x3d667b09	0.05626968
63	0x3c901449	0.017587798

sequential/dense_1/BiasAdd/ReadVariableOp f4 [4]
0	0xbd2436e1	-0.0400914
1	0xbc6c1119	-0.014408373
2	0x3ccdc07d	0.0251162
3	0x3c83eeff	0.016105173

arith.constant f4 [64, 64]
0	0x3d1a14cc	0.03761749
1	0xbe2444ba	-0.16041842
2	0xbcd26718	-0.025683925
3	0xbcaab424	-0.02083785
4	0x3dc86b91	0.09786142
5	0x3d259abb	0.040430766
6	0xbdc167f9	-0.09443659
7	0xbd83df83	-0.06439116
8	0xbb9ce5a6	-0.0047881184
9	0x3c3d87ce	0.011568023
10	0x3bf38f1d	0.007432832
11	0xbd993985	-0.07481674
12	0x3b77e6b6	0.0037826723
13	0x3c877dde	0.01653951
14	0x3d1728cd	0.036904145
15	0xbd8e8ad5	-0.06960074
16	0xbc2b59ac	-0.010458391
17	0xbdb7d438	-0.089760244
18	0xbc6cc02e	-0.014450116
19	0xbd88bd86	-0.06676774
20	0x3c96fa6c	0.018429957
21	0x3d7e0819	0.06201944
22	0x3d53265d	0.051550258
23	0x3d8ffa8e	0.070302114
24	0x3d7ffa65	0.062494654
25	0x3d655568	0.055989653
26	0xbda6770e	-0.08128177
27	0xbd3e2d3c	-0.046429858
28	0x3d735354	0.05940564
29	0xbd2a060e	-0.04150968
30	0xbc153bfa	-0.009108538
31	0x3d407e3e	0.046995394
32	0xbc81bcc9	-0.01583709
33	0x3ce32e5f	0.027732072
34	0x3d818488	0.063241065
35	0x3d221ecb	0.039580148
36	0xbdba0639	-0.09083218
37	0x3dfed6ef	0.12443339
38	0xbde36b50	-0.111044526
39	0x3c26fd1c	0.010192182
40	0x3d2f478b	0.042792838
41	0x3d46d47f	0.048542496
42	0xbca972c4	-0.020684607
43	0xbb773c7f	-0.0037725267
44	0x3d044fc3	0.03230263
45	0x3e1bb355	0.15205128
46	0x3c8c9d50	0.017164856
47	0xbe4b5633	-0.19857101
48	0x3d5b9b29	0.05361477
49	0x3d344191	0.04400784
50	0xbc1163e9	-0.008873918
51	0xbd859f0a	-0.06524475
52	0x3e11e144	0.14246088
53	0x3ce494d7	0.027903004
54	0x3d8f1e62	0.06988217
55	0x3de13cef	0.1099795
56	0xbd83cfdd	-0.06436131
57	0xbd615db5	-0.055021007
58	0xbbb99aae	-0.005664191
59	0x3d903524	0.07041386
60	0x3d96cbad	0.07363067
61	0xbd79e90c	-0.061013266
62	0xbd8dc5b4	-0.069224745
63	0xbe0ce42e	-0.13758919
64	0x3b2161d7	0.0024624967
65	0xbd68883e	-0.056770556
66	0xbde3756e	-0.11106382
67	0xbd9cc35a	-0.07654448
68	0xbe1baee5	-0.15203436
69	0x3d8ab508	0.0677281
70	0xb9c39433	-0.00037303715
71	0x3d8ee2c2	0.06976844
72	0xbbfae615	-0.0076568224
73	0x3dc6685c	0.09687874
74	0xbd8cf900	-0.068834305
75	0xbc5705e7	-0.013123966
76	0x3cb90d9a	0.022589494
77	0x3db5fa98	0.088856876
78	0xbd5637de	-0.052299373
79	0x3bc3aa78	0.005971249
80	0x3e2bab0d	0.1676447
81	0xbda84f2f	-0.08218228
82	0x3dbabb73	0.09117784
83	0x3cafd27d	0.021462673
84	0x3d57b1ca	0.052659787
85	0x3ddd1aad	0.107961036
86	0xbe06fd30	-0.13182521
87	0xbca00e5b	-0.019538095
88	0xbdf22b07	-0.11824613
89	0x3e3e200b	0.18566911
90	0x3d87110a	0.06595047
91	0xbe0be542	-0.13661674
92	0xbd740961	-0.059579257
93	0x3d29c5df	0.04144847
94	0x3c771593	0.015080827
95	0x3c17719e	0.009243397
96	0xbde48e76	-0.11159985
97	0xbbdef831	-0.006804489
98	0x3dbe68c4	0.09297326
99	0xbdcacce1	-0.09902359
100	0x3dc54240	0.09631777
101	0x3d7ced9e	0.061750047
102	0x3d21f0f8	0.039536446
103	0xbdb7620d	-0.089542486
104	0x3ca4723f	0.020074008
105	0x3aa0d451	0.0012270306
106	0x3d1820e2	0.037140734
107	0x3d164a29	0.03669182
108	0xbc9a0026	-0.018798899
109	0x3e148ef8	0.14507663
110	0x3d741602	0.0595913
111	0x3d3632ad	0.044481922
112	0x3d888af9	0.06667132
113	0xbe3d7b11	-0.18503977
114	0xbd55d39a	-0.052203752
115	0x3bf35131	0.0074254503
116	0x3c95648c	0.018236421
117	0xbe092d7c	-0.13396257
118	0xbe251d07	-0.16124354
119	0xbd61dace	-0.05514031
120	0x3b5f75a1	0.0034097212
121	0x3caaf323	0.02086789
122	0xb7404d54	-1.1462096e-05
123	0xbc1a4672	-0.0094162095
124	0x3d181cfb	0.037137013
125	0x3c330209	0.010925778
126	0xbd3e357d	-0.04643773
127	0x3e161b8c	0.14658946
128	0x3df820f6	0.12115662
129	0x3d285796	0.041099153
130	0x3da1e382	0.07904722
131	0x3dbfbd07	0.09362226
132	0x3db81323	0.08988025
133	0xbce2bb83	-0.027677303
134	0x3c68429f	0.01417604
135	0xbd151e7a	-0.036406018
136	0x3d23ba92	0.03997285
137	0xbd489782	-0.048972614
138	0x3dc2374f	0.094832055
139	0xbd5443a7	-0.05182233
140	0xbceef433	-0.029169178
141	0xbc2b12c7	-0.010441489
142	0x3dae354c	0.08506259
143	0xbd978cb5	-0.073998846
144	0xbda0e278	-0.078556955
145	0xbd140522	-0.036137708
146	0xbdcfe212	-0.10150541
147	0xbac0e0a4	-0.0014715386
148	0xbdbc892a	-0.092058495
149	0x3d683dc1	0.056699518
150	0xbd82a18d	-0.063784696
151	0xbca992f1	-0.02069995
152	0xbd8c0c40	-0.06838274
153	0xbd98c72a	-0.074598625
154	0x3e020c47	0.12699996
155	0xbd075ca6	-0.03304734
156	0x3d5f3304	0.05449201
157	0xbd8fa2ff	-0.07013511
158	0xbab70e6b	-0.0013966089
159	0x3d37b3bd	0.044849146
160	0x3d277ddd	0.040891517
161	0xbd90bfdb	-0.070678435
162	0xbd96ac05	-0.07357029
163	0xbcfb85db	-0.030703476
164	0xbd22bc86	-0.03973057
165	0xbb2a13cc	-0.0025951741
166	0xbe0d5b54	-0.1380437
167	0xbbcf93cf	-0.006334759
168	0x3daf8fdf	0.08572363
169	0x3d5d3f0c	0.054015204
170	0x3d43ea41	0.047830824
171	0xbe16db33	-0.14732055
172	0xbda99f4a	-0.08282335
173	0xbd9bfb94	-0.07616344
174	0x3d1f57f4	0.038902238
175	0x3c102d0e	0.008799804
176	0xbe07d370	-0.13264251
177	0x3db1c3a2	0.08679892
178	0x3de81f88	0.11334139
179	0xbd40e810	-0.047096312
180	0x3daa7910	0.08323872
181	0x3d7bdf1c	0.06149207
182	0xbd442453	-0.047886204
183	0x3d10d1a8	0.035356194
184	0x3bc22672	0.005924993
185	0xbd118b37	-0.035533156
186	0xbdc1179d	-0.09428332
187	0x3d7f5533	0.06233711
188	0xbcd552de	-0.02604049
189	0xbcc15fc7	-0.02360524
190	0x3cb53383	0.02211929
191	0xbd9a7c15	-0.07543198
192	0x3e34b5c3	0.17647462
193	0x3e067199	0.13129272
194	0xbe0ba7c7	-0.1363822
195	0xbe0ef676	-0.13961205
196	0x3d0fbeed	0.03509419
197	0xbd085aea	-0.033289827
198	0x3d8d0b55	0.06886927
199	0x3db929db	0.090411864
200	0x3d51c706	0.051215194
201	0x3e48f3b8	0.19624221
202	0x3e59a9f1	0.21256234
203	0x3d06b9e3	0.03289212
204	0x3dc0272d	0.09382472
205	0xbd4771fc	-0.04869269
206	0xbd07d6c4	-0.0331638
207	0xbccbf633	-0.02489767
208	0xbc946017	-0.018112225
209	0x3d4492f0	0.047991693
210	0xbc25154a	-0.0100758765
211	0xba511d14	-0.000797705
212	0xbe121a12	-0.14267758
213	0x3dd87fac	0.105712265
214	0x3d87b1f5	0.066257395
215	0x3c7729a8	0.015085615
216	0xbd34869e	-0.044073693
217	0xbd246613	-0.040136408
218	0x3cfe8812	0.031070743
219	0x3de253e8	0.1105116
220	0xbe176ad0	-0.1478684
221	0x3dd9ae8b	0.106289946
222	0xbe08d6d1	-0.13363196
223	0x3d3aec40	0.04563546
224	0xbd815388	-0.063147604
225	0x3d939c39	0.072075315
226	0x3d7df09b	0.061997037
227	0x3d81ab78	0.06331533
228	0xbdc5db46	-0.09660964
229	0x3da482b6	0.08032744
230	0xbce33228	-0.027733877
231	0xbd97556f	-0.07389342
232	0xbdab9fc2	-0.08380081
233	0x3d77b879	0.06047866
234	0xbac80248	-0.0015259469
235	0xbc5eeeb0	-0.013606712
236	0xbc59aaf2	-0.013285385
237	0x3d82da83	0.06389334
238	0x3dc67f90	0.09692299
239	0xbd6b7479	-0.057484124
240	0xbdd9fbfd	-0.10643766
241	0x3d436a95	0.047709066
242	0x3d9294c2	0.071572796
243	0x3dd19ca5	0.10234956
244	0x3e21da3b	0.15805905
245	0x3dc87501	0.09787942
246	0x3d930a6d	0.07179723
247	0xbd9bca9b	-0.07607003
248	0xbddfcd5a	-0.109278396
249	0xba3dddb3	-0.00072428136
250	0xbc7e4767	-0.015519953
251	0xbc56a5cf	-0.013101055
252	0x3e3baac8	0.18326867
253	0xbdb16028	-0.086609185
254	0x3d6aeeec	0.05735676
255	0xbda0c325	-0.07849721

arith.constant1 f4 [64, 64]
0	0xbdec5ea6	-0.1154149
1	0xba8e87ab	-0.0010874172
2	0xbdfd198d	-0.12358389
3	0xbda0c2be	-0.07849644
4	0x3dcd3da3	0.10021522
5	0x3d18724c	0.037218377
6	0x3c84e6f5	0.01622341
7	0x3d23454a	0.039861
8	0xbcea4990	-0.02859953
9	0x3d06f990	0.032952845
10	0x3c65fcfc	0.014037367
11	0xbcc08ae4	-0.023503728
12	0x3d176ae1	0.036967162
13	0x3d06ff45	0.032958288
14	0x3d9af246	0.07565741
15	0x3d9957dd	0.07487462
16	0x3dd73b1f	0.10509323
17	0x3e4a1daa	0.19737878
18	0x3dbccdfe	0.092189774
19	0x3d81d725	0.06339864
20	0xbdb7389f	-0.089463465
21	0xbd462208	-0.0483723
22	0x3cf83641	0.030299308
23	0x3d0762b5	0.03305312
24	0xbcd4094f	-0.025883345
25	0xbbdb464d	-0.00669173
26	0x3c8f7d28	0.017515734
27	0x3c50fe58	0.012755953
28	0x3e226cfd	0.15861888
29	0xbd493a4a	-0.049127854
30	0x3dd74dee	0.10512911
31	0x3d7608ee	0.06006711
32	0x3d9a42a3	0.07532241
33	0xbdd155cd	-0.10221443
34	0xbd99dbe4	-0.07512644
35	0xbdc04f12	-0.093900815
36	0xbd96739d	-0.0734627
37	0x3dccfae2	0.100087896
38	0x3d21f5b5	0.039540965
39	0x3c9b5ed2	0.018966112
40	0x3d211b3c	0.039332613
41	0xbcfa09f0	-0.030522317
42	0x3a2d5bd9	0.00066131126
43	0xbd86784f	-0.06565916
44	0xbd35eabd	-0.044413317
45	0xbddcf207	-0.107883506
46	0x3d263deb	0.040586393
47	0xbc66a6ce	-0.014077855
48	0x3d88f88a	0.0668803
49	0x3d6b922e	0.057512455
50	0xbde20a1d	-0.11037085
51	0xbd31c7e8	-0.043403536
52	0x3d891987	0.06694322
53	0x3d836cce	0.06417237
54	0x3d8b6072	0.06805505
55	0x3da1002d	0.07861362
56	0x3b8bfdaa	0.0042721825
57	0xbc458cba	-0.012057478
58	0x3cdd2c0c	0.026998542
59	0xbd2d0c62	-0.042248137
60	0x3cd03fa8	0.025420979
61	0xbcdb3f76	-0.026763659
62	0xbd37db62	-0.044886954
63	0xbda345fc	-0.07972333
64	0x3d766a83	0.06016017
65	0xbc8a4248	-0.016877308
66	0xbdcb9bd2	-0.0994183
67	0x3d7b673a	0.06137774
68	0x3be18ce3	0.00688325
69	0xbd7ceefb	-0.061751347
70	0xbb958d9b	-0.004564
71	0x3de749b1	0.112933524
72	0x3df34327	0.11878043
73	0xbd360990	-0.044442713
74	0x3c952262	0.018204872
75	0xbd6eae46	-0.05827167
76	0xbdb68617	-0.08912294
77	0x3ca37ced	0.01995703
78	0xbc11d1e8	-0.008900143
79	0xbc6c327d	-0.014416334
80	0xb95344ba	-0.0002014813
81	0x3dbaf9e5	0.09129695
82	0xbc5b3150	-0.013378456
83	0x3d4f8bfc	0.05067061
84	0xbd98e8f0	-0.07466304
85	0xbda92737	-0.08259433
86	0x3db16e26	0.08663587
87	0xbc034dcb	-0.008014153
88	0xbca817a0	-0.020519078
89	0xbe22eee7	-0.15911447
90	0xbdf1877e	-0.11793421
91	0xbdb68193	-0.08911433
92	0xbcfd8cdd	-0.030950958
93	0x3e24b04e	0.1608288
94	0xbd0b76f8	-0.034049004
95	0x3d0ae7e6	0.03391256
96	0xbc5534cc	-0.013013076
97	0xbe009ce5	-0.1255985
98	0x3dab1eae	0.08355461
99	0x3cfd4ada	0.030919481
100	0xbccbb561	-0.024866762
101	0x3dbd0d7a	0.09231086
102	0xbdd4e531	-0.10395277
103	0x3d77c792	0.06049306
104	0xbc7914dc	-0.015202727
105	0xbdf31b1e	-0.118704066
106	0x3d83596c	0.0641354
107	0x3d345e89	0.04403547
108	0x3b5699bd	0.0032745444
109	0x3cde89e9	0.02716537
110	0xbde8f184	-0.113741904
111	0x3da7dd14	0.08196464
112	0xbce4694a	-0.027882237
113	0xbcc303a3	-0.023805445
114	0x3d3ca51a	0.04605589
115	0xbd676091	-0.056488577
116	0x3c2076e7	0.0097939735
117	0x3ba6cecf	0.0050905715
118	0x3d4f7f29	0.05065838
119	0x3d3ddaa2	0.046351083
120	0x3d716673	0.058935594
121	0xbe248af1	-0.16068627
122	0xbd4416b5	-0.047873218
123	0x3e1cb190	0.1530211
124	0xbbe189b8	-0.0068828724
125	0x3d9a6145	0.07538084
126	0xbce52da7	-0.02797587
127	0xbda46bde	-0.080283865
128	0xbda2156b	-0.079142414
129	0xbb34d715	-0.002759402
130	0x3dc2a8c9	0.095048495
131	0xbc71c4a1	-0.014756353
132	0x3d398865	0.04529609
133	0x3d9f0939	0.07765431
134	0x3d154b42	0.036448725
135	0x3da1f520	0.07908082
136	0xbd8ebc42	-0.06969501
137	0xbc543b8c	-0.01295365
138	0xbd481018	-0.048843473
139	0xbd31fbad	-0.043452907
140	0x3c1454cd	0.009053421
141	0xbd92e5fb	-0.071727715
142	0xbd8d5580	-0.069010735
143	0x3c57c66e	0.013169868
144	0x3db50d66	0.08840446
145	0xbd91b9a3	-0.071154855
146	0x3de19ade	0.11015867
147	0xbe1d0aff	-0.15336226
148	0xbd076c6e	-0.03306239
149	0x3d1ab932	0.037774272
150	0xbdbbc41c	-0.09168264
151	0xbe01305d	-0.12616105
152	0xbd23df44	-0.040007845
153	0x3dea0eb6	0.11428587
154	0xbd86e234	-0.065861136
155	0xbdce1692	-0.10062899
156	0xbd065b03	-0.03280164
157	0x3dc26151	0.09491218
158	0xbd87b61a	-0.0662653
159	0x3a9058e6	0.0011012822
160	0x3e1b3e58	0.15160501
161	0x3d9c5521	0.076334246
162	0xbe2c9814	-0.16854888
163	0x3ce29c51	0.027662428
164	0xbd9295c2	-0.0715747
165	0xbda88dc2	-0.08230163
166	0xbd84172e	-0.06449734
167	0x3d25fd41	0.040524725
168	0x3db36dbb	0.08761164
169	0xbcd50366	-0.026002597
170	0xbc247125	-0.010036741
171	0xbd13df8c	-0.036101863
172	0x3d6aa13d	0.057282675
173	0xbd7a616a	-0.061128058
174	0xbd82a341	-0.063787945
175	0x3d429d83	0.047513496
176	0xbd124728	-0.03571239
177	0x3d48e9c4	0.04905106
178	0xbd3fcbe2	-0.046825297
179	0xbca9e551	-0.02073923
180	0xbcbb9fe1	-0.022903385
181	0xbd62df34	-0.055388644
182	0x3c8ca586	0.017168771
183	0xbde2972b	-0.11063989
184	0xbcacb09e	-0.021080311
185	0x390177f1	0.0001234708
186	0x3cbe688f	0.023243217
187	0x3d8cfa22	0.068836465
188	0x3cc160a4	0.023605652
189	0x3d0874c2	0.033314474
190	0x3cffe597	0.031237407
191	0x3d22aa3b	0.039713126
192	0x3bd4a708	0.0064896382
193	0xbb76261c	-0.0037559336
194	0x3d510433	0.051029395
195	0x3d6afb6d	0.057368685
196	0xbda47b72	-0.08031358
197	0x3ddce904	0.10786632
198	0x3d571f63	0.052520167
199	0xbd4801d6	-0.048829876
200	0xbd87126d	-0.06595311
201	0x3cf87591	0.030329498
202	0xbd1a6b0c	-0.037699744
203	0xbd5f714e	-0.054551415
204	0xbd631e85	-0.055449028
205	0x3b98be62	0.0046613673
206	0x3d1fca1b	0.039011102
207	0xbd0ef47a	-0.03490112
208	0xbdc30c84	-0.095238715
209	0xbd405bed	-0.046962667
210	0x3d04bfc5	0.03240945
211	0xbcae0fd8	-0.02124779
212	0xbdc61c34	-0.09673348
213	0x3cedd3c2	0.029031638
214	0xbde3de9c	-0.11126444
215	0x3ce8a2d1	0.02839795
216	0xbd514951	-0.05109531
217	0xb9c6e30e	-0.00037934672
218	0xbdf38afc	-0.118917435
219	0x3db19924	0.086717874
220	0xbdede072	-0.11615075
221	0xbe076f0d	-0.13225956
222	0xbd873a52	-0.066029206
223	0xbc16b57c	-0.009198543
224	0x3e288be6	0.16459617
225	0xbdb0ed08	-0.0863896
226	0xbc3fd496	-0.011708399
227	0xbc8b27c6	-0.016986739
228	0xbcea4600	-0.028597832
229	0x3c650735	0.013978769
230	0x3d954eee	0.07290445
231	0x3c964a80	0.018346071
232	0xbc6e0187	-0.014526731
233	0xbdf97402	-0.1218033
234	0xbd1c0f9a	-0.038100816
235	0x3d045141	0.032304052
236	0x3e570ad1	0.2100022
237	0x3d7a51ff	0.061113354
238	0x3d0cc3e4	0.034366503
239	0xbbc90456	-0.00613455
240	0xbd551ab3	-0.052027415
241	0xbd082ce4	-0.033245936
242	0xbd5be7da	-0.053687908
243	0xbd22cb9d	-0.039744962
244	0xbda4c369	-0.08045084
245	0x3dd31dee	0.10308443
246	0x3d86b00f	0.06576549
247	0x3b731c4e	0.0037095728
248	0x3cd90d2a	0.026495535
249	0xbd826a02	-0.06367876
250	0x3e118058	0.14209116
251	0x3ae471f7	0.0017428984
252	0x3da20d72	0.07912721
253	0x3d9bf0a8	0.07614261
254	0xbdf3b2e7	-0.11899357
255	0x3d55d55a	0.05220542

arith.constant2 f4 [64, 64]
0	0x3cb2166c	0.021739207
1	0x3da86efc	0.082242936
2	0xbcd72824	-0.026264258
3	0xbd821858	-0.063522995
4	0x3ce9b349	0.028527873
5	0x3dc893c0	0.09793806
6	0xbcf0ae6e	-0.02938005
7	0xbbb44d44	-0.005502375
8	0xbd9fd853	-0.078049324
9	0xbceec204	-0.029145248
10	0xbd3d1b50	-0.046168625
11	0x3e838db2	0.25694042
12	0xbc5679bb	-0.013090546
13	0xbd3f7550	-0.046742737
14	0x3d02f2c2	0.031969793
15	0x3d8f6f09	0.070036
16	0xbdc8ed95	-0.0981094
17	0x3db7996f	0.08964812
18	0x3d9d7246	0.076878116
19	0x3d5f37b7	0.054496493
20	0x3bd35c87	0.006450239
21	0xbde387fa	-0.1110992
22	0x3d06f160	0.032945037
23	0xbd239116	-0.039933287
24	0x3d5f0e1f	0.054456826
25	0x3badbf66	0.0053023575
26	0x3dc3fe90	0.09570038
27	0x3ce371b0	0.027764171
28	0x3d116514	0.035496786
29	0x3cf8253a	0.030291189
30	0xbde1efba	-0.11032052
31	0x3c6db4b2	0.014508413
32	0x3c71aac0	0.014750183
33	0x3dc918e8	0.098192036
34	0xbcc9bb80	-0.02462554
35	0xbcf9459f	-0.030428706
36	0x3af11546	0.0018393181
37	0x3941fee6	0.00018500871
38	0xbde1829b	-0.11011239
39	0xbda44ee3	-0.08022859
40	0x3d734561	0.059392337
41	0xbd039a33	-0.032129478
42	0xbe063e5e	-0.13109729
43	0xbd3c8674	-0.046026662
44	0xbd4d5e7b	-0.05013893
45	0x3db497d7	0.08818024
46	0xbbabf8aa	-0.005248149
47	0xbd799a66	-0.06093826
48	0x3c47ba49	0.01219041
49	0x3d250e1e	0.040296666
50	0x3d08d9b8	0.033410758
51	0xbe032d5c	-0.12810272
52	0x3d8701e7	0.0659216
53	0x3cda7132	0.026665304
54	0xbd8d2b90	-0.068930745
55	0xbce26eef	-0.027640788
56	0x3cea6ae5	0.028615424
57	0xbdf63781	-0.12022305
58	0xbd78a794	-0.06070669
59	0x3c9f7ba8	0.019468144
60	0x3e20fe67	0.15722047
61	0xbdde853d	-0.10865257
62	0xbd4e6510	-0.05038935
63	0x3d705cc7	0.05868223
64	0x3abf7dee	0.0014609674
65	0xbdc2b4e9	-0.09507162
66	0xbca044d1	-0.019564064
67	0xbb9f0e72	-0.004854017
68	0xbce2f211	-0.027703317
69	0x3dba5e25	0.09099988
70	0x3da34a2b	0.07973131
71	0x3d2ab8ab	0.04168002
72	0x3e079510	0.13240457
73	0x3e09e4b0	0.13466144
74	0x3d114a8e	0.03547149
75	0x3d779d9e	0.06045305
76	0x3cdde614	0.027087249
77	0x3bd26012	0.006420144
78	0xbe030e89	-0.12798513
79	0x3aa8fad6	0.0012892138
80	0xbda860a6	-0.08221559
81	0xbd4d306e	-0.050095014
82	0x3deea5ab	0.116526924
83	0xbbfce3cc	-0.007717585
84	0xbd2b991a	-0.041894056
85	0xbd068f63	-0.032851588
86	0xbde64999	-0.112445064
87	0x3d96e4ed	0.07367883
88	0xbd96f276	-0.073704645
89	0xbc803a8e	-0.015652921
90	0x3c74c04f	0.014938428
91	0x3dde24c9	0.1084686
92	0xbd287f1d	-0.04113685
93	0xbc7e0f9a	-0.015506649
94	0xbcfa5d22	-0.030561987
95	0x3d33511c	0.043778524
96	0xbe2795c1	-0.1636572
97	0x3d612561	0.054967288
98	0xbcc483bc	-0.023988597
99	0xbd5e1a7d	-0.05422448
100	0xbd3695d9	-0.0445765
101	0xbd3bcab2	-0.045847602
102	0xbd3e8d19	-0.04652128
103	0x3d0d1be8	0.03445044
104	0xbda8a67c	-0.082348794
105	0xbcd6262b	-0.026141247
106	0x3dca8da1	0.09890295
107	0x3dcf1864	0.10112074
108	0xbded74b6	-0.115945265
109	0xbd19398e	-0.037408404
110	0x3cc078b0	0.023495048
111	0xbce3d876	-0.027813178
112	0xbcd71acc	-0.026257895
113	0xbd630e69	-0.055433664
114	0x3d0003c8	0.031253606
115	0x3d87dc31	0.06633795
116	0x3e05511d	0.13019224
117	0xbd0fe7c3	-0.035133135
118	0xbda0618e	-0.07831107
119	0xbc0047e3	-0.007829639
120	0xbdf64b60	-0.120260954
121	0x3cd4f127	0.025993897
122	0x3d02db56	0.031947456
123	0xbdbc1c1f	-0.09185051
124	0x3df2e753	0.11860528
125	0xbde51bb8	-0.111869276
126	0xbb5bafc6	-0.0033521517
127	0x3dcae206	0.09906392
128	0x3d61035f	0.054934856
129	0x3c26705e	0.010158626
130	0x3cf67b1f	0.030088006
131	0x3c49eb3f	0.012324153
132	0x3e2046df	0.15652035
133	0xbd2564e2	-0.040379412
134	0xbcf98778	-0.030460104
135	0x3df534f8	0.119729936
136	0x3def259b	0.116770945
137	0xbd872cdc	-0.06600353
138	0x3dadb972	0.084826365
139	0xbdcd1f15	-0.10015694
140	0x3ce6a987	0.028157009
141	0xbae0e45f	-0.0017157904
142	0x3cf125de	0.029437002
143	0x3ce9387c	0.028469317
144	0xbde588cf	-0.11207735
145	0xbbaa2a88	-0.0051930584
146	0xbe075b05	-0.13218315
147	0xbc3e3551	-0.011609391
148	0xbda1241e	-0.07868217
149	0xbd055c38	-0.03255865
150	0x3dc29ca3	0.09502532
151	0xbe2b8eef	-0.16753744
152	0x3b86511f	0.004099026
153	0xbdb30f8a	-0.08743198
154	0x3e33962b	0.17537753
155	0x3d9b0a58	0.07570332
156	0xbbb0add8	-0.0053918175
157	0xbd879279	-0.06619734
158	0xbd6d80b5	-0.057984073
159	0xbd0ce14e	-0.034394555
160	0xbd413f32	-0.04717941
161	0x3d1015ac	0.035176918
162	0xbc887e00	-0.016661644
163	0xbd3ee0fe	-0.046601288
164	0xbcac5f32	-0.021041486
165	0x3e1f3592	0.15547779
166	0xbda6c516	-0.0814306
167	0xbd02f17f	-0.03196859
168	0x3d09e8be	0.033669226
169	0xbdecb1d7	-0.11557358
170	0xbc424a6a	-0.011858562
171	0xbc935886	-0.017986547
172	0xbda4f0c4	-0.08053735
173	0xbbf2ba47	-0.00740746
174	0xbdd5f0b2	-0.104462996
175	0xbd00b0fb	-0.03141878
176	0xbcb49c06	-0.022047054
177	0x3ba25276	0.0049536778
178	0xbc98d0a3	-0.018654173
179	0xbd910c28	-0.07082397
180	0x3a0a595a	0.00052775966
181	0x3dd5190e	0.104051694
182	0x3db268f6	0.08711426
183	0xbd21eb2b	-0.039530914
184	0xbd2c9565	-0.04213466
185	0x3d0dfbc7	0.03466394
186	0x3d4cea4e	0.050028138
187	0x3d462f1c	0.04838477
188	0x3d3c5eac	0.045988724
189	0xbc4e49a4	-0.0125907995
190	0xbc3ff512	-0.011716144
191	0xbd16d959	-0.036828373
192	0xbdf72b2b	-0.120687805
193	0x3d8ac59d	0.06775973
194	0xbd0f3993	-0.034967016
195	0xbe486521	-0.19569828
196	0x3e2319ff	0.15927885
197	0x3dc579eb	0.09642395
198	0x3d8dd6e3	0.06925752
199	0x3dde9b7c	0.108695
200	0x3e0cef7d	0.13763233
201	0xba861a98	-0.0010231314
202	0x3d9e568b	0.077313505
203	0x3c993c8b	0.018705627
204	0x3dc1e2ed	0.09467111
205	0x3d1a0a04	0.037607208
206	0xbdd899bb	-0.10576197
207	0xbdbed669	-0.09318239
208	0xbb91a72c	-0.0044449773
209	0xbdacb819	-0.08433551
210	0xbd5d557e	-0.05403661
211	0x3dd9c34a	0.106329516
212	0xbdadb4e0	-0.08481765
213	0xbc6c6028	-0.014427222
214	0x3d6d5a67	0.057947543
215	0x3d55f0fd	0.052231777
216	0xbd0a370b	-0.0337439
217	0x3e09ce27	0.13457547
218	0x3e377c17	0.1791843
219	0xbd2b31ed	-0.04179566
220	0xbe0f02a6	-0.13965854
221	0x3d240afd	0.04004954
222	0xbe434601	-0.19069673
223	0x3c8d661d	0.017260605
224	0xbe8216f7	-0.25408146
225	0x3d2d20e9	0.042267714
226	0x3da3ce62	0.07998349
227	0xbd158a24	-0.036508694
228	0x3cc8ffc9	0.02453603
229	0xbd61d2a9	-0.05513254
230	0x3d84be98	0.064816654
231	0xbb96153e	-0.004580169
232	0xbc3e1d91	-0.011603729
233	0x3c65d398	0.014027499
234	0x3b941db9	0.004520145
235	0xbd3f16a4	-0.04665245
236	0xbd281c5c	-0.04104267
237	0x3c0d8e79	0.008639925
238	0x3e0a2c20	0.13493395
239	0x3d7add89	0.06124643
240	0xbe272522	-0.16322759
241	0xbdf7334b	-0.1207033
242	0xbdde3e7e	-0.10851763
243	0x3d59426d	0.053041864
244	0x3e266b7b	0.16251938
245	0x3e453ac3	0.19260697
246	0x3d6d8a5c	0.057993278
247	0xbc0c0bf2	-0.00854777
248	0x3cfd6e4b	0.03093638
249	0x3c7bef1d	0.015376833
250	0x3db9dfcb	0.09075888
251	0xbc8fe417	-0.017564816
252	0x3e0f98ee	0.14023182
253	0xbd414f43	-0.04719473
254	0x3d9ea3fb	0.077461205
255	0xbdb6683c	-0.089066

arith.constant3 f4 [64, 64]
0	0x3d45ae86	0.04826214
1	0xbd4cfd5a	-0.050046302
2	0x3d983636	0.07432215
3	0xbdb988b9	-0.09059281
4	0x3cb7c44f	0.022432474
5	0x3d40221d	0.046907533
6	0x3bdf4e70	0.0068147704
7	0xbd5987a1	-0.05310786
8	0xbdf63c1a	-0.12023182
9	0xbde1804b	-0.11010798
10	0x3c9fc2a9	0.019502
11	0xbd9b5af1	-0.07585705
12	0x3d53ae7c	0.051680073
13	0x3be1be39	0.0068891314
14	0xbd8938eb	-0.06700309
15	0xbca7f346	-0.020501744
16	0x3c9e3499	0.01931219
17	0x3b01bd29	0.0019796586
18	0xbd0281d6	-0.031862102
19	0x3d9ca18b	0.076479994
20	0x3d2f9583	0.042867195
21	0xbda5db73	-0.08098497
22	0x3b665694	0.003514682
23	0xbbcaf926	-0.0061942516
24	0x3cafc224	0.021454878
25	0xbe173d9f	-0.147696
26	0x3da718e4	0.081590444
27	0x3d8cab05	0.06868557
28	0x3ddc3067	0.107514195
29	0xbda0421c	-0.07825109
30	0xbd599f60	-0.053130507
31	0xbd8dc597	-0.06922453
32	0xbceadbf9	-0.028669344
33	0x3da06b80	0.07833004
34	0x3dac2077	0.0840463
35	0x3df0b2a7	0.11752825
36	0x3e03fe53	0.12889986
37	0x3e0e9440	0.1392374
38	0xbdbcf8f3	-0.09227171
39	0xbdd383bb	-0.1032786
40	0x3c0e7382	0.008694531
41	0x3c67ab9f	0.014140039
42	0x3d99530e	0.074865445
43	0xbd41c6bc	-0.04730867
44	0x3c6a8346	0.014313525
45	0x3d57a376	0.052646123
46	0xbd3394a4	-0.043842927
47	0xbdee5de4	-0.11639002
48	0x3d601c4e	0.054714493
49	0x3d672562	0.056432135
50	0x3ce43d8e	0.027861383
51	0xbd47be53	-0.04876549
52	0xbc811e86	-0.015761625
53	0x3d9f818e	0.077883825
54	0x3c52282d	0.012826961
55	0x3c239d36	0.0099862125
56	0xbd341ed7	-0.043974724
57	0x3dba4564	0.090952665
58	0xbd780d6d	-0.06055968
59	0x3d8d14b6	0.06888716
60	0x3db604db	0.08887645
61	0x3d009983	0.0313964
62	0x3dc638e4	0.0967882
63	0x3cbc4cf1	0.022985907
64	0xbcff3cca	-0.031156916
65	0x3d8e4d74	0.06948367
66	0xbb0663ec	-0.0020506335
67	0x3d9b02a1	0.07568861
68	0xbb6d17ed	-0.003617759
69	0x3ceb3c8d	0.028715396
70	0xbbd72542	-0.006565721
71	0xbd8620d2	-0.06549229
72	0x3da4a9e1	0.08040214
73	0x3e2553da	0.16145268
74	0xbcf06348	-0.029344216
75	0x3c6f61f8	0.01461076
76	0xbe4624d5	-0.19349988
77	0x3d76ded3	0.060271095
78	0x3d26b764	0.04070224
79	0xbc9e6a39	-0.01933776
80	0x3dddb656	0.108257934
81	0xbd3f55cd	-0.046712685
82	0x3d397278	0.04527518
83	0x3d099e99	0.033598516
84	0x3d7f2660	0.062292457
85	0xbe45cd87	-0.19316684
86	0x3d2b6815	0.041847307
87	0x3db682ff	0.08911704
88	0xbd2510d5	-0.040299255
89	0xbb47b544	-0.0030473033
90	0xbd968e8f	-0.0735141
91	0xbd48dd01	-0.04903889
92	0xbdbd1d3b	-0.09234091
93	0xbce8ca58	-0.028416798
94	0x3d677f45	0.056517858
95	0x3c976ef9	0.018485533
96	0x3d2d9320	0.042376637
97	0xbb884bbc	-0.004159419
98	0xbd85b51b	-0.06528684
99	0xbddb3ee1	-0.107053526
100	0x3e69bfd7	0.22827087
101	0x3c4196f5	0.011815776
102	0xbbb96cce	-0.0056587225
103	0x3c9a5c3f	0.018842814
104	0xbdcb54e2	-0.099282995
105	0x3d985a23	0.07439067
106	0x3c51f1db	0.0128140105
107	0xbd926353	-0.07147851
108	0xbbafc0b9	-0.0053635505
109	0xbd1f8357	-0.038943615
110	0x3c1c4f19	0.009540343
111	0x3ae0a75a	0.0017139718
112	0xbbf4986f	-0.0074644606
113	0x3c817918	0.015804812
114	0xbd4f1134	-0.050553516
115	0x3deb8872	0.11500634
116	0xba5e5584	-0.0008481371
117	0xbd6cfc10	-0.057857573
118	0xbd3b6f3f	-0.04576039
119	0xbd6289f6	-0.05530735
120	0xbc1d97ee	-0.009618742
121	0xbc8d07e9	-0.017215686
122	0x3d900092	0.07031359
123	0xbcdc10ac	-0.026863419
124	0x3e1e04dc	0.15431541
125	0x3bff846a	0.0077977674
126	0x3d1d200f	0.03836065
127	0x3e17ecd7	0.14836441
128	0x3de40b62	0.111349836
129	0x3dbeb8d7	0.09312599
130	0x3c9fbdb0	0.01949963
131	0x3c827cbe	0.015928622
132	0x3e160541	0.14650442
133	0x3d94ff64	0.072752744
134	0xbd9d711f	-0.07687592
135	0x3cd3a9bc	0.025837772
136	0x3e009dbe	0.12560174
137	0xbd80f527	-0.06296759
138	0x3b9359ba	0.00449678
139	0xbc95093c	-0.01819288
140	0x3d1221c0	0.035676718
141	0xbd8de7b2	-0.06928958
142	0x3d523a7c	0.051325306
143	0xbe0e5a37	-0.13901602
144	0xbd0cfe46	-0.03442218
145	0x3df63036	0.12020914
146	0xbc55cd8f	-0.013049497
147	0xbdabfe8b	-0.083981596
148	0x3cbcd591	0.023051055
149	0xbd055cee	-0.032559328
150	0x3d982fd3	0.07430997
151	0xbd4b9094	-0.049698427
152	0xbcc1f8b1	-0.023678156
153	0xbdd24175	-0.10266391
154	0x3dea1874	0.11430445
155	0x3d951414	0.0727922
156	0x3d62e081	0.055389885
157	0x3d19b519	0.037526224
158	0xbd9ded6a	-0.07711299
159	0x3e0d45c5	0.13796146
160	0x3dbcbd55	0.092158
161	0xbc1c691d	-0.009546545
162	0xbd49b1e0	-0.0492419
163	0xbdd23531	-0.10264052
164	0xbd7befcf	-0.061507996
165	0x3df716d4	0.12064901
166	0xbd203edf	-0.03912246
167	0xbd51c345	-0.051211614
168	0x3e09a4fc	0.13441843
169	0xbd041c43	-0.032253515
170	0x3ca056e9	0.019572692
171	0xbd62b26c	-0.055345938
172	0xbd0efd34	-0.034909442
173	0xbd9e7de6	-0.07738857
174	0x3dbcc3bc	0.09217021
175	0x3d77bb01	0.060481075
176	0xbc2c0e1e	-0.010501413
177	0x3e732f35	0.23748477
178	0xbd360084	-0.044434085
179	0xbdb09425	-0.08622006
180	0xbda13de7	-0.07873135
181	0x3b793ac1	0.0038029405
182	0x3de1b8c1	0.11021567
183	0x3e0463da	0.12928715
184	0x3d20da9f	0.039270993
185	0xbd06cdca	-0.0329111
186	0xbe145f5f	-0.14489506
187	0x3dd1a607	0.10236745
188	0x3c4699a8	0.012121595
189	0x3d13b5ea	0.03606216
190	0x3e143700	0.14474106
191	0xbc483793	-0.012220281
192	0xbd85ef93	-0.06539836
193	0x3dc43b8e	0.09581672
194	0x3ce4ec46	0.027944695
195	0xbd35088c	-0.044197604
196	0x3e01891c	0.1264996
197	0xbd67f22a	-0.05662743
198	0xbb3d76f3	-0.002891001
199	0x3e04ec5f	0.12980793
200	0x3e061e74	0.13097554
201	0x3c4151d0	0.011799291
202	0x3e753e43	0.23949532
203	0xbc54d376	-0.012989869
204	0x3d191256	0.037371002
205	0xbe2141ce	-0.15747759
206	0xbdd3d593	-0.103434704
207	0x3b249839	0.0025115146
208	0xbe25f729	-0.16207565
209	0x3e1dc9bb	0.15408985
210	0xbdd2ddbe	-0.102962
211	0x3d2a0c86	0.04151585
212	0xbdf9bd5b	-0.1219432
213	0xbc837b5a	-0.01605003
214	0x3d464383	0.048404228
215	0xbda72f8d	-0.081633665
216	0x3deb6d8d	0.114955045
217	0xbcaab911	-0.0208402
218	0xbdd34645	-0.10316137
219	0xbbb1add4	-0.0054223333
220	0xbe44249b	-0.19154589
221	0xbc4eca01	-0.012621404
222	0xbe2d1707	-0.16903315
223	0x3db97ff0	0.09057605
224	0xbe336890	-0.17520356
225	0xbd2c999e	-0.04213869
226	0xbe55e171	-0.2088678
227	0x3d170ded	0.036878515
228	0xbd3f6982	-0.04673148
229	0x3e317593	0.17330007
230	0xbd4435a1	-0.047902707
231	0xbdf839bd	-0.12120388
232	0xbdd54136	-0.104128286
233	0xbd2c29ba	-0.04203198
234	0x3d993118	0.07480067
235	0xbdb4b7a0	-0.08824086
236	0x3db3e600	0.087841034
237	0xbd8dc746	-0.06922774
238	0x3c81e3bc	0.015855663
239	0x3e1c81cf	0.15283893
240	0x3ddc643a	0.10761304
241	0xbd0bbbc2	-0.034114607
242	0x3cd845d1	0.026400479
243	0x3c63e406	0.0139093455
244	0x3c58b24c	0.013226103
245	0x3dcafa28	0.09910995
246	0xba55a640	-0.00081500784
247	0x3e09d33c	0.13459486
248	0xbbbecb75	-0.005822594
249	0x3d8a2960	0.06746173
250	0x3d60c349	0.05487374
251	0x3e009bc5	0.12559421
252	0xbd12fd61	-0.035886172
253	0xbdc2cc33	-0.09511604
254	0x3d646f0a	0.055769958
255	0xbd9b844f	-0.07593595

arith.constant4 f4 [64]
0	0x3d2a646b	0.041599672
1	0xbbff101a	-0.007783902
2	0x3c60ac83	0.013713005
3	0x3d7015f9	0.058614705
4	0xba8fd121	-0.001097236
5	0x3c825e1b	0.015914014
6	0x3d080983	0.033212196
7	0xbbaf56f9	-0.005350944
8	0x3d1a07a9	0.03760496
9	0x3cf457c1	0.029827
10	0x3cebf0d2	0.028801356
11	0x3cb1e9de	0.021717962
12	0x3ca34d01	0.01993418
13	0x3c3b117d	0.011417744
14	0x3cb87754	0.022517838
15	0x3b17f0be	0.0023184265
16	0x3c93e3ba	0.018052924
17	0x3cee5768	0.029094413
18	0x3d03eb68	0.032206923
19	0x3d41fdfc	0.04736136
20	0x3d2d3960	0.042291045
21	0x3c61ad1a	0.013774181
22	0x3d5d324f	0.054003056
23	0x3c615a58	0.01375445
24	0x3cee11be	0.029061195
25	0x3be3fa23	0.006957309
26	0x3d687fd4	0.05676253
27	0x3c820837	0.015873058
28	0x3cfe7305	0.031060705
29	0x3c9a0535	0.018801311
30	0x3d6823ea	0.056674875
31	0x3ba18625	0.0049293214
32	0x3d26f6d5	0.04076274
33	0x3d42bc97	0.047543135
34	0x3d54a6f4	0.05191703
35	0x3b963fe2	0.004585252
36	0x3d2f1d05	0.042752285
37	0x3d0f49d7	0.03498253
38	0xbce69d4b	-0.028151175
39	0x3c1f9c66	0.009741878
40	0x3cb6ce8d	0.022315288
41	0x3c9d55b0	0.019205898
42	0x3d20968f	0.039206084
43	0x3b95326f	0.0045531313
44	0x3db1654c	0.08661899
45	0x3cee379a	0.029079247
46	0x3d977038	0.07394451
47	0x3bfa2c05	0.007634642
48	0x3d4253e5	0.04744329
49	0x3cd0b966	0.02547903
50	0x3c9ca3a8	0.019121006
51	0xbc450b0f	-0.012026562
52	0x3d43c717	0.04779729
53	0x3d2f1b35	0.042750556
54	0x3d3b2ad0	0.045695126
55	0xbbafba3e	-0.005362778
56	0x3c9ed392	0.019387994
57	0x3cea957d	0.028635735
58	0x3d9f3302	0.07773401
59	0x3c8a80f3	0.01690719
60	0x3c2be0d5	0.010490616
61	0xbc90fb04	-0.017697819
62	0x3c38da08	0.011282451
63	0x3cd07723	0.025447434

arith.constant5 f4 [64]
0	0x3cc0bbb6	0.023527008
1	0x3cbe8ac3	0.023259526
2	0xbaf9ee2a	-0.0019068171
3	0xbc9cb1b0	-0.019127697
4	0xbbfd1533	-0.0077234744
5	0xbcb6bb3d	-0.022306079
6	0xbb247bb3	-0.0025098145
7	0xbaacb27c	-0.0013175751
8	0x3b889c66	0.004169035
9	0xbc6c82b1	-0.014435456
10	0x3c17581a	0.009237314
11	0xbbaaf15c	-0.0052167606
12	0xbc35ccfd	-0.011096236
13	0xbc4fd50b	-0.012685071
14	0xb9cdb10e	-0.00039232563
15	0x3c811921	0.015759053
16	0x3c2d982b	0.010595362
17	0xbc08598c	-0.008322131
18	0x3c03aa5f	0.008036225
19	0xbc084f12	-0.008319633
20	0xbcb03a5b	-0.021512201
21	0xbc91b4a2	-0.017786328
22	0xbc59ae2c	-0.013286155
23	0x3c81b186	0.01583172
24	0x3c7f8ee8	0.015598036
25	0x3ba4dcdc	0.0050312113
26	0xbbc102bd	-0.005890219
27	0x3c385087	0.011249668
28	0xbc4cab8e	-0.012492074
29	0x3ae83f47	0.0017719053
30	0xbcb24e28	-0.021765783
31	0x3bb2daba	0.005458203
32	0xba8545f6	-0.0010167945
33	0xbb1898f5	-0.002328453
34	0xbc185c2c	-0.009299319
35	0x3baec2cd	0.0053332807
36	0x3c871246	0.016488206
37	0x3b184ef3	0.0023240417
38	0x3c5c07e9	0.01342962
39	0xbc983eb4	-0.018584587
40	0xbb7df069	-0.0038748032
41	0xbc15a7f1	-0.009134279
42	0x3c4712a2	0.0121504385
43	0xbb540282	-0.0032350128
44	0x3b2ce349	0.002638059
45	0xbc9e432c	-0.01931914
46	0x3cc0fa7e	0.023556944
47	0xbad9244b	-0.0016566602
48	0x3ad207e9	0.0016024086
49	0x3c843f14	0.01614336
50	0x3c13bf9f	0.009017854
51	0xba18b208	-0.00058248686
52	0xbbad9145	-0.0052968585
53	0x3c92d9a0	0.017926037
54	0xbc997f76	-0.018737536
55	0x3c999d67	0.018751813
56	0x3b36496a	0.0027814754
57	0xbc4c4177	-0.01246678
58	0xbcd7d4c4	-0.026346572
59	0x3c42ac14	0.011881847
60	0x3a8c837d	0.0010720339
61	0xbbc486f1	-0.0059975316
62	0x3cbd4c1c	0.02310758
63	0x3c88860e	0.016665485

arith.constant6 f4 [64]
0	0x3f8140fd	1.0097958
1	0x3f801791	1.0007192
2	0x3f81956b	1.0123724
3	0x3f831866	1.0241821
4	0x3f7d9c83	0.9906694
5	0x3f8324ec	1.0245643
6	0x3f813c6d	1.0096565
7	0x3f7dad7a	0.9909283
8	0x3f849cf4	1.0360398
9	0x3f82b8d9	1.0212661
10	0x3f834692	1.0255911
11	0x3f82b9a3	1.0212902
12	0x3f80d0b9	1.0063697
13	0x3f823ef7	1.0175465
14	0x3f82855b	1.0196947
15	0x3f800328	1.0000963
16	0x3f8090ca	1.0044186
17	0x3f82f5e3	1.0231289
18	0x3f83ac0d	1.0286881
19	0x3f851e3f	1.0399855
20	0x3f81b2d5	1.01327
21	0x3f82b2d9	1.021083
22	0x3f869ab4	1.0515962
23	0x3f7e9cd5	0.99458057
24	0x3f82b88f	1.0212573
25	0x3f82ba51	1.0213109
26	0x3f866a70	1.0501232
27	0x3f81e732	1.014868
28	0x3f816723	1.01096
29	0x3f81c6af	1.0138758
30	0x3f841f68	1.0322084
31	0x3f7fa6b3	0.9986374
32	0x3f82b1f3	1.0210556
33	0x3f8547fd	1.0412594
34	0x3f850dd3	1.0394844
35	0x3f80664b	1.0031217
36	0x3f84f073	1.0385879
37	0x3f843388	1.0328226
38	0x3f7b692a	0.9820734
39	0x3f81217e	1.0088346
40	0x3f812d66	1.009198
41	0x3f83622d	1.0264336
42	0x3f82a0a3	1.0205272
43	0x3f7e4fd5	0.99340564
44	0x3f87e080	1.0615387
45	0x3f84a097	1.0361508
46	0x3f844708	1.0334177
47	0x3f81438c	1.0098739
48	0x3f841de5	1.0321623
49	0x3f8234d4	1.0172372
50	0x3f82c139	1.0215217
51	0x3f815c75	1.0106341
52	0x3f8580fd	1.0429989
53	0x3f84f6ea	1.0387852
54	0x3f855eb1	1.0419523
55	0x3f7fed38	0.9997134
56	0x3f8187f9	1.011962
57	0x3f840f02	1.031708
58	0x3f85c799	1.0451537
59	0x3f805d7e	1.0028532
60	0x3f7cf772	0.9881507
61	0x3f7b2f20	0.9811878
62	0x3f814ebf	1.0102156
63	0x3f84a187	1.0361794

arith.constant7 f4 [64]
0	0x3d10dd31	0.035367195
1	0x3b24c7c9	0.0025143495
2	0x3bdfd367	0.006830621
3	0x3d66f1e4	0.05638303
4	0xbb5c1ea7	-0.0033587606
5	0x3c756f7d	0.014980194
6	0x3cc8bf87	0.02450539
7	0x3a386b73	0.0007035054
8	0x3cd15aca	0.025555987
9	0x3c3f86c7	0.011689848
10	0x3c91bc69	0.017790036
11	0x3c9f082e	0.01941308
12	0x3becf8dd	0.0072318153
13	0x3b0d6c58	0.002157947
14	0x3bd474bb	0.006483642
15	0xbb8fb5bc	-0.004385678
16	0x3bb44b2b	0.005502125
17	0x3cb2f9d4	0.021847643
18	0x3cb24e00	0.021765709
19	0x3d108784	0.035285488
20	0x3d035bf9	0.032070134
21	0x3c043549	0.008069345
22	0x3cbaa5ce	0.02278414
23	0x3c4c4850	0.0124684125
24	0x3cb5b93c	0.022183053
25	0x3c86d0ce	0.016456988
26	0x3d0d5203	0.03450204
27	0x3c6249dd	0.013811556
28	0x3cabd150	0.020973831
29	0x3c1bf633	0.009519148
30	0x3caf1e5c	0.021376781
31	0xbb5884c6	-0.0033038124
32	0xbc5710d2	-0.013126569
33	0x3ce9863b	0.028506389
34	0x3d0108c8	0.031502515
35	0x3aeacb64	0.0017913398
36	0x3d047dd1	0.03234655
37	0x3c9be51c	0.019030146
38	0xbca66ac7	-0.020314587
39	0xbb154188	-0.0022774655
40	0x3bc5e76d	0.006039551
41	0x3c985733	0.018596267
42	0xbcae9d6e	-0.021315303
43	0x36c5b662	5.8922897e-06
44	0x3d374b09	0.044749293
45	0x3cd7bfc5	0.02633656
46	0x3d14b094	0.03630121
47	0x3b0eecde	0.0021808664
48	0x3b873dbc	0.0041272324
49	0x3c8ac209	0.016938226
50	0x3c6635a5	0.014050876
51	0xbca6170c	-0.020274661
52	0x3ceeab74	0.02913449
53	0x3cc29608	0.023753181
54	0x3c3dfc58	0.011595808
55	0x3afc4ada	0.0019248382
56	0x3c75a7a2	0.01499358
57	0x3c52c5a6	0.012864506
58	0x3d3324ed	0.043736387
59	0x3b920d7c	0.004457174
60	0x3b6edf8e	0.0036449167
61	0xbca4cdde	-0.020117696
62	0xbc417ed1	-0.011810021
63	0x3c8931c1	0.016747357

arith.constant8 f4 [64, 6]
0	0xbdadbf91	-0.08483804
1	0x3dd65bbc	0.10466716
2	0xbd738275	-0.059450585
3	0xbbc84edb	-0.006112916
4	0xbd1503e5	-0.036380667
5	0xbda107d9	-0.07862825
6	0xbd1b914c	-0.037980363
7	0x3defa3ac	0.1170114
8	0x3e403a41	0.18772222
9	0x3b8b6167	0.0042535546
10	0x3e2606ce	0.16213533
11	0xbdf0ef84	-0.11764434
12	0xb9a2c336	-0.0003104449
13	0xbdae3da7	-0.08507853
14	0xbdb6b373	-0.08920946
15	0x3c82f364	0.015985198
16	0x3dcf4d55	0.10122172
17	0xbdf42379	-0.11920828
18	0xbe391927	-0.18076001
19	0x383e60d1	4.5389697e-05
20	0xbdc4b6fb	-0.09605213
21	0xbdb1be71	-0.08678902
22	0x3e47a497	0.1949638
23	0x3ce75bdc	0.028242044
24	0x3db67e3d	0.08910797
25	0xbd724a43	-0.059152853
26	0x3dcbf17f	0.09958171
27	0x3de632e8	0.11240178
28	0xbcabe444	-0.020982869
29	0xbcad6287	-0.021165146
30	0xbca250f0	-0.019813985
31	0x3dc18deb	0.09450897
32	0x3d88ffc5	0.06689409
33	0xbdb02d8d	-0.08602438
34	0x3d67177f	0.056418892
35	0xbe00744f	-0.12544368
36	0x3dcee55d	0.10102341
37	0x3be6a244	0.0070383865
38	0x3d681cc7	0.05666807
39	0xbd39687a	-0.045265652
40	0x3c1effda	0.009704554
41	0xbd91178c	-0.07084569
42	0x3d362967	0.044473078
43	0x3d0ae6c8	0.033911496
44	0x3cf9013c	0.030396096
45	0xbe22bcd9	-0.15892352
46	0xbe353d5a	-0.17699185
47	0x3d4c364d	0.049856473
48	0x3dc99f07	0.09844785
49	0x3d4aa8d8	0.04947743
50	0xbdae0f0c	-0.08498964
51	0xbcdaabe1	-0.026693286
52	0x3e21bf65	0.15795667
53	0x3b8c3004	0.004278185
54	0x3dbc6199	0.09198303
55	0xbd809b8a	-0.06279667
56	0xbdd99be7	-0.10625439
57	0xbe568b6e	-0.20951626
58	0xbda7a7b8	-0.08186287
59	0xbe3fa3fa	-0.18714896
60	0xbdffbcec	-0.12487206
61	0x3db32630	0.08747518
62	0xbe1141e2	-0.14185289
63	0xbc956971	-0.018238755
64	0x3de1b40f	0.110206716
65	0xbdf044f2	-0.117319
66	0xbd47037f	-0.04858732
67	0xbd42a85a	-0.047523834
68	0x3dc5e729	0.09663231
69	0x3cc5ab98	0.024129674
70	0xbdc24f90	-0.094878316
71	0xbbc8b33a	-0.006124881
72	0x3dd3f916	0.10350244
73	0xbe300a77	-0.17191492
74	0xbdaa2d33	-0.08309402
75	0xbbc31030	-0.0059528574
76	0x3e08568e	0.13314268
77	0xbe29dd8c	-0.1658842
78	0x3d7cb82f	0.06169909
79	0x3e072d98	0.13200986
80	0xbccefbc8	-0.025266543
81	0xbd9bbd60	-0.0760448
82	0xbc86c7b2	-0.016452644
83	0xbe3db0af	-0.1852443
84	0x3de30e70	0.11086738
85	0x3d2a215f	0.04153573
86	0xbd443834	-0.047905162
87	0x3cb32f2c	0.02187308
88	0xbe2b8f21	-0.16753818
89	0xbd80bc68	-0.06285936
90	0xbccab8d7	-0.024746342
91	0xbd614771	-0.054999772
92	0x3b091bb8	0.0020921063
93	0xbe2c6206	-0.16834268
94	0x3df865f8	0.12128824
95	0xbdaa1452	-0.08304657
96	0xbc3cfae9	-0.011534431
97	0x3dfae9ab	0.122516
98	0xbd7a355d	-0.061086047
99	0xbe01456f	-0.12624143
100	0xbdae9183	-0.08523848
101	0x3d8ebd2a	0.06969674
102	0x3d1450c0	0.03620982
103	0x3e8241dc	0.25440872
104	0xbde6705c	-0.112518996
105	0x3db79081	0.08963109
106	0xbd85b666	-0.0652893
107	0xbdcb3b65	-0.09923438
108	0xbdac5079	-0.084137864
109	0xbc406a61	-0.011744113
110	0xbe0659e5	-0.1312023
111	0x3cfec1ec	0.031098329
112	0x3e28248d	0.16420193
113	0xbd233951	-0.039849583
114	0xbddd241d	-0.10797904
115	0x3df10ac8	0.117696345
116	0xbe0300b3	-0.12793235
117	0x3d2100d0	0.039307415
118	0xbcd340d1	-0.025787743
119	0x3def5d5a	0.11687727
120	0xbdcdd9c5	-0.10051302
121	0x3d9f5960	0.07780719
122	0x3ccb77df	0.024837432
123	0xbdde217c	-0.108462304
124	0x3dc582e1	0.09644104
125	0x3bbd43a7	0.005775887
126	0xbd681c22	-0.056667455
127	0xbd1a75ed	-0.03771012
128	0x3e0a3381	0.1349621
129	0xbdaee572	-0.08539857
130	0x3d471fe5	0.0486144
131	0xbd51499c	-0.05109559
132	0x3cb4555b	0.022013357
133	0x3e5e86de	0.21731135
134	0x3cc323e1	0.02382082
135	0xbe0ed4cf	-0.13948368
136	0xbdbc0e05	-0.091823615
137	0xbdb8b1a3	-0.090182565
138	0xbd5a8612	-0.053350516
139	0x3e98d770	0.29851866
140	0x3d4d74b1	0.050160114
141	0x3d31d0b6	0.043411933
142	0x3da95e5c	0.08269951
143	0x3ce739dd	0.028225834
144	0x3e12fa6f	0.14353345
145	0x3dedee83	0.11617758
146	0x3d070432	0.032962985
147	0x3d22937e	0.03969144
148	0xbdc56f70	-0.09640396
149	0xbdb0b89c	-0.086289614
150	0xbc327b7e	-0.010893701
151	0x3e102f9d	0.14080663
152	0x3d5469aa	0.05185858
153	0x3d9ae3e9	0.07563002
154	0xbe2e1662	-0.17000726
155	0xbdea7e25	-0.114498414
156	0xbe49acd6	-0.19694838
157	0xbcee900d	-0.029121423
158	0x3dbbb696	0.09165685
159	0xbcb0236f	-0.021501271
160	0x3c93b642	0.018031243
161	0x3dafa248	0.085758746
162	0x3bac29be	0.0052539995
163	0xbd42ae3d	-0.047529448
164	0x3d4fe676	0.050756894
165	0xbde90312	-0.11377539
166	0xbe5ff68e	-0.21871397
167	0x3dfd0a8e	0.12355529
168	0x3dbc4fbf	0.09194898
169	0xbdd27672	-0.10276498
170	0x3dc05705	0.09391598
171	0xbda8e068	-0.08245927
172	0x3e0e0566	0.13869247
173	0xbe267e32	-0.16259077
174	0x3db99d21	0.09063173
175	0xbcd0aec7	-0.025473965
176	0xbd85f74f	-0.06541311
177	0xbb8eb4d7	-0.004355054
178	0xbd7243b5	-0.0591466
179	0xbd938048	-0.07202202
180	0xbd864918	-0.0655691
181	0xbe052deb	-0.13005798
182	0x3d4bd87b	0.049767
183	0x3d85247b	0.06501099
184	0x3d3309b1	0.043710414
185	0x3ceba60c	0.0287657
186	0x3bdbc74a	0.0067071067
187	0x3d136b22	0.03599084
188	0x3e1a6873	0.15078907
189	0xbd40eb12	-0.04709918
190	0xbdc10dff	-0.09426498
191	0xbd329008	-0.04359439
192	0x3e0f0feb	0.13970916
193	0x3e50d835	0.20394976
194	0xbe075ef8	-0.13219821
195	0x3cc1edc8	0.023672953
196	0x3d8508d1	0.06495822
197	0x3de9dca8	0.1141904
198	0xbdcedbf6	-0.10100548
199	0xbdff0a5f	-0.1245315
200	0x3dda7a08	0.10667807
201	0x3b9f2ee0	0.004857883
202	0x3d854f70	0.06509292
203	0x3db21bd2	0.086967126
204	0x3decd728	0.11564475
205	0x3e1a0658	0.15041482
206	0xbe1d282f	-0.1534736
207	0x3abbe9f2	0.0014336689
208	0xbe5eaaed	-0.2174489
209	0xbcc19f9a	-0.023635674
210	0xbceb9c3d	-0.028761024
211	0x3e095143	0.13409905
212	0xbd828368	-0.0637272
213	0xbe1641ed	-0.14673586
214	0x3d955834	0.07292214
215	0xbbcb4aa0	-0.0062039644
216	0xbe0a831c	-0.13526577
217	0xbd958a98	-0.07301825
218	0xbe0b262a	-0.13588777
219	0xbdb6946a	-0.089150265
220	0x3c5e56af	0.013570472
221	0x3d463d56	0.04839834
222	0x3e2570f8	0.16156375
223	0x3e847f1e	0.25878233
224	0xbd867a64	-0.06566313
225	0xbd0b9764	-0.034079924
226	0x3e122bcd	0.14274521
227	0x3dc07ff6	0.093994066
228	0xbc1c03c1	-0.009522379
229	0xbd7ec13d	-0.062196005
230	0xbdb16f95	-0.08663861
231	0x3de1f159	0.110323615
232	0x3d97c350	0.074103
233	0xbda949d6	-0.08266036
234	0xbd96f220	-0.073704004
235	0xbca5b72a	-0.020228941
236	0x3e30c010	0.17260766
237	0xbe156500	-0.1458931
238	0xbe325277	-0.1741427
239	0xbd91bfe5	-0.07116679
240	0x3dfaffa3	0.1225579
241	0x3dbdd3d3	0.09268918
242	0x3c01b80f	0.007917418
243	0xbe018e7d	-0.12652011
244	0xbe193bd0	-0.14964223
245	0x3c47ef5a	0.012203062
246	0xbdf6e707	-0.12055784
247	0xbe1827b1	-0.14858891
248	0xbdc750b3	-0.09732189
249	0x3d8f3201	0.06991959
250	0xbe0f17c5	-0.13973911
251	0xbd4e1694	-0.0503145
252	0x3d423412	0.04741294
253	0x3d1d8a87	0.038462188
254	0xbd88bd10	-0.06676686
255	0xbdbab91a	-0.091173366

arith.constant9 f4 [64, 6]
0	0x3e461307	0.19343196
1	0x3da8ca13	0.082416676
2	0x3cdf1e9f	0.027236281
3	0x3d34a10b	0.044098895
4	0xbe0195ec	-0.12654847
5	0xbda9a824	-0.082840234
6	0x3c9490cf	0.018135456
7	0x3d9a295b	0.07527419
8	0xbd26e97b	-0.040750008
9	0xbd3f4e5d	-0.046705592
10	0x3d8ed994	0.069750935
11	0x3c37c427	0.0112162
12	0x3d898306	0.06714444
13	0xbdefc29b	-0.1170704
14	0xbbbe8ffa	-0.005815503
15	0xbdff9efa	-0.12481494
16	0x3d9c3af7	0.07628434
17	0xbe236ab7	-0.15958677
18	0x3c80177f	0.015636204
19	0xbe46ec74	-0.19426137
20	0xbd58dbe8	-0.052944094
21	0x3dabcd9a	0.08388825
22	0xbe2eb539	-0.17061318
23	0xbd38ab17	-0.04508504
24	0x3dfa4e54	0.12221971
25	0x3db3beb0	0.08776605
26	0xbdf4499f	-0.119281046
27	0x3db2531c	0.08707258
28	0xbdcbfb10	-0.09959996
29	0x3e17266a	0.14760748
30	0xbdac4afc	-0.0841274
31	0x3dec9f87	0.11553865
32	0x3c75d8b3	0.015005278
33	0xbb5edcf6	-0.0034006215
34	0x3d456691	0.048193518
35	0x3c97ae7a	0.018515814
36	0xbe04c872	-0.12967089
37	0x3e164d3d	0.14677902
38	0xbe1b2dd9	-0.15154208
39	0xbe09cb54	-0.1345647
40	0xbd92f39d	-0.07175372
41	0x3dd66e57	0.104702644
42	0x3e0788d8	0.13235795
43	0x3dad97de	0.08476232
44	0xbddbf17c	-0.10739419
45	0xbd586746	-0.052832864
46	0x3d9149f9	0.07094187
47	0x3dee068a	0.11622341
48	0x3b755275	0.0037433181
49	0x3cc414ae	0.023935642
50	0xbded0bcc	-0.11574516
51	0xbb95f322	-0.004576103
52	0xbd4785b1	-0.048711482
53	0x3e2d981c	0.16952556
54	0xbddae4ef	-0.10688197
55	0x3e69ba4e	0.22824976
56	0xbdda8b78	-0.10671133
57	0x3aac7178	0.0013156375
58	0x3dfa83db	0.12232181
59	0x3d883f6a	0.0665272
60	0xbcca2f6c	-0.024680816
61	0x3e11c9f6	0.14237198
62	0xbdeaa730	-0.1145767
63	0x3e018b3d	0.12650771
64	0xbddb2bee	-0.10701738
65	0x3d3e46bf	0.046454187
66	0x3c28d1f0	0.010303959
67	0x3de7fda8	0.11327678
68	0x3d99e109	0.07513625
69	0xbe2fad86	-0.17156038
70	0xbdf8e2c7	-0.12152629
71	0xbe080331	-0.13282467
72	0xbb267214	-0.0025397586
73	0x3c86a3a7	0.016435457
74	0xbdf9524a	-0.121738985
75	0x3cdbc203	0.02682591
76	0x3e0529f7	0.1300429
77	0xbde6b3d3	-0.112647675
78	0x3df36c67	0.118859105
79	0xbb0a2ab9	-0.0021082594
80	0x3e03a1b0	0.12854648
81	0x3e2a0339	0.16602792
82	0x3d8e0c3c	0.06935927
83	0x3e014f7f	0.12627982
84	0x3d4042ce	0.04693871
85	0xbd8d4c35	-0.06899301
86	0xbca77f00	-0.0204463
87	0x3e1ad8ea	0.15121809
88	0xbd92a7f1	-0.071609385
89	0xbdc45103	-0.09585764
90	0x3c799164	0.015232418
91	0xbd913e92	-0.070920125
92	0x3e036727	0.12832318
93	0x3e2231b4	0.15839273
94	0xbb82b59c	-0.0039889347
95	0x3d73b5b5	0.05949946
96	0xbe0254fb	-0.1272773
97	0xbd3fa33a	-0.046786524
98	0x3db5f732	0.088850394
99	0x3cb2cc8f	0.021826057
100	0x3e3eefe9	0.18646206
101	0xbcfbd6cf	-0.030742077
102	0x3e25c679	0.16188993
103	0x3ce31eac	0.027724586
104	0xbe03cdec	-0.12871522
105	0x3d52bd6a	0.05145017
106	0xbe12a827	-0.14321958
107	0xbcc2d47d	-0.023782963
108	0xbdc3e26c	-0.09564671
109	0xbd5e57d0	-0.054282963
110	0x3da1610d	0.07879839
111	0xbe181a19	-0.14853705
112	0xbe0ba0f1	-0.13635613
113	0xbd720406	-0.05908587
114	0x3d86049a	0.065438464
115	0x3e167e64	0.14696652
116	0x3d93a1f4	0.072086245
117	0xbdbc2e42	-0.091885105
118	0x3d90a0fa	0.07061954
119	0x3d1d62e9	0.038424406
120	0xbd1555c1	-0.036458734
121	0xbe22e78d	-0.15908642
122	0x3d86d086	0.065827414
123	0x3b3715aa	0.0027936497
124	0xbe2e96ef	-0.17049764
125	0xbe5e5312	-0.21711376
126	0x3e3ac14d	0.18237801
127	0x3dcbca26	0.09950666
128	0x3d914e36	0.07094996
129	0x3db10d58	0.08645123
130	0xbd24e1b3	-0.040254306
131	0xbd2a0383	-0.041507255
132	0x3df5296a	0.1197079
133	0x3e4aee1a	0.19817391
134	0xbd9ef35d	-0.077612616
135	0xbddfc1cc	-0.10925636
136	0x3dfc6f22	0.123258844
137	0xbe56da91	-0.20981814
138	0xbd832edf	-0.06405424
139	0xbd3d5253	-0.04622109
140	0x3d765582	0.06014014
141	0xbd90059e	-0.070323214
142	0xbdca5603	-0.09879687
143	0xbdaf1e70	-0.08550727
144	0x3c4daab6	0.012552908
145	0xbd9a7cf9	-0.07543368
146	0x3d2c1ea8	0.042021424
147	0xbdafcaa4	-0.085835725
148	0x3dde8682	0.10865499
149	0x3e4e1b42	0.20127586
150	0xbe1a2eda	-0.15056935
151	0x3df7eadd	0.121053435
152	0x3dad075f	0.084486715
153	0x3d75a8a6	0.05997529
154	0x3cc680ac	0.024231277
155	0xbcec018c	-0.028809331
156	0x3d99c3d9	0.07508058
157	0x3e28ec1d	0.1649632
158	0x3d516b28	0.051127583
159	0x3dbe5f39	0.09295506
160	0x3e04d994	0.12973624
161	0xbde8bf37	-0.11364596
162	0x3da7a7f4	0.081863314
163	0xbd1bb534	-0.038014606
164	0xbcedce5d	-0.029029066
165	0xbd14dd57	-0.0363439
166	0xbd065ebe	-0.032805197
167	0xbcc2f59e	-0.02379876
168	0x3deddca3	0.11614349
169	0xbddbe1cd	-0.107364275
170	0x3dbe0ae5	0.09279422
171	0x3e3f3b55	0.18674977
172	0xbc33d8e4	-0.010977004
173	0xbcf29b15	-0.029614965
174	0x3d2166fb	0.03940485
175	0x3dbb0882	0.09132482
176	0x3c9c7b9f	0.019101916
177	0x3e1ade30	0.1512382
178	0xbc17f751	-0.009275273
179	0xbd8781fb	-0.06616589
180	0xbca1c39a	-0.01974659
181	0xbe3a4b3b	-0.1819276
182	0x3e154980	0.1457882
183	0x3e481b66	0.19541702
184	0x3bfe3c82	0.007758678
185	0x3d9994f5	0.074991144
186	0x3e024f60	0.12725592
187	0x3d0405b0	0.032231987
188	0xbda9f4ae	-0.08298622
189	0xbd82b8f0	-0.0638293
190	0xb9413099	-0.00018424018
191	0x3e2798e4	0.16366917
192	0x3e17fac8	0.14841759
193	0xbe102199	-0.14075316
194	0x3deaf890	0.11473191
195	0x3e2e2d2b	0.17009418
196	0xbdf53be9	-0.119743176
197	0x3d67dd07	0.056607272
198	0x3d6e4766	0.05817356
199	0x3e1f9224	0.15583092
200	0x3de439d9	0.11143846
201	0xbdccf640	-0.10007906
202	0x3e4b0a04	0.1982804
203	0x3d3967e5	0.045265097
204	0xbdf1a159	-0.11798353
205	0x3e5adf46	0.21374235
206	0x3ba421a6	0.005008894
207	0xbd9c755c	-0.07639572
208	0xbe20b7db	-0.15695135
209	0xbe65d11a	-0.22443047
210	0xbc7f4243	-0.015579763
211	0xbd78d5ea	-0.06075088
212	0xbe15571c	-0.14584011
213	0xbe114a2e	-0.14188454
214	0x3da63c12	0.08116926
215	0xbd4e30fb	-0.05033968
216	0xbd7e8f23	-0.062148225
217	0x3d72657d	0.059178818
218	0x3deacdeb	0.11465057
219	0x3d7fdcfa	0.0624666
220	0xbd96f0ff	-0.07370185
221	0x3bc7dcd6	0.0060993237
222	0x3e1ac07e	0.15112492
223	0xbcbcdf4d	-0.023055697
224	0x3d65ed03	0.056134235
225	0x3df2a01f	0.11846947
226	0xbdd122bd	-0.10211704
227	0x3db00362	0.08594395
228	0x3d9beff8	0.0761413
229	0x3d437a26	0.04772391
230	0x3ddc675f	0.10761904
231	0x3cece54c	0.028917931
232	0x3dbcf175	0.09225742
233	0x3d8942fd	0.0670223
234	0x3d84bd2f	0.064813964
235	0x3c9077a3	0.017635172
236	0x3de6870c	0.11256227
237	0x3e298ee0	0.16558409
238	0xbd64c422	-0.05585111
239	0x3db9f232	0.09079398
240	0x3de3d737	0.11125033
241	0x3ccda6fd	0.02510404
242	0x3dde255f	0.10846972
243	0x3dcf97a6	0.101363465
244	0xbe0cfd81	-0.13768579
245	0xbd0fea4b	-0.03513555
246	0xbd57cc43	-0.052685034
247	0x3dba92e5	0.09110049
248	0x3d964a29	0.07338364
249	0x3de109f5	0.10988227
250	0x3b5eb12f	0.0033980121
251	0x3cdff55c	0.027338676
252	0xbd906008	-0.070495665
253	0xbdada199	-0.08478088
254	0xbdef1b2f	-0.11675107
255	0x3caaa862	0.020832244
