app/src/main/assets/respeck_lstm_essential5_64_n_9657.tflite (tflite, 186928 bytes, 30 tensors)

sequential/normalization/truediv;sequential/normalization/Sqrt f4 [1, 1, 6]
000000 d8 5a 13 40 8a 30 fd 3f 99 1f f8 3f 9b 86 a7 3d
       2.3024197 1.9780438 1.9384643 0.08179971
000010 76 3b 8c 3d ca 9f e9 3d
       0.06847279 0.114074305

Const_1 f4 [1, 1, 6]
000000 f9 37 e8 bc 64 14 20 bf 77 b4 33 3d 5e b6 1b 3e
       -0.028347002 -0.62531114 0.043873277 0.15206286
000010 a8 ab cd 3d e5 d6 75 bd
       0.100425065 -0.060019393

sequential/dense/BiasAdd/ReadVariableOp f4 [64]
000000 2a 63 f8 3c 44 e3 e3 3d c4 92 85 bb c3 9c fe 3c
       0.030320723 0.11127332 -0.0040763337 0.03108061
000010 b4 3d 13 bd 28 5c e3 bc 14 67 07 3d 90 e7 2c 3e
       -0.035947517 -0.027753904 0.033057287 0.16885209
000020 1e 0b 81 bb ea d9 e5 3d 0a 5a b3 bd 15 0a c9 3d
       -0.003938093 0.112232044 -0.08757408 0.09816376
000030 04 0b aa 3d 71 18 49 3c 77 a0 a0 3b 2d ca c2 3b
       0.08302882 0.012273894 0.0049019414 0.0059445114
000040 ee 69 86 3d 64 4b 81 3d eb fe 01 3e e4 df e5 3b
       0.06563173 0.06313208 0.126949 0.0070152152
000050 64 d9 1b 3d e4 2f a3 3d 2c fb 98 3d f6 5a be 3d
       0.038049117 0.07968119 0.07469782 0.09294693
000060 43 1b 3e bc 2d 95 b9 3d 44 1f 11 3c 49 84 be 3c
       -0.011603179 0.09061656 0.008857552 0.023256438
000070 8e a8 d6 bc f0 47 32 3c 1c f6 74 3d a7 e3 86 3d
       -0.02620342 0.010881409 0.05980502 0.0658639
000080 39 ce 2d 3d 2e 8d c4 3d 95 c5 c4 3d 1f 03 06 3e
       0.042432997 0.095972404 0.09607998 0.13087128
000090 cd 3e 33 3d 76 96 05 bd f8 2f af 3d a5 e3 58 bd
       0.043761063 -0.032614194 0.08554071 -0.052951474
0000a0 f6 3e 04 bc a1 ed ae 3d 40 f3 92 3d 56 b8 1e 3e
       -0.008071652 0.08541418 0.071753025 0.15500006
0000b0 cf cc f5 3c 61 4c 08 3e 1c 16 a3 3c 7d e3 db 3a
       0.030004887 0.13310386 0.019908004 0.0016776171
0000c0 b5 ab d6 3c e0 e8 02 3d d3 ab f4 3d a9 81 0d 3c
       0.026204923 0.03196037 0.11946835 0.00863687
0000d0 b6 1f 7a 3d 2b dc 4b 3e 13 87 eb 3c d4 9c 29 3d
       0.0610654 0.19908206 0.028750932 0.04140933
0000e0 e2 fd 0a 3c c6 73 18 3d da e0 f5 3d 4e 18 b8 3d
       0.008483382 0.037219785 0.12005778 0.08989011
0000f0 32 26 ea 3b 44 96 9c bc 05 dc ac 3d ff a4 8a 3d
       0.0071456665 -0.019114621 0.08440403 0.06769752

sequential/dense_1/BiasAdd/ReadVariableOp f4 [5]
000000 b6 d7 1f bd 28 f2 4d bd c7 80 3e 3d 17 91 2a 3d
       -0.039024077 -0.050279766 0.04650953 0.041642275
000010 d8 d3 53 bd
       -0.0517157

arith.constant f4 [64, 64]
000000 83 51 92 3d 0e a5 4d bd 71 f0 20 3c 0c 49 0f 3e
       0.071444534 -0.050206237 0.009822951 0.13992709
000010 2f 97 c3 3c 16 0b 24 3d a8 ef 74 bd 21 bb 1b be
       0.0238758 0.040049635 -0.059798867 -0.15208103
000020 96 ff 52 bc fd fd 19 3d f6 c9 96 3d 33 4b ab 3d
       -0.012878319 0.037595738 0.0736274 0.083639525
000030 9e ec ff bc 6d 55 86 bd 98 d7 2a 3e d5 b4 a9 3d
       -0.031240758 -0.065592624 0.16683805 0.08286444
000040 6f d9 06 3d ec ce 16 3d 27 90 95 bd 63 3d 23 be
       0.032922205 0.03681843 -0.073028855 -0.15941386
000050 ea dc 26 3d b2 f6 34 3b bc f0 2e bd c2 ce 6b 3d
       0.040738024 0.0027612862 -0.04271005 0.057570226
000060 3c 1a 6b 3d e8 02 a0 3b c3 8c d4 bd 05 0b 24 3e
       0.057398066 0.004883159 -0.10378411 0.16019829
000070 71 ee 2c 3e 77 6c cd 3c 40 65 a5 bc 3f 63 85 bb
       0.16887833 0.025076134 -0.020189881 -0.004070669
000080 c2 43 19 3e 80 1d eb bd 63 68 63 bc 75 e7 2d be
       0.14967254 -0.11480236 -0.013879868 -0.16982825
000090 ba 70 ea bd f6 f7 5f bc 54 22 f7 bd 89 da 08 bd
       -0.11447282 -0.013669958 -0.120670944 -0.033411536
0000a0 84 85 42 3e 19 33 0a 3d 8f 8e c1 bd 8d 35 32 3d
       0.18996245 0.033740137 -0.09451019 0.0435081
0000b0 57 54 f2 3c d4 d4 b3 bc 86 3c e6 bd 26 40 49 bd
       0.029581232 -0.02195207 -0.11242013 -0.049133442
0000c0 ff 78 26 3b f8 95 2f bd dd 72 11 be 10 a8 18 3b
       0.002540171 -0.04286763 -0.14203973 0.0023293532
0000d0 b4 95 95 3c 86 44 97 bc e7 a4 56 bd df 78 c8 bd
       0.01825986 -0.018465292 -0.052403357 -0.09788679
0000e0 ca 94 07 3d d4 d7 39 3d 19 f0 6a 3b 55 0d 56 bd
       0.03310088 0.045371845 0.0035848676 -0.05225881
0000f0 70 d2 a7 bd 5c 96 86 bd bb c4 82 3d e1 4b 73 3d
       -0.08194435 -0.065716475 0.063851796 0.059398536
000100 bc 84 79 3e cd ea e0 bd db ad 2a be c2 b6 98 3e
       0.2436704 -0.10982285 -0.16667883 0.29826933
000110 45 87 85 3d 11 2e 95 bd 53 d2 46 be 15 84 7a 3c
       0.06519941 -0.07284177 -0.1941617 0.01529028
000120 62 49 66 be 7a d8 33 bd 14 26 e4 bd 61 27 3d 3e
       -0.22488931 -0.04390762 -0.11140075 0.18472053
000130 04 45 0b 3d 3c fa 2f 3e 42 31 3a bd 84 9b 8d 3d
       0.034001365 0.171853 -0.045457132 0.06914428
000140 6e 5e 97 3c c3 a3 be 3d 3e 01 01 3e d1 56 63 be
       0.018477645 0.09308579 0.1259813 -0.22201087
000150 23 99 41 3d 87 b1 3d 3d f5 f1 b8 bc fe 38 11 3e
       0.047265183 0.04631188 -0.022576312 0.14181897
000160 af 3a 9c 3d 10 c5 8b be ff 73 08 3e bd 41 e4 bd
       0.076283805 -0.27298784 0.13325499 -0.11145351
000170 86 a0 2d 3e 36 07 ea 3b d6 83 12 bd d7 66 d3 3d
       0.16955766 0.007141973 -0.03577026 0.103223495
000180 cd 48 59 3c 01 a7 a3 3d 82 76 84 bd a1 f3 54 be
       0.013261986 0.07990838 -0.06467916 -0.20796062
000190 b0 7e c4 bd df 16 22 3e 8d 63 44 be 47 92 bc 3d
       -0.09594476 0.15829037 -0.191786 0.09207588
0001a0 1e 3e 79 3d 3b c7 44 3c a6 70 40 be d2 b4 e3 bd
       0.060850255 0.012010391 -0.18792972 -0.11118473
0001b0 12 ba 0e bd 85 c0 f6 3c cc b8 fa bd 71 6a ae bb
       -0.03484542 0.030121097 -0.122422785 -0.0053227474
0001c0 77 b3 86 3d cb 91 65 bc 39 4a 4a be 77 d8 93 3d
       0.06577199 -0.0140118105 -0.19754876 0.07219022
0001d0 87 51 8d be 7e bc a4 3e ac 5a 57 be 8d 15 8b 3e
       -0.27601263 0.32175058 -0.21030682 0.2716488
0001e0 ca ef 3b be 60 16 77 3e d2 c2 06 3e 2d d8 8a bd
       -0.18353191 0.24129629 0.13160256 -0.067795135
0001f0 3d 02 cf 3c 1e d9 22 be f2 51 eb bc 76 59 c2 3c
       0.025269622 -0.15903136 -0.028725598 0.023724299
000200 88 fc bf 3d 23 96 fd bd 70 18 46 3d 1a 9d ac 3d
       0.093743384 -0.12382152 0.04836315 0.08428402
000210 f1 32 32 be ab e6 9b bb bc db 02 be f5 be 54 3e
       -0.17402245 -0.0047577224 -0.12779135 0.2077597
000220 cd c2 c3 3c 93 e7 a4 3e aa b6 b4 bc 8e e2 cc 3d
       0.0238966 0.32207927 -0.022059757 0.100041494
000230 6a e3 67 be fa 51 37 bd 55 93 fb 3c 74 c1 74 3e
       -0.22645345 -0.044755913 0.030709902 0.23901922
000240 c2 f4 11 bd c2 34 1a bc 65 6f 1c 3e 6c 68 5c bc
       -0.03563381 -0.0094119925 0.15276869 -0.0134526305
000250 57 95 d7 3d 3d 17 64 bd 38 34 a9 bc 53 d1 66 3d
       0.10526531 -0.055686224 -0.020654783 0.05635197
000260 83 d0 52 bd 24 c4 8e bd c5 d6 a2 bd 6c a9 ac bc
       -0.051468384 -0.069710046 -0.0795112 -0.02107688
000270 0f 70 03 bd a5 46 a9 3c b3 81 c0 3d 36 da a3 3d
       -0.03208929 0.020663569 0.09399738 0.08000605
000280 26 e1 2d be ed ed 90 bd cc 7f f3 3d b5 a3 ea bc
       -0.16980419 -0.07076631 0.1188961 -0.028642515
000290 7c 5a 27 3e 2a d0 f5 bd d2 32 ec bb e5 1c 6f 3d
       0.16343111 -0.12002595 -0.0072082067 0.058377165
0002a0 d1 b2 9e 3d 9b 4a ea bd 91 f7 75 bd 6a bc 2e bd
       0.0774895 -0.11440011 -0.06005055 -0.042660154
0002b0 89 db 0f 3e 35 35 d4 3d d0 70 9d 3c 8c cf 40 3d
       0.1404859 0.10361711 0.019218832 0.047072932
0002c0 fa ba b6 bd 09 5c 71 bd e3 94 d6 bd 31 d4 6c 3c
       -0.08922382 -0.058925662 -0.10477617 0.014454887
0002d0 b8 7d 30 3e 96 ff 2e 3d f6 7a 31 bd e8 6a 8e bd
       0.17235458 0.042724214 -0.043330155 -0.069539845
0002e0 23 62 8b 3d d2 e9 9b 3c bf b6 05 be 38 6c 3e 3e
       0.068058275 0.019032393 -0.13057993 0.1859597
0002f0 95 37 8c 3d 09 b6 b9 bd 27 96 00 3e c0 a6 86 3e
       0.06846539 -0.090679236 0.12557279 0.26299095
000300 f0 d1 ff 3c 68 ad c4 3d 24 c2 27 bd 82 5b ab 3d
       0.031228036 0.09603387 -0.04095663 0.08367063
000310 59 00 1e 3e 03 05 9b bd f6 e3 2d 3e 3d 6b e9 3c
       0.1542982 -0.07569315 0.16981491 0.028493518
000320 d1 00 4e bd e7 14 5f 3b 91 9a 5b 3c 83 35 35 bc
       -0.050293747 0.0034039558 0.013403551 -0.0110601215
000330 d7 af ce 3c 95 1d 60 3d 98 53 98 bd a3 52 2d bd
       0.025230331 0.05471571 -0.07437819 -0.042315137
000340 71 e3 24 bd 90 5f 02 be c9 11 35 3e 70 8a 15 be
       -0.040255968 -0.12731767 0.17682566 -0.14603591
000350 b7 6a b2 bd e3 2a 8a 3d 88 e2 07 3d 5c 72 80 be
       -0.087117605 0.06746461 0.03317502 -0.2508725
000360 d5 84 83 3d 0e 85 ab bd 5b b8 fc 3d e1 37 81 bd
       0.0642182 -0.083749875 0.123398505 -0.06309486
000370 9c 41 f6 3d 8f 1a 7e bd 3b ed 94 bd d8 a8 e9 3c
       0.12024233 -0.062037047 -0.072718106 0.028522894
000380 84 28 a5 3d 4f fe 25 3e 98 52 20 bd e4 83 87 3c
       0.08064368 0.16210292 -0.039141268 0.016542383
000390 64 eb 83 3c 6f 69 47 3d dd df d3 bc 55 2c 0c 3c
       0.016103454 0.048684534 -0.025863582 0.008555491
0003a0 48 76 87 bd de 52 73 3d 30 4b 81 bc 61 6b 9c bc
       -0.06614357 0.0594052 -0.015782923 -0.019094171
0003b0 13 ea 21 3e 54 8e 80 3c 97 86 8d 3d 9e ee 6a bd
       0.15811948 0.015692867 0.069104366 -0.05735647
0003c0 8d 46 c6 3d 39 1c 8a 3d 90 83 ae bc a3 e0 9e 3c
       0.09681425 0.06743664 -0.021302968 0.019394225
0003d0 da a9 4a bb f0 78 d8 3d 16 7c d6 bd 1d 2b 06 3e
       -0.0030923993 0.10569942 -0.10472886 0.13102384
0003e0 bd b2 8d be 97 3e f0 3d e8 00 b6 3c 15 19 0f be
       -0.2767543 0.11730688 0.022217229 -0.13974412
0003f0 3d c4 74 bc 9b bb a3 bd 94 1f 2c be ad 52 83 be
       -0.014939365 -0.07994767 -0.16808921 -0.25649014

arith.constant1 f4 [64, 64]
000000 45 7b 3c 3c c2 7b e6 bd 75 55 81 3c 12 38 6a 3d
       0.011503999 -0.11254074 0.01578782 0.05718238
000010 16 08 0c bd 42 0b fc b9 3e 6d 4b bd e0 3f 72 bd
       -0.0341874 -0.00048073573 -0.04966473 -0.059142947
000020 84 46 b9 bd f9 1c af bd d1 89 a1 bd 0a ec 8e 3d
       -0.09046653 -0.08550448 -0.078876145 0.06978615
000030 46 7f 3d be 51 e4 b6 3c 2e 47 96 3d d3 43 89 bc
       -0.18505582 0.022325667 0.07337795 -0.016755974
000040 15 55 c9 3d 49 ef 94 bc a1 3b 31 3d 85 88 39 be
       0.09830681 -0.018180506 0.043269757 -0.18118484
000050 5d fd 67 3d 9f 56 06 3d 69 41 83 bd 41 e7 05 3e
       0.05663811 0.032797452 -0.0640896 0.13076498
000060 a5 2a a4 bd 08 c2 5f 3d 92 b4 59 37 0d 7d 88 3d
       -0.08015946 0.054628402 1.297625e-05 0.066644765
000070 fc c8 8f 3d 95 4b 15 bd 82 65 84 bd 5e aa 89 3c
       0.070207566 -0.036449034 -0.064646736 0.01680487
000080 57 51 a0 bc 01 3e 2a be d8 3c 81 bd 01 87 3f be
       -0.019570036 -0.16625215 -0.06310433 -0.18703844
000090 05 3e f8 bd f2 05 f2 bc 21 43 1e be cc ff 0c bd
       -0.12121204 -0.02954385 -0.15455295 -0.034423634
0000a0 e6 de af 3d d3 ea 18 be 5d 3d 20 3c 15 18 0f 3d
       0.085874364 -0.14933328 0.009780255 0.034935076
0000b0 b0 36 80 bc 20 5d 86 3d 6f 8f ec bb dd 76 f4 3b
       -0.015651077 0.06560731 -0.007219247 0.0074604587
0000c0 bf 7a a9 3c 4a 03 b8 bb 54 38 1a 3d 37 51 bd 3c
       0.020688413 -0.0056156265 0.037651375 0.023110015
0000d0 50 c5 f2 bd 7d 49 40 3e b8 de d9 bd 40 73 8e 3d
       -0.118540406 0.18778034 -0.10638183 0.06955576
0000e0 0c 82 67 3d 08 1e c9 bc f7 e8 62 3d 89 cc 95 3d
       0.056520507 -0.024550453 0.055397954 0.073144026
0000f0 01 07 b9 3d aa d7 73 bd e6 4b 00 3e 6e 3b c6 bb
       0.09034539 -0.059531845 0.12528953 -0.006049565
000100 89 2d 03 bd bf 5a 07 3e a3 3e b9 3d aa 64 46 3c
       -0.032025848 0.1321821 0.0904515 0.012108961
000110 2e b5 11 3e bd 81 2d 3d 22 8b 7f bb f0 05 d5 bd
       0.14229271 0.042360056 -0.0038992842 -0.10401523
000120 25 12 9e 3c 79 1f aa 3d 04 02 90 bc 45 41 65 bd
       0.019295761 0.08306784 -0.017579086 -0.05597045
000130 93 96 fc bd 9d d6 0f be 03 1d d3 3c 07 28 39 bd
       -0.12333407 -0.14046712 0.02577067 -0.04520419
000140 eb 65 0a 3d 7d 60 e3 3a 5b 5c 6a bd c0 28 d1 3c
       0.033788603 0.0017347481 -0.057216983 0.025532126
000150 37 a4 a4 bb e0 63 67 bc 01 80 6b 3d 6e dc 2f bd
       -0.0050244587 -0.014122933 0.05749512 -0.042934828
000160 00 e0 18 bd 37 5f ca bc 76 32 1a 3d 5b 53 fd bc
       -0.037322998 -0.024703605 0.03764578 -0.030923536
000170 04 2f 2c 3d 00 db 3f 3d 37 f5 18 3d bb 64 82 bc
       0.042037025 0.046839714 0.03734323 -0.015917173
000180 a2 f3 21 bd ab 2e 8b 3c 3a 2b 7c 3c 43 ce eb 3d
       -0.039538987 0.016990026 0.015391165 0.11513951
000190 c0 fc ab 3d cf 05 cc bd e8 64 8f be 19 70 47 3d
       0.083978176 -0.099620454 -0.28006673 0.04869089
0001a0 21 08 0b bd 0e 5c a3 3c bd 57 84 3d 9c 4f 65 3d
       -0.0339433 0.019941356 0.06462047 0.055984125
0001b0 07 a0 44 bc b5 be 66 3c 91 f1 ce bc 9c 3e 44 bd
       -0.012001044 0.014083554 -0.025261672 -0.04791127
0001c0 c7 29 18 bd 8e 09 e8 3d 5a 31 11 be c0 90 91 3d
       -0.037149217 0.113299474 -0.14178982 0.07107687
0001d0 ca e1 62 3c ff 72 39 bc 88 e2 1e bd 96 00 11 bd
       0.013847778 -0.011318921 -0.038790256 -0.03540095
0001e0 a4 30 9a 3d 95 1b 70 3d 8d fd 60 3d 22 08 a9 bd
       0.07528809 0.058620054 0.054929305 -0.08253504
0001f0 6c ee 2c 3d 73 0e 38 be a6 8c 0e be 01 12 2d 3d
       0.042219564 -0.17974262 -0.1392084 0.042253498
000200 5b b9 9b bd 29 d3 ae 3d 2e 01 f0 3d 46 e4 81 3d
       -0.07603713 0.08536369 0.11718975 0.06342368
000210 45 15 27 bd a2 0e c2 bd f2 b3 03 3e 36 31 07 3e
       -0.04079177 -0.09475447 0.12861612 0.13202366
000220 d8 23 74 3d 5d eb 80 bd 74 16 6d 3c 53 bb 78 bc
       0.059604496 -0.06294892 0.014470685 -0.01518138
000230 a9 61 15 3e c5 7d 8c bd 24 3a e0 3c 31 03 17 bd
       0.14588036 -0.06859926 0.027371474 -0.036868278
000240 ff ad a6 bd 92 79 27 bd d8 b9 bc bd cf c0 1e 3e
       -0.08138656 -0.040887423 -0.092151344 0.15503238
000250 6e e7 e1 bc 95 cd 7c 3d f0 e2 18 3e e3 15 82 bd
       -0.027576175 0.061719496 0.1493032 -0.06351831
000260 9c aa 82 3d 4e b8 46 3d 79 ac 7c 3d 67 05 b8 3d
       0.063801974 0.04851561 0.06168792 0.089854054
000270 0a 63 99 bb 8b 3c 8c bd ee ae e6 bc 64 0b e4 bd
       -0.004680996 -0.06847485 -0.028159585 -0.11134985
000280 34 e2 ea bd eb 08 4d 3e 97 e4 b8 ba d2 56 47 bc
       -0.11468926 0.20022933 -0.0014106211 -0.012166696
000290 9a c7 7d 3d d5 8f 32 be 79 20 a6 bb f2 db c3 bd
       0.061957933 -0.1743768 -0.005069789 -0.095634356
0002a0 b8 bb 1b 3e 08 6a cb 3d 6b 78 1d 3d 6f 31 50 bd
       0.15208328 0.09932333 0.038444918 -0.050828394
0002b0 6c 8e b3 ba ce 68 c7 3d 7b e0 90 3d 1d 62 61 3d
       -0.0013699061 0.09736787 0.07074066 0.05502521
0002c0 07 46 99 3d 75 29 d9 bc 1f 04 be bc 27 77 12 be
       0.0748406 -0.026509026 -0.023195324 -0.14303266
0002d0 45 a8 8f bd 8f 4f 86 bd db 78 04 3d e4 db 80 bc
       -0.07014517 -0.06558143 0.03234182 -0.015729852
0002e0 b2 18 a6 3d 66 38 b6 bd df b0 34 bd 52 3c c3 bd
       0.08110179 -0.08897476 -0.04411399 -0.095329896
0002f0 d2 8a d8 bc f9 e1 da 3b 73 dd 9f bd c8 ce 96 3d
       -0.026433382 0.00667977 -0.0780591 0.07363659
000300 96 3a a9 ba 0d a8 0e 3c ef 1a 36 bd 89 64 52 3c
       -0.0012911137 0.008707059 -0.04445928 0.012841352
000310 37 e5 29 bd 4c d3 1a bd 4a 87 9b bd 3b 28 99 bd
       -0.041478362 -0.037799165 -0.07594164 -0.074783765
000320 a8 31 dd bd 00 e3 ae 3c b6 c7 6d 3d 03 f6 13 3d
       -0.10800487 0.021348476 0.058051787 0.036123287
000330 0e a0 d2 3d bc 40 b6 3d e0 a7 c9 bb 16 2b 43 bd
       0.10284434 0.08899066 -0.0061540455 -0.04764851
000340 a9 57 04 3c e2 c5 88 3b c5 33 84 3d 84 dc af bd
       0.00807754 0.00417398 0.06455187 -0.08586982
000350 a3 49 e5 3d 47 f1 03 bd 81 95 79 bd 78 88 bd 3d
       0.11195686 -0.032212522 -0.060933594 0.09254545
000360 fd 7b 8b bd 38 a0 24 3d a0 b4 df bc 8e 94 3e bc
       -0.06810758 0.04019186 -0.027307808 -0.011632098
000370 bc ad 6f 3d 35 aa 78 bc cc 69 85 3d 97 c3 8b bc
       0.058515295 -0.015177299 0.0651432 -0.017061038
000380 38 71 d8 bd 82 34 cc 3d 52 c9 d2 3d 62 0b 3d 3b
       -0.1056847 0.099709526 0.10292305 0.0028845896
000390 b5 c2 d7 bd b8 83 84 3d c2 45 3c bd 2f 6f 40 bd
       -0.10535184 0.06470436 -0.045964964 -0.046981033
0003a0 93 fb 0b bd 1a cd 5f bd 22 11 9e 3c a1 54 d7 3d
       -0.034175467 -0.05463896 0.019295279 0.105141886
0003b0 07 bc d8 3c 85 12 41 bc 1d 27 30 bd 69 80 4b bc
       0.026456846 -0.011784201 -0.04300605 -0.012420752
0003c0 f0 48 00 be ff 1f a9 3c 45 61 cc 3c 07 57 8a 3d
       -0.12527823 0.02064514 0.024948725 0.067548804
0003d0 95 8f 4f bd da aa 0d 3e ee 31 af bd 96 ae f6 3d
       -0.05067404 0.13834706 -0.08554445 0.120450184
0003e0 c2 98 40 ba cd 77 17 3e b8 f8 a5 bd b2 f4 26 be
       -0.00073469814 0.14791794 -0.0810408 -0.16304281
0003f0 7b 60 91 bd b3 5f a0 3d 8f b5 c6 3d a9 1c 80 3d
       -0.0709848 0.07830753 0.09702598 0.062554665

arith.constant2 f4 [64, 64]
000000 62 dc 9d bc aa 23 85 be ad 8c ef 3d f8 29 af bd
       -0.019270126 -0.26003772 0.11696754 -0.08552927
000010 45 ed 76 3d af 79 5a bd 57 99 b0 bd a5 9e 87 bc
       0.06028487 -0.053338703 -0.08622997 -0.01655514
000020 ee 05 30 3c 3d 02 ba 3d 33 11 f2 3d 21 40 df bc
       0.010743601 0.09082458 0.11819687 -0.027252259
000030 cf ff ca 3c 40 68 18 bd f7 d0 c5 3d ae eb 1e 3e
       0.024780182 -0.037208796 0.096589975 0.15519592
000040 fe 47 f2 bc 23 1f ce 3d 38 b4 40 bd 3a d0 55 3d
       -0.029575344 0.100645326 -0.04704687 0.052200533
000050 46 ed fa bd 99 54 df 3c 0a 2f 23 bd 5d bf 72 3b
       -0.122522876 0.027262019 -0.03983978 0.003704033
000060 2b 9e 41 bd 2f 1e 27 bd 96 0f 02 be 75 f5 2b 3e
       -0.04726998 -0.04080027 -0.12701258 0.16792853
000070 2b 3d c4 3d 9c 21 0f 3e 0e 36 98 bd f0 17 f7 3b
       0.09581979 0.13977665 -0.07432185 0.0075406954
000080 00 a5 ae bd af 87 16 3d a3 64 6c 3c 9c 1f 94 bd
       -0.08527565 0.03675049 0.014428291 -0.072325915
000090 1b 23 f0 bc d1 ae 64 bd 91 98 64 3c 97 b0 64 bc
       -0.029313615 -0.05583078 0.01395239 -0.013958118
0000a0 04 ee de 3d 03 5e cd 3c c1 e7 62 bd 51 12 e0 bd
       0.10885242 0.025069242 -0.0553968 -0.109409936
0000b0 37 2b ca 3d 33 b6 bf 3c fd 9d 21 be e8 b1 52 3c
       0.09871524 0.023402309 -0.15782924 0.012859799
0000c0 57 ca 0f 3d c5 90 30 be d9 8b 9f bd de 23 a1 3c
       0.035105076 -0.17242725 -0.07790346 0.019670423
0000d0 f4 5a 06 bd 5a 69 95 3b f4 2e d9 bc 3d c8 1c bd
       -0.032801583 0.004559678 -0.026511647 -0.0382769
0000e0 e1 3f bd 3d 36 7d 40 3e 53 3e b5 bc c8 a0 9b 3d
       0.092406996 0.18797764 -0.022124445 0.07599026
0000f0 4b 27 11 bd 69 f7 74 bd 6d 19 cc 3d be b6 ff 3d
       -0.035437863 -0.05980626 0.09965787 0.12486027
000100 eb fc fd 3d b6 04 43 be e1 6b 46 be ec c4 47 3e
       0.12401756 -0.19044766 -0.1937709 0.19508713
000110 8e b3 fd bb 26 fd b4 3d a7 01 dc bd b0 28 3d bd
       -0.007742352 0.08837347 -0.10742503 -0.04618138
000120 ee c8 77 bd a5 e3 03 ba 3f 6c ff bd b8 84 3e 3d
       -0.060494356 -0.0005031175 -0.12471818 0.04651329
000130 15 5b be bd eb cb 70 3e 56 9e ae 3d b9 a1 6a bd
       -0.09294716 0.23515289 0.08526294 -0.057283137
000140 1a e3 c4 bd 5a 7c 5c 3d d0 08 44 3d 7b 0e 41 be
       -0.09613629 0.05382953 0.047859967 -0.1885318
000150 aa 60 1c bd e5 85 09 be 84 36 88 3d 8a ba 44 3b
       -0.038178124 -0.13429983 0.06651023 0.0030018413
000160 c6 ae 80 bb 66 18 10 be 00 61 47 3e 69 45 9f bd
       -0.0039270846 -0.14071807 0.19470596 -0.07776911
000170 05 de f6 3d 9c e4 d1 bc 5b e1 3b be 78 f1 37 3d
       0.120540656 -0.025621705 -0.18347685 0.044908017
000180 8f 91 a0 3a 6c 36 02 3e d0 7e e1 bd c2 43 0e be
       0.0012250411 0.12716073 -0.11010516 -0.13893035
000190 db a8 da bd 83 64 99 3e dd 4a 2b be 31 15 6f 3b
       -0.10676738 0.29959497 -0.16727777 0.0036481137
0001a0 9c 9c 2c bd 3a 1a 9c 3b 7f 27 13 3d d2 da 25 3d
       -0.04214154 0.0047638686 0.03592634 0.040491886
0001b0 6c 0b 6e 3c c2 7f f2 3c 8f 31 ff bd f4 7a cf bd
       0.01452909 0.029601935 -0.124606244 -0.10130873
0001c0 0d b4 15 3e c5 8d 34 be fd 8b 2a be 01 b6 7c 3e
       0.14619465 -0.17632206 -0.16654964 0.24678804
0001d0 2f 5b a6 be ce 30 45 3e ff 20 d1 bd b8 be 28 3e
       -0.32491443 0.19256899 -0.10211372 0.16479003
0001e0 03 3b 06 be 2a e3 49 3e 5d c4 2d 3e ef a2 2b bd
       -0.13108449 0.19715562 0.16969438 -0.041903432
0001f0 5b e3 fc 3d 40 2d a9 bd dd 1f ad 3d e8 b5 e0 3c
       0.12348052 -0.08260584 0.08453343 0.02743049
000200 5b 43 dc 3d bf e7 5d be 7c 3b 16 be b4 d9 a4 bd
       0.107550345 -0.21670435 -0.14671129 -0.08049336
000210 ce e7 a6 bd 31 23 b6 bd bc b9 3d be 84 aa ed 3d
       -0.08149682 -0.08893431 -0.18527883 0.11604789
000220 62 11 84 bd a7 11 59 3e 97 2e 2b 3c c1 e7 1b bd
       -0.06448628 0.2119814 0.01044812 -0.038062815
000230 1e 35 5b be c7 82 44 be b3 f9 74 bd 4d f3 70 3e
       -0.21406981 -0.19190513 -0.059808444 0.23530312
000240 f7 b9 8b bc ee fe c8 bd c3 38 ab bd bb bc ee 3d
       -0.017056448 -0.09814249 -0.08360436 0.11657091
000250 fb 6c 9d 3e d3 ed d2 bc f6 c4 0a 3e 7b 00 a8 3c
       0.30747208 -0.025748169 0.13551697 0.020508042
000260 b1 e3 dc bd 75 7a cc 3c ff c1 a6 3c 18 ba 90 bd
       -0.10785616 0.024960736 0.020356176 -0.070667446
000270 9a be 0e be b7 cc 38 3c d1 12 23 3d 09 2e ca 3d
       -0.13939896 0.011279277 0.039812867 0.09872062
000280 7b 49 e0 bd 3a ea 70 be 3f a2 24 3e 89 5b 69 bb
       -0.10951515 -0.2352685 0.16077517 -0.0035607538
000290 ab 73 44 3e 5c 7e 55 be eb 5b 28 3c 18 4d d5 3d
       0.19184749 -0.20848984 0.010275821 0.10415095
0002a0 0d 44 79 3e 27 36 05 3e ba f9 13 3e 3e d8 c2 3d
       0.24342366 0.13008939 0.14450732 0.09513901
0002b0 92 f1 e7 bc 22 f4 65 3d 7a a5 b3 bd 0d e7 9e bd
       -0.028313432 0.056141026 -0.087717965 -0.07758913
0002c0 45 0c c8 3d 3e 4d e2 bd 05 e5 ba bd 03 0f be bd
       0.09767965 -0.11049889 -0.09125713 -0.09280207
0002d0 c6 2b 88 3d 73 ef 50 3e ea 4e 21 3d 12 9a 77 3d
       0.06648974 0.20403843 0.0393819 0.060449667
0002e0 b9 74 6f 3d aa 90 cd 3d be ea c4 bd e3 f9 2b 3e
       0.058460925 0.10037358 -0.09615086 0.16794543
0002f0 15 c3 08 3e f2 fd c9 3c 62 fa 2c 3e e9 47 38 3e
       0.13355668 0.024657223 0.16892388 0.17996182
000300 35 50 1e bb e3 9a 2c 3d 4a a7 77 3c 76 13 2e 3e
       -0.0024156694 0.0421399 0.015115568 0.16999611
000310 2a 36 b8 3d 2a f4 8b 3d a2 58 20 bc e4 62 99 3d
       0.08994706 0.0683368 -0.009786757 0.07489565
000320 af bf 41 be fd 97 f0 bc 08 9c 43 bd ca c7 aa 3d
       -0.18920778 -0.029369349 -0.047756225 0.08338888
000330 3f 5c 8c 3d ba 34 93 3d 16 fd 5a 3d 6c 9d 25 bd
       0.06853532 0.07187791 0.053464018 -0.040433332
000340 8c 51 48 3d d6 6f af 3d 07 19 6d bc 75 2d 62 be
       0.048905894 0.08566253 -0.014471299 -0.22087653
000350 09 02 9d bd af ff 5a bd 6f d3 0b be 26 7e c0 bd
       -0.07666404 -0.053466495 -0.13654874 -0.09399061
000360 11 79 2e 3d 3e 9a 3a bd 87 cb 2f 3e dd a6 41 be
       0.042595927 -0.045557253 0.17167483 -0.1891131
000370 4d ec 36 3e 3f f4 14 be b3 5e 27 bc 97 e0 09 be
       0.17863579 -0.14546297 -0.010215449 -0.1346458
000380 7e 96 cb 3d db 81 80 3d 3a eb aa bc cc 60 96 bd
       0.099408135 0.06274768 -0.020864118 -0.07342681
000390 91 e7 4d bd 25 3f c8 3d b8 4b 40 bd e1 88 30 bd
       -0.050269667 0.09777669 -0.04694721 -0.043099288
0003a0 76 d9 6f bd 6f 08 a0 3d db 5c dd bd 28 64 a2 bd
       -0.058556996 0.078141086 -0.108087264 -0.079292595
0003b0 bd ad 85 3d ba 6e 46 3d 76 c5 98 bd 38 ba 33 bc
       0.065272786 0.04844544 -0.07459538 -0.010969691
0003c0 d6 11 76 bd 64 cf cc bc ea 82 99 bc d7 b5 56 3d
       -0.060075603 -0.025001235 -0.018739183 0.05241951
0003d0 ea d4 b1 bd 7f 5f 26 3e 28 ff 50 be 27 d2 95 3e
       -0.08683188 0.16247366 -0.20409834 0.29261896
0003e0 bb 5d 02 be 4e 31 0a 3e 67 cc db 3d fa 67 8a 3d
       -0.12731068 0.13495371 0.10732346 0.06758113
0003f0 13 64 1b bc 52 b2 ef bd 71 d3 21 be 79 58 2b be
       -0.009484309 -0.11703934 -0.15803315 -0.16732968

arith.constant3 f4 [64, 64]
000000 c5 8e 56 bd 50 81 5b ba 91 8e d7 bc db 53 90 3d
       -0.05238225 -0.0008373456 -0.026313098 0.07047244
000010 f7 74 42 bd f0 0a 56 bd 87 48 eb bb 9d cd 92 3d
       -0.047474828 -0.052256525 -0.007180277 0.07168124
000020 07 2a 64 3d 78 a0 6d 3d 8a 0a d5 3d e9 be 47 3d
       0.055704143 0.058014363 0.10402401 0.04876605
000030 71 5e 50 bd 60 ac 49 bd 9d 34 61 bd e3 62 aa 3d
       -0.050871316 -0.049236655 -0.054981817 0.083196424
000040 64 79 76 bd f5 14 f6 3d de ff de 3b c1 d6 00 be
       -0.06017436 0.12015716 0.006805404 -0.12581922
000050 ab f6 dd 3c e3 0a 1d 3e bb c0 61 3b 6f 3f bf 3c
       0.02709516 0.15336184 0.0034447152 0.023345677
000060 0b ec a2 3d 64 96 d4 bc 02 78 ec bd 2f 6b f6 3d
       0.07955178 -0.025950618 -0.11546327 0.120321624
000070 20 2f 21 3d a7 7d 9e bd 10 cf 15 3d 47 db 7c 3c
       0.039351583 -0.0773881 0.036574423 0.015433139
000080 0b f6 a0 3c 08 e5 d0 3c fd 79 e1 bd 22 21 1b bd
       0.019648572 0.025499836 -0.110095955 -0.037873395
000090 2c d6 08 3e d0 f5 b1 bd 1f 8d 05 be cd 38 1d bd
       0.1336295 -0.08689463 -0.13042115 -0.038384248
0000a0 04 b5 88 3d 81 a1 84 3d 68 02 1a bd 84 e1 a5 bc
       0.06675151 0.06476117 -0.03759995 -0.020249136
0000b0 4e 68 3e 3e 5d 26 cc bc 20 14 ae bc 1b a6 19 bc
       0.18594477 -0.024920637 -0.02124983 -0.009377982
0000c0 4f 59 ad 3b 6f 22 61 bd b4 b9 31 3d 5b 35 07 3d
       0.0052901874 -0.05496448 0.04338999 0.033009868
0000d0 85 bc 39 bd e3 c7 10 3e 2c 43 86 3d 64 af 9c bd
       -0.0453458 0.1413875 0.06555781 -0.076506406
0000e0 32 d0 1d bd 68 2d ab 3d 86 83 5c bc 68 a4 34 3a
       -0.03852863 0.0835827 -0.013459092 0.00068909535
0000f0 d2 82 fe bb 1e ba c9 3c 39 18 d9 3d 7e 1d 12 be
       -0.00776706 0.02462488 0.10600323 -0.14269063
000100 ef ac 0b 3e 60 dc c8 3d c5 54 ba bd 41 a4 22 3e
       0.13640188 0.09807658 -0.090982 0.1588297
000110 37 b1 bd 3b b9 07 5b 3b 59 0c 0d 3d 23 ca 3b 3d
       0.005788948 0.003342135 0.034435604 0.04584707
000120 8c 10 0d be b7 47 fe bd 8a 1f 07 be 74 17 d6 3d
       -0.13775843 -0.12416022 -0.13195625 0.10453692
000130 60 57 63 bc e4 1d e7 bc 31 d0 b3 3d df 6f b9 bd
       -0.013875812 -0.028212495 0.08779944 -0.09054541
000140 f2 4e 55 be 2f ef dc 3d 4f 79 5a 3e 33 a5 aa 3c
       -0.20830896 0.10787808 0.21335338 0.020830726
000150 02 c9 f1 bd 52 15 59 3d 5a fb 84 bd fd fa 40 3e
       -0.11805917 0.05299885 -0.06493254 0.18845744
000160 22 6e 1a be 7c d9 02 be ac 74 fd 3c fc c6 a3 3d
       -0.15081075 -0.12778276 0.030939423 0.07996938
000170 80 83 75 3e 30 08 6f bd b0 b5 49 bc 4e 97 74 3c
       0.23975945 -0.058357418 -0.012311384 0.014928652
000180 2c 15 1e 3d 90 1c d2 bd fc 01 18 3e b0 f8 99 bd
       0.03859441 -0.10259354 0.14844507 -0.075181365
000190 19 6c ca bc ed 10 5b 3e 17 a4 1f 3d 2a c6 d1 bd
       -0.024709748 0.21393175 0.038974848 -0.10242875
0001a0 a4 cc 18 3e b0 e2 14 be 9a 90 f2 bc 0e b7 5e 3d
       0.14921814 -0.145396 -0.029609967 0.054373793
0001b0 39 3c 42 3c 69 35 a1 bd d3 5e a8 3d ce 9e 57 be
       0.0118551785 -0.07871515 0.08221211 -0.21056673
0001c0 34 91 c6 3b 92 ca c8 3c e8 2b 9b bd af 46 27 3d
       0.00605979 0.024510656 -0.07576734 0.040838894
0001d0 19 5c 8f be 18 94 b7 3d d5 65 b6 3c 6a 66 59 3e
       -0.27999952 0.089637935 0.022265354 0.21230474
0001e0 3b b0 2b be 96 f8 6b 3e 27 e8 ba 3d 6d f5 69 3d
       -0.16766445 0.23044047 0.09126311 0.057118822
0001f0 a7 1d d7 bc c9 d4 17 be b7 de 8f bd 1c 10 5d 3d
       -0.026259257 -0.14827265 -0.07024901 0.05397044
000200 47 2a 5e 3e c9 b2 69 be a7 18 d8 3b 86 20 48 be
       0.21695815 -0.22822107 0.0065947357 -0.19543657
000210 ba 2d c4 be 25 ce 0c be 7d 03 a5 be f4 45 8d bc
       -0.38316137 -0.13750513 -0.32229224 -0.01724527
000220 92 f4 84 3d 08 ec a9 3e 44 3b 13 bd ec 83 98 3c
       0.064919606 0.3318789 -0.035945192 0.018617593
000230 63 55 59 be 07 2a df bd b9 60 7b bd e3 d4 83 3e
       -0.21223979 -0.10896688 -0.06137154 0.25748357
000240 65 3c ae 3e e5 f2 91 3c c8 68 08 3e 56 4e ab 3d
       0.34030452 0.017816016 0.13321221 0.08364551
000250 05 72 5b 3d b9 54 0a be cd ec 48 be 79 4e 80 3e
       0.053575534 -0.13508882 -0.19621582 0.2505987
000260 59 ad 32 bd a5 e7 62 bd 2c eb c4 bd ef a4 3a 3c
       -0.04362235 -0.055396695 -0.09615168 0.011391862
000270 86 3a 92 3d 27 a3 ce 3d 54 3f ef 3d 8c fe d2 3d
       0.07140069 0.100897126 0.11682001 0.10302457
000280 cb 28 5b bd d0 5a 6e be 1d 4a 20 bc 12 ac 09 be
       -0.0535057 -0.2327683 -0.009783295 -0.13444546
000290 74 26 66 bd c4 82 59 be 38 95 d1 bd cf 0b 03 be
       -0.056189016 -0.2124129 -0.10233539 -0.12797473
0002a0 4e 50 51 3e e3 58 93 be d2 09 84 3d 8b 65 bb 3d
       0.2044079 -0.28778753 0.064471856 0.09150227
0002b0 e7 9d b7 3d bc 33 8a 3c 71 6c 50 bd 70 0d c7 3b
       0.08965664 0.016870372 -0.050884668 0.0060746
0002c0 fb b7 b9 3d f7 bf 75 bd d1 e6 56 bd c8 dd e1 bb
       0.090682946 -0.059997525 -0.052466217 -0.0068928935
0002d0 f8 85 0d bc 06 f5 70 3e 9f f0 f4 bc 9e 28 9f 3d
       -0.008637898 0.23530969 -0.029899893 0.07771419
0002e0 7b 62 2c bb 89 fd 59 3d 0a 7a 96 3d 66 b4 86 3e
       -0.0026303816 0.053220306 0.07347496 0.26309508
0002f0 11 cd 1f 3e bc aa c7 3d 1e ed 1d 3e e7 81 24 3e
       0.1560557 0.09749362 0.15422484 0.16065179
000300 97 f7 31 bb a3 ec 3e 3d 43 94 34 be 4a 86 59 3e
       -0.0027155632 0.046612393 -0.17634682 0.21242633
000310 85 af 72 3e ae e8 97 3d cc 96 00 bc d4 63 95 3c
       0.23699768 0.07417427 -0.007848453 0.018236078
000320 92 d0 af bd 5c 8e 6d bc 7d 40 00 bd 29 00 ce 3d
       -0.085847035 -0.014499273 -0.0313115 0.10058624
000330 28 c3 51 bd 9a e2 31 3d 06 49 e0 bd d8 ab f0 3b
       -0.051211506 0.043428995 -0.10951428 0.007344704
000340 36 7b f2 3c 15 f5 e6 bd 1b 28 f2 3d 96 bc b0 3c
       0.029599767 -0.112772144 0.11824056 0.0215743
000350 78 42 56 3d 0f de 2e 3d 92 b6 73 bc 07 e0 e1 3b
       0.052309483 0.04269224 -0.014875071 0.006893161
000360 56 71 d9 3b b4 ba c9 3c 42 35 a2 3d 6e 8d a2 bd
       0.006635825 0.02462516 0.07920314 -0.07937132
000370 b0 06 3c 3e 93 0b e4 bd b5 49 9f 3d 9d dd b5 3c
       0.18361926 -0.1113502 0.077777304 0.0222004
000380 63 4a e9 3d 99 3f b5 3d a7 15 01 bd 69 38 28 bd
       0.11391141 0.08850021 -0.03151479 -0.041069422
000390 80 a7 1e bd 3f 0c f7 bb e5 32 3f 3d 6f a9 c7 bd
       -0.03873396 -0.0075393016 0.046679396 -0.09749114
0003a0 b5 29 09 bd e0 06 19 3e 35 91 88 3b a7 5d d7 bd
       -0.03348704 0.14944029 0.0041677007 -0.1051591
0003b0 d0 ce e1 3d 7c d8 f9 bd 0c be aa bd d2 45 76 bd
       0.110257745 -0.12199494 -0.0833703 -0.06012518
0003c0 e2 b1 ef bc 27 ba c1 3d 41 9b 02 3e 23 bd 9c bd
       -0.029259626 0.09459334 0.12754537 -0.076532625
0003d0 b2 2e ac bd cc cb 50 3d c4 ee 62 be 8d 87 80 3d
       -0.08407344 0.050975606 -0.22161394 0.06275854
0003e0 17 0a 10 be 6a 40 dd 3d 04 d6 fd bd a8 77 9f bd
       -0.14066349 0.10803302 -0.12394336 -0.077864945
0003f0 ef a4 b8 3c 72 e1 a9 bd 82 93 f2 bd be 71 a5 be
       0.022539584 -0.082949534 -0.11844541 -0.3231334

arith.constant4 f4 [64]
000000 ad 5d 7e 3c de 62 d2 3d 65 d6 a5 3d ef eb 60 3c
       0.015525264 0.10272764 0.08097533 0.013728126
000010 cd 7c 51 3d df a7 09 bd fc 7a da 3d 08 ff 61 3a
       0.05114441 -0.03360736 0.10667989 0.00086210715
000020 55 92 ea 3d 9b 15 9c bb 05 3a 74 3d 0b 5d 0f 3b
       0.11453692 -0.0047633178 0.059625644 0.0021875526
000030 e6 47 4a 3d b9 54 93 3d d5 bb 41 3d 55 fe 96 3d
       0.049384974 0.07193894 0.04729827 0.07372729
000040 bf 41 18 bd 20 4c f2 3a 5a 7a 23 3d ec 17 be 3d
       -0.037172075 0.0018485822 0.039911605 0.092819065
000050 ba 62 59 3c 22 84 b3 bc 2b 10 d6 3d e4 72 26 3c
       0.013268167 -0.021913592 0.104523025 0.010159228
000060 2f 2d 47 3d 97 b6 7e 3b aa ec 46 3d 8d 9c 1a 3d
       0.048627075 0.0038866156 0.048565544 0.037746955
000070 cf e7 85 3d 8e 46 1f 3d f5 d4 60 3d 3a 15 c1 bc
       0.065383546 0.038885646 0.05489059 -0.023569692
000080 ef d5 50 bc af 3d 97 3c 6e e2 ed 3b 00 00 6c 3c
       -0.012746318 0.01846203 0.0072596585 0.014404297
000090 2c 23 03 3e 9e e7 cb 3d ae 84 92 3c 8f f1 b8 3b
       0.12806386 0.09956287 0.017885532 0.0056440304
0000a0 c1 7f aa 3b 27 54 69 3d e8 2d 93 bd b4 05 85 3c
       0.0052032177 0.05696502 -0.0718649 0.016238071
0000b0 0f 6f e8 3c d4 50 bf 3c b3 77 35 3c 12 4c 89 bc
       0.02837327 0.023353972 0.011075902 -0.016759906
0000c0 33 d3 30 ba fb 3d 96 bc 16 51 59 3d 37 c0 d2 3c
       -0.00067453383 -0.018340101 0.053055845 0.02572642
0000d0 3b cd 66 3d 25 b1 9a 3d 3a 50 1b 3e 10 48 97 3d
       0.056348067 0.07553319 0.15167323 0.07386792
0000e0 dd ba 16 3d 76 14 12 3c a1 ba 81 3b 80 70 43 3d
       0.0367993 0.008916011 0.0039590155 0.04771471
0000f0 1c cf 21 3d 3f 1b f7 b9 c8 15 1f 3d 4b fc d4 3b
       0.039504156 -0.0004713181 0.03883913 0.006499802

arith.constant5 f4 [64]
000000 cb e7 0c 3c bc 3b 12 3d 75 17 8a 3c e7 5f 06 ba
       0.008600186 0.0357015 0.016856888 -0.0005125985
000010 3c e1 95 bc 77 67 c5 bc b7 8e 78 3c 58 7d 64 bd
       -0.018295877 -0.024097187 0.015170745 -0.0557836
000020 ed d7 a0 bc 47 14 dc 3c ec ca 7e bc bc fb 55 3c
       -0.019634211 0.026865138 -0.01555131 0.013060506
000030 b8 76 26 bd c5 4b 0a 3c 65 b8 97 3c b6 9f a0 bc
       -0.040640563 0.008440916 0.018520543 -0.019607406
000040 24 db 62 3b 08 4d 00 bc 8a 87 c0 3c 03 f7 1b 3d
       0.0034615481 -0.007830866 0.02350213 0.038077366
000050 fa 52 00 bb a7 76 4e 3d bb e5 87 bc 77 7d 0f bd
       -0.0019580708 0.050406124 -0.016589036 -0.035031762
000060 a8 18 b8 bc 5b 0a bd 3c 6e da 96 3c 3e 39 ca bc
       -0.022472695 0.023076227 0.018414702 -0.024685498
000070 2b 7d 99 3a 85 cf 2a bb c2 09 4b 3c 54 f6 24 bb
       0.0011710277 -0.0026063633 0.012392463 -0.0025171237
000080 32 22 24 bd db b6 b3 3c e6 c0 0a bb b2 81 a1 3c
       -0.040071674 0.021937778 -0.0021172105 0.019715164
000090 bb 06 9d bc 35 52 9f 3c 45 3a f2 bb bf e8 c9 3c
       -0.019168248 0.019448379 -0.0073922 0.024647115
0000a0 5b 1f 5c bd 9a e5 43 3b 65 34 0d 3d 74 91 0a 3b
       -0.05374084 0.0029891492 0.034473795 0.0021143826
0000b0 ac dc 5f bb 6d fa 34 3d f1 e5 f5 3c 90 5c f8 bc
       -0.003415863 0.044184137 0.030016871 -0.030317575
0000c0 53 94 8d 3b 0c 02 44 3a 86 b4 f3 bb c5 79 be 3b
       0.00432066 0.00074771116 -0.0074372916 0.005812856
0000d0 de 40 47 3c 44 cd 93 3b bd d8 13 bd 88 ca ee bb
       0.012161462 0.0045105536 -0.03609537 -0.007287327
0000e0 72 d3 28 3d 67 e8 87 3c 70 08 f6 3c ed 11 fd 3b
       0.041217275 0.01659031 0.03003332 0.007723084
0000f0 5a b1 f8 3c 2a 0d 56 bd 8a bb 1a bd d3 c8 c8 3a
       0.030358005 -0.052258648 -0.037776507 0.0015318639

arith.constant6 f4 [64]
000000 0f 86 84 3f b3 23 8d 3f 63 7e 85 3f 83 66 80 3f
       1.0353411 1.102652 1.0429195 1.0031284
000010 e3 7c 8b 3f c7 8b 81 3f b2 7f 8c 3f 9b 8c 89 3f
       1.0897487 1.0120782 1.097647 1.0746034
000020 ea a5 89 3f 95 83 81 3f c2 dc 82 3f 11 f9 85 3f
       1.0753758 1.0118281 1.022362 1.0466634
000030 c3 4f 77 3f d5 67 8f 3f 5e d0 87 3f 4d 7e 92 3f
       0.9660608 1.1203562 1.0610464 1.1444794
000040 ac 5e 80 3f 7d f4 7f 3f 27 a2 89 3f ff d9 8f 3f
       1.0028892 0.99982435 1.075261 1.1238402
000050 93 80 7e 3f bb 9f 80 3f 3a 31 84 3f bb 4f 6e 3f
       0.9941494 1.0048746 1.0327523 0.9309041
000060 49 0d 86 3f ab f5 84 3f 08 cf 83 3f b2 ed 7a 3f
       1.0472804 1.0387472 1.0297556 0.98018944
000070 b1 23 83 3f b4 93 82 3f 65 cd 8b 3f 97 90 82 3f
       1.0245267 1.0201325 1.0922056 1.0200375
000080 1e 53 88 3f 46 1a 88 3f c2 2f 85 3f 2d 4f 83 3f
       1.0650365 1.0633018 1.04052 1.0258538
000090 ce 14 88 3f 58 5f 85 3f 41 67 80 3f 9b 60 85 3f
       1.0631349 1.0419722 1.003151 1.0420107
0000a0 8d a1 83 3f 7d 81 81 3f e2 35 78 3f 8e 86 86 3f
       1.0283676 1.0117642 0.9695722 1.0509813
0000b0 bb 23 82 3f a6 2e 88 3f 12 12 7d 3f 83 aa 85 3f
       1.0167154 1.0639236 0.988557 1.0442661
0000c0 7e 47 83 3f 93 5f 82 3f 76 f5 81 3f 79 c3 7f 3f
       1.0256193 1.0185417 1.0153034 0.9990764
0000d0 04 f7 86 3f 0d 2a 86 3f 4b 33 86 3f f0 a8 8a 3f
       1.0544133 1.0481583 1.0484403 1.0832806
0000e0 d8 65 84 3f ff 3e 7a 3f a2 7b 7d 3f f6 79 80 3f
       1.034358 0.97752374 0.99016774 1.003722
0000f0 ff e5 92 3f 53 1d 7f 3f 41 8e 85 3f 48 69 7b 3f
       1.1476439 0.9965412 1.0434037 0.9820752

arith.constant7 f4 [64]
000000 ca 8f b7 3c 35 0a 95 bd b1 1b 61 3c 34 5d 18 bc
       0.022407431 -0.072773375 0.013739512 -0.009299565
000010 34 c4 42 be 30 eb 5b bd 2a c7 56 3d 1c 23 e3 3c
       -0.19020158 -0.05369109 0.05243603 0.027726702
000020 d1 07 7f 3d 5e 78 58 3b d9 8a 36 3d df dc 48 3c
       0.062263314 0.0033030729 0.04456601 0.012259691
000030 46 a2 f2 bb 64 6c 8b 3b 46 9a 09 3d 9e 75 f6 3d
       -0.0074045984 0.0042548645 0.033594392 0.120341524
000040 ab 15 54 bd 22 a6 f8 b9 a5 8e 65 bd 1a 36 62 bd
       -0.051778477 -0.00047426025 -0.05604424 -0.055227377
000050 1b 3a 40 bc c9 73 f1 bb fd 61 3e 3d f2 6d 17 3d
       -0.011732603 -0.007368539 0.046480168 0.036970086
000060 58 e1 c7 bb ba c9 09 bb 7a 57 32 3d 35 76 eb 3c
       -0.006099861 -0.002102478 0.043540455 0.028742889
000070 4d e6 9d 3d 34 8d a4 bb 1f 68 f8 3b a6 49 2e bd
       0.07709942 -0.0050217155 0.0075807716 -0.042550705
000080 3c 0b 20 3c 3c 29 0c 3d a8 1f db bc 27 a4 0d bd
       0.0097683035 0.03421901 -0.026748493 -0.034580376
000090 28 86 97 3d f4 18 83 3c 8f ec c7 bb a0 31 00 bb
       0.07398635 0.01600311 -0.006101198 -0.0019560829
0000a0 6f c9 d8 bc ef f8 87 3b 7e de a5 bd 31 e7 65 3d
       -0.026463239 0.0041495482 -0.08099078 0.056128684
0000b0 78 9d f3 bc 94 e5 5d bd d0 0c 8e bc 6a 8e e4 3b
       -0.029738173 -0.05417402 -0.017340094 0.006974985
0000c0 f8 6d 82 bc 3e 24 89 bc 2b 22 71 3d e9 62 5c 3c
       -0.015921578 -0.016740914 0.058870476 0.013451316
0000d0 cd 6d 64 3c eb b4 0a 3c d2 9d 85 3d fe ef 91 bc
       0.013942194 0.008465986 0.065242425 -0.017814633
0000e0 13 07 91 bc ae 99 c1 bc e9 42 7b bd 14 40 9c 3b
       -0.017703569 -0.02363285 -0.061343107 0.004768381
0000f0 1a 93 f3 bc 4c c4 57 bc 06 9f 44 bb 29 4c 8e 3c
       -0.02973323 -0.013169359 -0.0030002012 0.0173703

arith.constant8 f4 [64, 6]
000000 98 84 4f 3e b4 42 1b 3e 8f 9f 85 3d 64 ee 23 bd
       0.20265424 0.15162164 0.06524574 -0.04002227
000010 42 a4 2c 3c 5b 6b ac 3e 4a 7f 1b be 91 da 39 3d
       0.010537209 0.33675656 -0.15185276 0.045374457
000020 5b 97 d4 bd bf 4c 12 bd e8 50 b3 3c 86 e7 07 3e
       -0.10380431 -0.035717722 0.021889165 0.13271913
000030 a3 09 7c 3e 75 77 76 bd e4 0a 05 3e 9e 72 86 be
       0.24613051 -0.060172517 0.12992436 -0.2625932
000040 bc 03 1d 3e e8 ac a1 be a7 51 96 bc ce 8a 05 3d
       0.15333456 -0.3157723 -0.018349482 0.032603078
000050 bc 8d 51 bd e4 9f af bc 9d c1 aa bd 39 3d 35 3e
       -0.05116056 -0.021438546 -0.0833771 0.17699136
000060 21 81 97 bd 12 aa 9e be 3b 37 52 3e b2 86 89 bd
       -0.07397676 -0.30989128 0.20528881 -0.06715144
000070 a3 b5 e3 bd 17 55 72 3e 75 d6 76 3d 3f c7 62 bd
       -0.11118629 0.23665272 0.060263116 -0.055365797
000080 9a 61 6f 3e 00 d1 7a bc 46 12 d9 bd b8 6b bb 3b
       0.23377076 -0.015308619 -0.105991885 0.005719628
000090 16 a4 39 3e d5 40 04 3e 56 b5 51 be df 93 b2 bc
       0.18129 0.12915356 -0.2047933 -0.021799026
0000a0 91 ec 0f 3e 8e e3 69 3d 2d e8 e0 3d ca 5f 0f be
       0.14055087 0.05710178 0.10981784 -0.14001384
0000b0 f1 be e3 3d 4b cb 35 3e c9 2b 41 3e c8 36 df be
       0.111204036 0.17753331 0.18864359 -0.43596482
0000c0 ba 98 e5 bd 30 b2 6d 3e 9e ac c8 bd e1 4e 2a be
       -0.11210771 0.23212504 -0.09798549 -0.16631652
0000d0 bf 34 87 be 96 78 04 3d 17 e9 03 be 68 a3 9b be
       -0.2640743 0.032341562 -0.12881885 -0.30398107
0000e0 ce da db 3c 95 39 17 bd 3e b2 27 bd 64 70 1f 3e
       0.026837733 -0.03692015 -0.04094147 0.15570217
0000f0 77 45 0c bd 22 43 e6 bd 1c f0 9d 3d c7 c9 a6 be
       -0.034245934 -0.11243273 0.07711813 -0.3257582
000100 22 b6 50 3e 20 01 bd 3d 6a 6a 9c bd 68 79 8b 3c
       0.20381978 0.0922873 -0.07637484 0.017025664
000110 77 f8 c2 bc 56 a8 d4 bd b5 90 82 3e 12 a6 3e 3e
       -0.023800118 -0.1038367 0.25501028 0.18618038
000120 55 62 0f be 4c 20 25 3e de 9d 49 bd 32 b0 32 3d
       -0.14002354 0.16125602 -0.04922282 0.043625064
000130 60 ba 03 be d1 f1 8e 3e b8 95 78 bd 64 5a 64 bd
       -0.12864065 0.27918866 -0.060689658 -0.055750266
000140 9b 4c c3 3d 8b a8 85 bd 6d 23 69 3d c9 ae 9d bd
       0.09536096 -0.06526288 0.05691855 -0.07699353
000150 79 dd 7c 3c 7d 8b 8a 3e 3f 70 14 3e 38 f5 6a be
       0.015433663 0.27059546 0.14495943 -0.22945106
000160 88 2e a4 3d 71 73 72 be 9c c8 c9 bc dd 7b 1b be
       0.08016688 -0.2367685 -0.02463179 -0.15183969
000170 49 e2 21 be b9 e6 d1 be b0 b0 07 be 58 40 5c be
       -0.15808977 -0.4099634 -0.13250995 -0.2150892
000180 21 c4 24 bd 7c 21 68 bd 87 ba 90 bd 0d 5e f8 3d
       -0.040226106 -0.05667256 -0.07066827 0.12127314
000190 71 22 c2 be d4 47 7b 3d 09 ca 77 3e 4a 7c 54 bd
       -0.37916902 0.061347798 0.24198164 -0.051876344
0001a0 c3 8d 18 3d 2b e4 5b bd 18 32 ae 3d e0 18 cd bd
       0.03724457 -0.053684395 0.085056484 -0.1001451
0001b0 3f 99 6d 3e 03 64 b3 3d ab ad ae bc c4 1d 72 3c
       0.2320299 0.0875931 -0.021323046 0.0147776045
0001c0 d6 62 8b 3e 47 c0 f3 3d 46 e5 8d 3d ce 32 02 3e
       0.27223843 0.11901908 0.06928496 0.12714693
0001d0 03 02 ca 3d 78 be a5 bd 32 54 f0 3d 0a 55 90 3d
       0.09863665 -0.0809297 0.11734809 0.0704747
0001e0 9e 43 63 bc 49 99 05 be a7 31 84 bd 99 3e 46 3d
       -0.013871102 -0.13046755 -0.06454783 0.04839954
0001f0 b8 90 0e bc 2c f8 5c 3e fb b0 1d 3e d3 68 b7 bd
       -0.008701496 0.21579045 0.15399544 -0.089555405
000200 54 90 6a bc 2b bd 2f 3e 46 ee 79 bd d0 42 a1 3d
       -0.014316637 0.17162006 -0.06101825 0.078740716
000210 58 19 bb bd 27 07 8a bd e2 cd cc 3d 9e f6 2c 3d
       -0.09135693 -0.067396455 0.100002065 0.04222738
000220 40 0f 0d 3e fa 55 0c 3c e0 3b 0f 3d 2b 84 6f 3e
       0.13775349 0.00856542 0.03496921 0.23390262
000230 aa c7 fe 3d 87 6d 26 bc e2 16 3e 3e c5 51 8f 3b
       0.12440427 -0.010157949 0.18563417 0.0043737614
000240 4d 50 ca bb 63 ce 5a be 9e d4 83 3d 47 aa e3 3d
       -0.0061741234 -0.21367793 0.06437038 0.11116462
000250 6e ba 8c bd e7 b3 63 3e d1 92 57 be be 49 ce 3d
       -0.06871496 0.22236596 -0.210521 0.10072659
000260 ef 57 b4 bd f4 bf f0 bd 99 b8 37 bd ad 74 29 be
       -0.088058345 -0.11755362 -0.04485378 -0.16548415
000270 f9 b4 d1 bd f2 91 ee bd 75 09 17 bc 66 d0 81 3d
       -0.10239596 -0.116489306 -0.009218563 0.06338577
000280 53 b5 f7 bd fa e5 6f 3d e5 50 5f be 7a b6 b3 3c
       -0.12095132 0.058568932 -0.21808203 0.021937598
000290 d7 4c 4f 3d 48 b4 6c 3e cb fa a6 bd c0 80 f6 3c
       0.05061039 0.23115647 -0.08153304 0.03009069
0002a0 7c 8b a3 3b fa 31 0c bd 8d b8 86 3d 51 8f 3c be
       0.004990993 -0.03422735 0.06578169 -0.18414046
0002b0 54 d3 1e 3e b3 eb 97 bd 98 0c b2 3d a3 1f 0a be
       0.15510303 -0.07418003 0.08693808 -0.13488631
0002c0 12 3a bb bd 57 5a 58 bd 5a c8 18 be 03 9e cf 3d
       -0.091419354 -0.05282053 -0.14920178 0.1013756
0002d0 31 08 0b be 47 31 24 be cd 52 96 3d 5b e6 80 be
       -0.13577344 -0.16034423 0.07340012 -0.25175747
0002e0 b5 2d 4c bd bc 86 4e 3b d9 e9 38 3e 3c ee a2 3d
       -0.049848277 0.0031513413 0.18057956 0.07955596
0002f0 69 90 c6 3b 1e e5 3d be 6a e2 49 3c de a0 39 be
       0.0060596955 -0.18544433 0.012322048 -0.18127772
000300 6f f9 8c bd d0 92 bb bd e6 4e e8 3b fc 17 45 3e
       -0.06883513 -0.09158862 0.0070894836 0.1924743
000310 a0 1b 0a 3e 54 8e 82 3e eb 1c 43 be 03 e7 21 3e
       0.134871 0.25499213 -0.19054 0.1581078
000320 52 d9 06 be a6 c7 0e be 99 21 20 3d e0 ef 3c be
       -0.13168839 -0.13943347 0.03909454 -0.1845088
000330 86 43 07 3e fb ae c6 bd e4 a4 b2 bc 86 f1 12 3e
       0.13209352 -0.097013436 -0.021807142 0.14349946
000340 a7 ae 0a bd f1 c8 b3 bd 52 2c ed bd 89 51 0f 3d
       -0.033857968 -0.08778561 -0.11580719 0.034989867
000350 20 bf ac bc 8f 59 d4 3d a3 17 33 bb 4e 52 01 3d
       -0.02108723 0.103686444 -0.002732732 0.031572632
000360 23 03 04 be 29 98 db bd c6 5b 2c be 64 6f ec bd
       -0.12891822 -0.107223816 -0.16831884 -0.115446836
000370 66 3f 5f 3e e2 8f 4e bd 6c 9a 36 3d 3a 60 bc 39
       0.21801528 -0.050430186 0.044580862 0.0003592985
000380 3a 3c 47 bd 22 29 a9 bc a7 57 c7 3b 0c 0b 5d 3d
       -0.04864142 -0.020649496 0.006083447 0.053965613
000390 40 bd d5 3d cf 50 d8 3b f5 82 8c 3d b1 e5 d7 bc
       0.10436487 0.00660143 0.068609156 -0.026354643
0003a0 42 c6 96 3c da a7 2b bd 31 4d b0 3c 6d 41 52 3d
       0.018405084 -0.041908123 0.021521183 0.051331926
0003b0 0f a8 26 3e 6a e8 ea bc 40 c0 d9 3d 4d 1b 47 3c
       0.16275047 -0.028675277 0.10632372 0.012152505
0003c0 18 4e 45 bd bf d5 d1 3d 81 2b 92 bd 99 34 23 be
       -0.04817018 0.10245847 -0.07137204 -0.15938033
0003d0 7e 28 f1 bd 38 7a 0d 3e da 06 81 be 50 5c 4c bd
       -0.117753014 0.13816154 -0.2520054 -0.049892724
0003e0 b9 d4 96 3d bf e3 4c be a6 75 36 be 84 0a 91 bd
       0.073647924 -0.20008753 -0.17818317 -0.07082084
0003f0 f7 94 25 be 55 39 1e bd 04 0f b1 3d a5 98 a4 bd
       -0.16170107 -0.038628895 0.08645442 -0.08036927
