app/src/main/assets/respeck_lstm_essential4_64_n_9867.tflite (tflite, 186732 bytes, 30 tensors)

sequential_1/normalization_1/truediv;sequential_1/normalization_1/Sqrt f4 [1, 1, 6]
2.149623 1.9578457 1.8326193 0.07341344 0.06922041 0.11469175
00000000: 6c93 0940 b09a fa3f 4593 ea3f c959 963d
00000010: 6ec3 8d3d 82e3 ea3d

Const_1 f4 [1, 1, 6]
-0.03433125 -0.5683026 0.048767935 0.21063066 0.07777685 -0.045663886
00000000: ed9e 0cbd 477c 11bf e3c0 473d 90af 573e
00000010: 7849 9f3d 0e0a 3bbd

sequential_1/dense_3/BiasAdd/ReadVariableOp f4 [4]
0.07825745 -0.07700889 0.027853232 -0.09435905
00000000: 7145 a03d d6b6 9dbd 762c e43c 513f c1bd

sequential_1/dense_2/BiasAdd/ReadVariableOp f4 [64]
0.103626795 -0.046153687 0.027382346 0.010515377 -0.030770203 0.084152296 -0.06487639 0.16440734
-0.09391632 0.05823051 0.16354628 -0.017067673 0.073926754 0.09231751 0.013844213 0.18297194
-0.0068796533 0.018885795 0.064078085 0.04858401 -0.05550992 0.028087823 -0.015459209 0.20645823
0.047392838 0.16296297 0.052653585 -0.072182134 -0.021357946 0.0022694622 0.035865698 0.050842084
-0.08224827 0.08777363 -0.07756898 0.15645948 0.1042294 0.0040430655 -0.033088993 -0.09477925
0.2792107 -0.032924302 -0.029320534 -0.038303275 0.04586338 0.25684616 -0.07289699 0.11757425
-0.074276924 0.030839065 -0.029101513 -0.09974989 0.07136498 0.15831426 -0.046000138 0.104867235
0.08277266 -0.117779806 0.009568453 0.017896712 0.11103052 -0.018747097 -0.015799064 0.03921396
00000000: 493a d43d a60b 3dbd f150 e03c b048 2c3c
00000010: cb11 fcbc 0a58 ac3d eadd 84bd 665a 283e
00000020: 3357 c0bd 1e83 6e3d ad78 273e 81d1 8bbc
00000030: e966 973d f610 bd3d d7d2 623c ff5c 3b3e
00000040: b76e e1bb 62b6 9a3c 5f3b 833d 0700 473d
00000050: 5f5e 63bd 6f18 e63c 9f48 7dbc c969 533e
00000060: fe1e 423d c4df 263e 49ab 573d 3ad4 93bd
00000070: dcf6 aebc 42bb 143b e9e7 123d ca3f 503d
00000080: c871 a8bd a9c2 b33d 7cdc 9ebd ea36 203e
00000090: 3976 d53d b17b 843b 5388 07bd a01b c2bd
000000a0: b4f4 8e3e a2db 06bd 9e31 f0bc e5e3 1cbd
000000b0: 3ddb 3b3d 5781 833e 044b 95bd c5ca f03d
000000c0: 801e 98bd 35a2 fc3c 4c66 eebc ac49 ccbd
000000d0: cd27 923d 221d 223e a46a 3cbd a2c4 d63d
000000e0: b684 a93d 8a36 f1bd 00c5 1c3c 209c 923c
000000f0: f863 e33d 8393 99bc 0a6d 81bc d19e 203d

arith.constant f4 [64, 64]
-0.032366205 -0.13975836 -0.03261222 -0.008849762 -0.062308688 -0.10137833 0.05229723 -0.13436642
0.23291491 0.05323833 -0.20715153 0.07574608 -0.055918496 0.026149262 -0.05607155 0.13097276
-0.12715088 0.11228742 -0.037791755 -0.21881248 0.024924817 0.18989919 0.08210944 -0.10034119
-0.22939506 -0.120868705 -0.19560653 0.036546864 -0.055715315 0.093749486 -0.075202286 0.011854626
-0.024194835 -0.13303412 -0.007949141 -0.020889997 0.14872643 -0.012792869 0.02453296 0.042029276
0.041019477 0.025797829 -0.008659845 -0.024618015 0.08235784 -0.0901609 -0.17307164 -0.031304438
-0.020208979 0.059203543 0.036380533 0.04502375 0.0007167793 -0.03609445 0.036956795 0.17289542
-0.15035856 -0.17131907 -0.1085197 -0.090348475 -0.11374867 0.21869934 -0.08208842 0.0703966
0.0070927963 0.06884084 0.15475951 -0.08540456 -0.0784108 0.01698965 -0.10103812 -0.14816894
0.032864973 0.107143 0.24713461 0.07152156 0.082857125 0.13391541 0.010892084 0.03199345
0.09180181 0.15105446 0.14586216 -0.051502045 0.056265477 0.046240784 0.02888248 -0.009039274
0.118769504 0.063381456 0.062325057 0.023728287 -0.116844155 0.03953832 0.122929275 -0.1572573
0.16066746 0.02598914 0.039245714 0.008686264 0.13878766 -0.14199884 -0.07058879 -0.056595653
-0.14151403 -0.1511205 -0.03217493 0.12752949 -0.2655311 -0.052605882 0.06683594 0.053876687
0.025533218 0.024588276 0.012730505 -0.1150079 0.16581273 0.13314296 0.13405803 -0.17083842
0.09246053 -0.12870479 0.020432368 -0.1581627 -0.01967895 -0.13637899 0.029964218 0.03835896
0.115281984 -0.33562896 0.018920926 0.15210287 0.14162691 0.11648512 -0.13141178 -0.14819638
-0.072036974 0.1808986 0.0021081308 -0.08194613 -0.074671574 -0.22605452 -0.08464019 -0.12812
-0.10673824 0.047588732 -0.18459547 -0.004870805 0.09207158 0.06040389 -0.03502692 -0.001367283
0.16436744 0.050450023 -0.19647835 0.12843218 0.0902979 0.08279233 0.1100267 0.077503435
0.021920815 -0.07849472 -0.11966421 0.034546364 -0.07658656 0.2726222 -0.06658242 -0.031186292
-0.1304945 0.027185624 0.13106427 -0.005612286 0.1359462 0.07185657 0.13968882 0.096214294
0.044511434 0.042488996 -0.09286819 0.23790903 0.0045122583 0.10990908 0.17292295 -0.15783747
0.115854956 -0.08085098 -0.12867339 -0.121061854 -0.22858836 0.0075267563 0.041970294 -0.11136058
0.114221066 0.21556811 -0.05142678 -0.014970071 0.16597784 0.11119134 -0.14906956 0.047681045
-0.0332766 -0.1810741 0.02858641 -0.2682238 0.10298758 -0.07071954 0.2098706 0.010870042
0.022619305 -0.110542715 -0.08524434 -0.0055521117 0.0864714 -0.186545 -0.091471605 0.13712709
0.0902642 0.0562401 0.03034479 0.05912737 0.014923677 0.015708119 0.044708148 -0.19801745
0.07790412 -0.07962332 -0.18546104 -0.089202926 -0.087760836 -0.032868035 -0.15958144 -0.08208287
-0.0630736 -0.03581697 -0.47382155 0.14659455 -0.015030727 0.17696351 0.058862913 0.023230707
-0.19970053 0.22176594 0.0046651987 0.106951974 -0.09944962 0.023140932 -0.005324903 -0.082840405
0.016974011 0.12200978 0.1449522 -0.040375385 -0.052958734 -0.08641028 0.18945426 -0.030510271
00000000: 6d92 04bd d11c 0fbe 6494 05bd 98fe 10bc
00000010: 6537 7fbd 719f cfbd 9f35 563d 5a97 09be
00000020: 3f81 6e3e 6f10 5a3d 881f 54be c320 9b3d
00000030: cb0a 65bd fa36 d63c 48ab 65bd b91d 063e
00000040: d733 02be f2f6 e53d 87cb 1abd 6110 60be
00000050: 212f cc3c ef74 423e fe28 a83d af7f cdbd
00000060: 8ae6 6abe 038a f7bd 144d 48be 2ab2 153d
00000070: be35 64bd bbff bf3d a803 9abd e839 423c
00000080: 3f34 c6bc 193a 08be 1d3d 02bc 8021 abbc
00000090: be4b 183e 2e99 51bc 59f9 c83c e426 2c3d
000000a0: 0a04 283d f855 d33c 06e2 0dbc b8ab c9bc
000000b0: 3aab a83d 47a6 b8bd b139 31be 1539 00bd
000000c0: 4d8d a5bc 6a7f 723d c103 153d d36a 383d
000000d0: 3fe6 3b3a c6d7 13bd 0260 173d 7f0b 313e
000000e0: 98f7 19be 446e 2fbe 943f debd 9f08 b9bd
000000f0: 10f5 e8bd b8f2 5f3e f91d a8bd 182c 903d
00000100: b06a e83b 6dfc 8c3d 4779 1e3e 96e8 aebd
00000110: d795 a0bd e12d 8b3c 13ed cebd 99b9 17be
00000120: 6c9d 063d ca6d db3d db10 7d3e e579 923d
00000130: ffb0 a93d 1f21 093e b674 323c 900b 033d
00000140: 9602 bc3d 05ae 1a3e e45c 153e cff3 52bd
00000150: a176 663d fa66 3d3d f39a ec3c 7719 14bc
00000160: 6d3d f33d 23ce 813d 8f48 7f3d d361 c23c
00000170: fd4b efbd eff2 213d 58c2 fb3d 0f08 21be
00000180: 0386 243e 2de7 d43c 1dc0 203d d550 0e3c
00000190: 5a1e 0e3e 2568 11be db90 90bd d8d0 67bd
000001a0: 0ee9 10be 55bf 1abe dcc9 03bd 1797 023e
000001b0: b1f3 87be 4479 57bd 48e1 883d cdad 5c3d
000001c0: 0a2b d13c 5a6d c93c 9c93 503c 4389 ebbd
000001d0: d0ca 293e a156 083e 8246 093e 44f0 2ebe
000001e0: f25b bd3d 30cb 03be c861 a73c 67f5 21be
000001f0: c035 a1bc efa6 0bbe 8577 f53c 491e 1d3d
00000200: f618 ec3d 8fd7 abbe 0f00 9b3c dbc0 1b3e
00000210: a506 113e c08f ee3d cf90 06be cbc0 17be
00000220: 1f88 93bd 7c3d 393e 9128 0a3b 5fd3 a7bd
00000230: 69ed 98bd d67a 67be d657 adbd e431 03be
00000240: 9499 dabd 67ec 423d 9806 3dbe 469b 9fbb
00000250: 0690 bc3d 126a 773d 6378 0fbd 6836 b3ba
00000260: f04f 283e afa4 4e3d 9f31 49be ba83 033e
00000270: 1bee b83d 068f a93d ae55 e13d 1fba 9e3d
00000280: 4893 b33c d7c1 a0bd 8212 f5bd 7d80 0d3d
00000290: 6ad9 9cbd 2395 8b3e 5d5c 88bd 657a ffbc
000002a0: 5aa0 05be 63b4 de3c b635 063e 44e7 b7bb
000002b0: 7b35 0b3e 8a29 933d 960a 0f3e 000c c53d
000002c0: 9f51 363d f108 2e3d ad31 bebd 6d9e 733e
000002d0: 91db 933b 0318 e13d b712 313e 25a0 21be
000002e0: 5d45 ed3d 3395 a5bd f5c2 03be 47ef f7bd
000002f0: 1113 6abe 02a3 f63b 0be9 2b3d 0411 e4bd
00000300: bcec e93d e3bd 5c3e e3a4 52bd 0745 75bc
00000310: 18f6 293e 49b8 e33d b1a5 18be 334d 433d
00000320: 0b4d 08bd 7d6b 39be 0c2e ea3c a154 89be
00000330: 27eb d23d 68d5 90bd 52e8 563e 4318 323c
00000340: 1f4c b93c 3864 e2bd 9694 aebd 7dee b5bb
00000350: eb17 b13d a705 3fbe 7755 bbbd 0b6b 0c3e
00000360: 70dc b83d 055c 663d a395 f83c 8b2f 723d
00000370: 7082 743c 50ae 803c e41f 373d 16c5 4abe
00000380: 328c 9f3d 8d11 a3bd 80e9 3dbe 06b0 b6bd
00000390: f4bb b3bd a2a0 06bd 5169 23be 101b a8bd
000003a0: bb2c 81bd d1b4 12bd bd98 f2be e21c 163e
000003b0: 7043 76bc ec35 353e 3d1a 713d 534e be3c
000003c0: 4c7e 4cbe 9c16 633e 86de 983b a309 db3d
000003d0: 3eac cbbd 0d92 bd3c 867c aebb 3ba8 a9bd
000003e0: 150d 8b3c 43e0 f93d 596e 143e a960 25bd
000003f0: 42eb 58bd dff7 b0bd 4c00 423e adf0 f9bc

arith.constant1 f4 [64, 64]
0.0001954465 0.19060837 -0.014202585 -0.0040141777 0.008563402 -0.048542906 -0.046093456 -0.081629105
-0.013756648 0.050857984 -0.05817424 0.21557581 -0.108245894 0.021688871 0.027483454 0.05590165
-0.042472314 0.11417771 0.16307405 0.09043274 0.062667206 0.023657253 0.14081977 -0.093308866
-0.09776942 0.02405312 0.078041226 0.15141223 0.0145048285 0.07836586 -0.020240301 -0.03316339
-0.012505264 -0.12657644 0.0004640906 -0.1006566 -0.008716622 0.060951915 0.06673011 0.13586327
0.003529988 -0.1369631 -0.10641794 -0.10044734 0.098614685 -0.18322398 -0.15923935 0.03302717
0.021364788 -0.10466433 -0.0221066 0.04099775 0.052524034 0.063161284 0.20911524 0.024821322
0.05642909 -0.13506505 0.008223946 0.03350581 -0.017742347 0.15522689 -0.191856 -0.14773084
-0.08489645 0.06737673 0.09361399 -0.18154775 0.057279848 -0.035271678 0.008003136 0.04860467
0.061619695 -0.11361078 0.055323236 0.017563742 0.19641212 -0.011581648 0.05612352 -0.1215048
0.028087268 -0.13337354 -0.094783776 0.01114886 0.07864347 -0.14897637 -0.019573737 0.18659079
0.13092917 0.021854162 0.04485877 0.017349249 -0.016590739 0.098360635 0.05130556 -0.1665468
-0.002799706 0.122650094 0.004969822 0.13246426 0.13012548 -0.14372566 0.0016712759 -0.12767488
-0.016494326 -0.009477235 -0.121558614 0.032713342 -0.07167009 0.11133128 0.17514941 0.0071716947
0.14354172 0.0663883 -0.1439321 -0.038463563 0.14191054 -0.032114778 -0.08110566 -0.107130736
0.063509546 0.03460619 -0.0414322 -0.065554835 0.058649544 -0.039475717 0.07618551 0.047910936
-0.17448233 -0.1652936 -0.13762736 -0.024723481 -0.08051637 0.076120645 0.069290906 0.06787986
0.106680706 -0.035514858 0.07891028 -0.06332933 -0.07624621 -0.060831644 -0.010972249 0.029936645
-0.00024814333 0.02980965 0.22901101 0.07251416 -0.035385642 0.091400646 0.09955927 -0.034015194
0.072936386 -0.124610074 0.059340306 0.008818256 0.028143695 -0.08742028 0.10210294 -0.05975875
0.0024645221 0.023338133 0.109532796 -0.007565029 -0.23909709 0.048622493 -0.009241 -0.05549978
0.016747186 -0.08152175 0.08361038 0.014332828 -0.05738876 -0.07983356 -0.0103818895 -0.12814987
0.0398148 -0.06918947 0.15549654 -0.07821848 0.0037134783 -0.04977988 -0.10978521 -0.12742966
0.087145284 0.014770224 -0.01494654 -0.0069456175 0.09078592 -0.0022153023 0.0893607 0.04428329
-0.12722768 0.254911 -0.14858735 -0.07735203 -0.028026482 0.053386323 -0.02614436 -0.08786073
0.1412842 -0.022377504 -0.13577078 -0.09614153 0.09275293 0.05940732 0.11627033 0.010146598
-0.02803319 0.1093225 -0.13166411 -0.012258247 0.08041829 0.022899523 -0.09185811 0.18469043
-0.0686904 0.067231596 -0.07843958 0.1418428 -0.014015482 -0.023772556 0.07210571 -0.14989993
0.08605471 -0.13461798 -0.023467638 -0.011057869 0.078591354 0.0015200467 -0.03205297 0.07521139
-0.14481641 -0.032286204 -0.20019224 0.054248936 0.018554103 0.048228133 -0.07652549 0.0044651614
0.042087518 0.07926237 -0.0650326 -0.03901181 -0.0687396 0.011272911 0.080394275 0.15077999
0.14969304 -0.07534827 0.0305404 0.016385393 -0.13955864 0.13034813 0.1086575 -0.13377355
00000000: c5f0 4c39 d72e 433e f6b1 68bc 5d89 83bb
00000010: 834d 0c3c edd4 46bd 7ecc 3cbd 292d a7bd
00000020: 9063 61bc 7650 503d 1d48 6ebd e8bf 5c3e
00000030: 06b0 ddbd dcac b13c fb24 e13c 21f9 643d
00000040: 73f7 2dbd 01d6 e93d e2fc 263e cd34 b93d
00000050: aa57 803d dbcc c13c 0f33 103e b818 bfbd
00000060: 553b c8bd 0c0b c53c 14d4 9f3d cf0b 1b3e
00000070: a9a5 6d3c 487e a03d fdce a5bc 56d6 07bd
00000080: e1e2 4cbc 419d 01be 3051 f339 0c25 cebd
00000090: 2ad0 0ebc b7a8 793d cca9 883d be1f 0b3e
000000a0: 5f57 673b 0e40 0cbe a6f1 d9bd 56b7 cdbd
000000b0: 7ff6 c93d 119f 3bbe a40f 23be 7f47 073d
000000c0: 3505 af3c 415a d6bd e718 b5bc 42ed 273d
000000d0: 7123 573d b45a 813d 4e22 563e 1656 cb3c
000000e0: 3122 673d 7e4e 0abe bbbd 063c 633d 093d
000000f0: 6658 91bc ccf3 1e3e e675 44be c146 17be
00000100: 31de adbd d0fc 893d b1b8 bf3d a7e7 39be
00000110: 469e 6a3d 0979 10bd 961f 033c b115 473d
00000120: ef64 7c3d c5ac e8bd 9e9a 623d d6e1 8f3c
00000130: 4220 493e f4c0 3dbc c7e1 653d 82d7 f8bd
00000140: 4517 e63c 1393 08be ff1d c2bd b5a9 363c
00000150: d40f a13d 438d 18be 1a59 a0bc a811 3f3e
00000160: 4c12 063e 8007 b33c d4bd 373d 0320 8e3c
00000170: 4de9 87bc 4d71 c93d c725 523d 3f8b 2abe
00000180: 467b 37bb f92f fb3d e3d9 a23b b6a4 073e
00000190: 9d3f 053e d22c 13be b70e db3a 34bd 02be
000001a0: 1c1f 87bc 6846 1bbc b9f3 f8bd 6dfe 053d
000001b0: c5c7 92bd a701 e43d 5e5a 333e 8900 eb3b
000001c0: 9afc 123e 97f6 873d f062 13be f88b 1dbd
000001d0: ff50 113e c98a 03bd b91a a6bd 5c67 dbbd
000001e0: 4b11 823d 38bf 0d3d d0b4 29bd 9d41 86bd
000001f0: 813a 703d 4ab1 21bd 2607 9c3d 423e 443d
00000200: 7fab 32be ba42 29be 30ee 0cbe e688 cabc
00000210: c4e5 a4bd 24e5 9b3d 64e8 8d3d 9904 8b3d
00000220: 6a7b da3d 0778 11bd b69b a13d cfb2 81bd
00000230: f926 9cbd 9a2a 79bd f3c4 33bc b23d f53c
00000240: 3c19 82b9 5e33 f43c dd81 6a3e 4e82 943d
00000250: 89f0 10bd 4330 bb3d bbe5 cb3d 8453 0bbd
00000260: ac5f 953d 9133 ffbd d20e 733d 727a 103c
00000270: 9b8d e63c 6709 b3bd 591b d13d 97c5 74bd
00000280: d283 213b 9d2f bf3c bb52 e03d 10e4 f7bb
00000290: ded5 74be 6128 473d 9067 17bc bd53 63bd
000002a0: 6531 893c e0f4 a6bd eb3b ab3d 3dd4 6a3c
000002b0: 7a10 6bbd c77f a3bd cd18 2abc b839 03be
000002c0: d814 233d 35b3 8dbd 7c3a 1f3e 0331 a0bd
000002d0: d45d 733b fde5 4bbd 11d7 e0bd ec7c 02be
000002e0: 3a79 b23d cffe 713c 55e2 74bc 1098 e3bb
000002f0: f8ed b93d 9b2e 11bb be02 b73d 6562 353d
00000300: f947 02be b283 823e 4827 18be be6a 9ebd
00000310: cb97 e5bc 9eab 5a3d b22c d6bc 54f0 b3bd
00000320: ceac 103e 0751 b7bc 7f07 0bbe dae5 c4bd
00000330: 40f5 bd3d 1755 733d 241f ee3d eb3d 263c
00000340: dca5 e5bc 7ae4 df3d f5d2 06be d0d6 48bc
00000350: 58b2 a43d c897 bb3c 1b20 bcbd 7d1f 3d3e
00000360: 8dad 8cbd b8b0 893d eea4 a0bd 3d3f 113e
00000370: 31a1 65bc aabe c2bc 29ac 933d 5e7f 19be
00000380: 743d b03d 4cd9 09be 343f c0bc 102c 35bc
00000390: 81f4 a03d 4e3c c73a fa49 03bd 6e08 9a3d
000003a0: c14a 14be 8a3e 04bd 32ff 4cbe 2234 5e3d
000003b0: c6fe 973c dd8a 453d 65b9 9cbd 7d50 923b
000003c0: f663 2c3d 4f54 a23d d02f 85bd d9ca 1fbd
000003d0: 59c7 8cbd 04b2 383c c1a5 a43d 1266 1a3e
000003e0: 2249 193e 3250 9abd dc2f fa3c a93a 863c
000003f0: 76e8 0ebe fb79 053e d387 de3d effb 08be

arith.constant2 f4 [64, 64]
0.039683133 -0.06796615 -0.0654086 -0.051893994 -0.054628644 -0.15315434 0.13152179 -0.08288734
0.24251732 0.07568214 -0.056984086 -0.010832044 0.03740135 0.072490096 -0.041950755 0.04232021
0.13609482 0.13804276 0.01143163 -0.030068425 -0.0110524725 0.19121538 0.111876704 0.062493086
-0.09702771 -0.16610704 -0.10290106 0.09273815 0.033035196 0.017254509 0.040401667 -0.043789037
0.0016255812 -0.11558255 -0.11273925 0.03243937 -0.05474978 -0.05100257 0.14008555 0.12675954
-0.046529472 -0.0741074 -0.1157811 -0.033963595 0.025974685 -0.017789258 -0.25309402 0.10285932
-0.031288866 -0.06892818 0.102560356 -0.0046843104 0.078661874 -0.091370165 0.07911707 0.14307901
-0.032690924 -0.21046172 -0.08068433 -0.08804228 -0.008981958 0.11189574 -0.18402232 0.036529824
-0.10555238 0.01469728 0.07450273 -0.09288347 -0.029090216 -0.07724693 0.119972765 -0.21910682
0.058306143 0.08409507 -0.0032257398 0.113741495 0.06724576 0.06649024 -0.11281735 0.009527582
0.08856848 0.18883327 0.18263797 0.013235077 -0.11188882 0.12410433 -0.10573169 0.05453605
0.06785798 -0.13366887 0.09509856 0.1226814 -0.16624203 -0.080726646 -0.014886991 -0.089406975
0.08404307 0.10428608 0.02021077 0.028138272 -0.24312274 -0.23717074 0.077938765 -0.07455422
0.022885056 -0.06910313 -0.009459469 0.027209055 -0.21232258 0.027844647 -0.12517393 -0.053846456
0.07931077 -0.049677037 -0.052123826 0.1494093 0.18714726 -0.001358236 0.24627714 0.05651488
0.121237926 -0.09274989 0.01890888 -0.1941351 0.041184194 -0.055946596 -0.0035545034 0.05549912
0.011394796 -0.1288969 0.13181971 0.10231562 0.033624165 0.122570656 -0.0032183942 0.0066604973
-0.08579528 0.06791861 0.025864191 0.048419565 -0.14560494 -0.05003365 -0.06761402 -0.104568444
0.0718242 0.08146113 -0.03760238 -0.005346387 -0.0070528723 0.022415843 0.113921754 -0.12176336
0.14621289 -0.03216017 -0.10233627 0.07528973 -0.021432469 -0.04453243 0.033331696 0.15437606
-0.0849211 -0.005753827 0.17148088 -0.1253077 0.020283252 0.10737342 0.025282977 -0.031336296
0.026487475 0.009166532 0.18926786 -0.00402164 0.074609786 -0.07249 0.12992172 0.022882834
0.076945245 -0.1643597 0.17420271 0.06459979 -0.007842993 0.014589025 0.06802492 -0.02752971
0.08858345 0.021188466 -0.048330523 -0.1793354 -0.12715556 0.025312185 0.015617887 -0.06890051
-0.017605886 0.09760442 0.051068906 0.0044748695 0.22378854 0.053204283 0.03342119 0.09905673
-0.28449062 -0.0784575 0.14393477 -0.272225 0.14037053 -0.23035485 0.2926064 -0.16642503
-0.034384992 -0.09559997 -0.2155505 0.036353435 0.12711103 -0.29177985 -0.026187776 0.06413659
-0.0159689 0.021496193 -0.11080281 0.11234897 0.04834871 0.13217653 0.14552918 -0.025967566
-0.0715424 -0.08816832 -0.118660614 0.063657425 0.108599894 -0.04644053 -0.013812816 -0.10768448
-0.096671835 0.104383014 -0.2140598 0.2175841 -0.04276133 0.098503135 0.13312483 0.0012920354
-0.2662661 0.029378982 -0.076777086 0.13645811 -0.21529905 -0.06406899 -0.13779901 0.019361839
-0.09996342 0.08481424 0.11006672 -0.032946803 -0.25709173 -0.058042925 0.17731936 -0.12723005
00000000: c88a 223d d631 8bbd f2f4 85bd cc8e 54bd
00000010: 49c2 5fbd 7ed4 1cbe a6ad 063e d6c0 a9bd
00000020: 7656 783e 3dff 9a3d 2568 69bd e378 31bc
00000030: 2832 193d b075 943d 8ed4 2bbd f557 2d3d
00000040: 715c 0b3e 155b 0d3e bb4b 3b3c 0f52 f6bc
00000050: 6e15 35bc f7cd 433e 9d1f e53d c0f8 7f3d
00000060: 77b6 c6bd f717 2abe cabd d2bd 80ed bd3d
00000070: ea4f 073d 5459 8d3c 387c 253d 225c 33bd
00000080: 7411 d53a 8bb6 ecbd d6e3 e6bd 25df 043d
00000090: 4e41 60bd 12e8 50bd 9672 0f3e 41cd 013e
000000a0: b095 3ebd 9fc5 97bd a41e edbd 691d 0bbd
000000b0: ddc8 d43c c7ba 91bc 8a95 81be e8a7 d23d
000000c0: c128 00bd 382a 8dbd 2a0b d23d d87e 99bb
000000d0: 7a19 a13d 4820 bbbd 2108 a23d 4e83 123e
000000e0: ebe6 05bd 4783 57be d33d a5bd 834f b4bd
000000f0: 1029 13bc 9829 e53d 5970 3cbe 4ca0 153d
00000100: d92b d8bd dccc 703c e394 983d b039 bebd
00000110: 9b4e eebc a333 9ebd 48b4 f53d 8a5d 60be
00000120: 6cd2 6e3d 093a ac3d ef66 53bb 4df1 e83d
00000130: 25b8 893d 092c 883d c80c e7bd 9319 1c3c
00000140: 6463 b53d 825d 413e 7305 3b3e f0d7 583c
00000150: f725 e5bd 692a fe3d db89 d8bd 3161 5f3d
00000160: 20f9 8a3d 7ee0 08be 09c3 c23d 6340 fb3d
00000170: 5a3b 2abe 0354 a5bd 91e8 73bc 011b b7bd
00000180: c61e ac3d f193 d53d 0f91 a53c 3c82 e63c
00000190: 2bf5 78be e3dc 72be 5c9e 9f3d e2af 98bd
000001a0: 7179 bb3c f185 8dbd e3fb 1abc 86e5 de3c
000001b0: 176b 59be 751a e43c 982d 00be 1a8e 5cbd
000001c0: af6d a23d 267a 4bbd cb7f 55bd c0fe 183e
000001d0: 88a3 3f3e d606 b2ba 1330 7c3e 267c 673d
000001e0: 974b f83d a8f3 bdbd cce6 9a3c 5acb 46be
000001f0: c2b0 283d 4228 65bd acf2 68bb 0c53 633d
00000200: 3db1 3a3c 8dfd 03be bffb 063e da8a d13d
00000210: 7eb9 093d 5306 fb3d b2eb 52bb 4d40 da3b
00000220: 70b5 afbd ea18 8b3d 24e1 d33c 9853 463d
00000230: 7619 15be 16f0 4cbd 3879 8abd fb27 d6bd
00000240: 9118 933d 18d5 a63d f404 1abd bf30 afbb
00000250: c81b e7bb 6ea1 b73c cf4f e93d 125f f9bd
00000260: d5b8 153e 62ba 03bd ae95 d1bd 8131 9a3d
00000270: 2593 afbc a367 36bd d186 083d c214 1e3e
00000280: 1deb adbd 998a bcbb af98 2f3e a950 00be
00000290: 1029 a63c 98e6 db3d 3f1e cf3c 7d5a 00bd
000002a0: 43fc d83c 392f 163c 6fcf 413e f6c7 83bb
000002b0: 04cd 983d a375 94bd 330a 053e c874 bb3c
000002c0: 7895 9d3d e94d 28be 3262 323e e54c 843d
000002d0: e67f 00bc ce06 6f3c a650 8b3d fd85 e1bc
000002e0: 3d6b b53d 6f93 ad3c 3af6 45bd b3a3 37be
000002f0: 1135 02be 805b cf3c 2ae2 7f3c b61b 8dbd
00000300: 383a 90bc d3e4 c73d a12d 513d eda1 923b
00000310: d328 653e bcec 593d a8e4 083d 41de ca3d
00000320: c1a8 91be 53ae a0bd a363 133e 1361 8bbe
00000330: 4bbd 0f3e 24e2 6bbe 82d0 953e 536b 2abe
00000340: 47d7 0cbd ebc9 c3bd 45b9 5cbe 57e7 143d
00000350: 6529 023e 2b64 95be bf87 d6bc 0b5a 833d
00000360: 36d1 82bc c918 b03c 95ec e2bd 3717 e63d
00000370: 4c09 463d 4959 073e 9a05 153e efb9 d4bc
00000380: d284 92bd 9891 b4bd 5604 f3bd d35e 823d
00000390: 9f69 de3d 6d38 3ebd 264f 62bc ae89 dcbd
000003a0: e2fb c5bd c3c6 d53d 7e32 5bbe 5ece 5e3e
000003b0: 8126 2fbd 03bc c93d e051 083e 8459 a93a
000003c0: 0854 88be 31ac f03c 4e3d 9dbd adbb 0b3e
000003d0: 5b77 5cbe 9a36 83bd 2f1b 0dbe b89c 9e3c
000003e0: 9fb9 ccbd 17b3 ad3d a96a e13d 3af3 06bd
000003f0: 87a1 83be 6bbe 6dbd 3593 353e 9848 02be

arith.constant3 f4 [64, 64]
-0.030044828 0.03674662 0.014943509 0.14208895 -0.077569626 0.12736595 -0.008725334 -0.09434875
0.06230826 -0.055295568 -0.10178963 0.010492216 0.043269366 0.10216907 0.0040592006 0.19268513
-0.02367224 0.019892603 0.0043642423 -0.075034484 0.12146862 0.06576682 0.08996882 0.051854216
-0.1378482 -0.0029293774 -0.07754342 0.11586168 -0.009136412 0.03668031 0.016608719 -0.14262041
-0.083147064 -0.07332223 -0.040194023 0.076921076 -0.035568066 -0.059256744 -0.027762739 0.11451398
-0.01150355 0.04054571 0.10047101 -0.09357118 -0.05905559 -0.06202104 -0.17232652 0.19140281
-0.08631086 -0.0027301249 0.06680755 -0.032500487 0.18879263 -0.18802978 0.10114984 0.2434974
0.12235643 -0.1964825 -0.029671595 -0.06515719 0.0075195106 -0.010976577 -0.012754107 -0.004733849
-0.015580856 -0.083643466 0.11140459 6.2854786e-05 0.051867906 -0.039565258 0.087905936 -0.017392509
-0.008599909 -0.12787728 0.04849112 0.21507467 -0.057730056 0.054299295 0.052615747 0.10726426
0.036237847 0.23343496 0.2953558 -0.04197824 0.079159506 0.13086262 -0.03061692 -0.0033727156
0.04735174 -0.019792076 -0.15009959 0.07017858 0.10505464 -0.009382034 0.21474643 -0.1311956
0.05954191 0.066045575 0.007633449 0.07041623 0.039364092 -0.09602034 0.0581847 -0.032548476
0.004769643 -0.19436738 0.04976344 0.043431804 -0.20062377 -0.122729115 0.05666738 0.03221621
0.0660074 -0.07819142 0.006014086 0.06405548 0.16001026 0.10903428 0.12211405 0.0011587458
0.10580578 -0.06420703 -0.0008683462 -0.14996402 0.033893064 -0.066920236 -0.15288001 -0.041490875
-0.026097389 -0.2444999 0.07391777 0.078303084 0.040378813 0.11381946 -0.065922365 -0.05644399
-0.15921219 -0.039094903 0.07321169 -0.006385518 -0.009916573 -0.02218265 -0.08946692 -0.09154165
0.05678997 -0.010476968 0.051250033 0.029510332 0.30619 0.08625873 0.10230451 -0.08164157
0.15336105 -0.06574729 -0.31987733 0.061295055 -0.057330962 0.07859512 0.22759081 0.17796136
-0.09549881 0.08203931 0.11593246 0.10618964 -0.1085747 0.1266359 -0.049752794 -0.021172201
-0.095391616 0.1319711 0.1760512 0.030351859 0.025293786 -0.03862994 0.09201778 0.08324482
0.10284899 -0.2045425 -0.097922646 0.2253853 0.08246307 -0.0050666323 0.22396697 -0.16709423
0.10616079 -0.0017459227 -0.20785435 -0.09209076 -0.1860187 -0.101907946 -0.15135328 -0.10877227
0.08645294 0.05723785 -0.039698537 0.012745245 0.16994517 0.00047129212 -0.14149366 0.15940659
-0.07735819 -0.061214805 0.08463378 -0.028961822 0.09675796 -0.045997396 0.16855018 -0.08912142
-0.120936 -0.083186425 -0.021585168 0.05078905 -0.041969944 -0.14025573 -0.11315074 0.16215578
0.12826584 0.07928465 -0.053010274 0.19282816 0.14392042 0.09476406 0.10085619 -0.07093812
-0.09777375 0.028128508 0.019791933 0.11127969 -0.030603705 -0.09455282 -0.041348945 -0.0410391
0.006636694 0.0836949 -0.07393297 0.102676675 0.11270451 0.17457087 -0.02409305 0.012120317
-0.19723138 0.03209025 0.07900776 0.14748067 -0.10508915 -0.09454783 0.049685605 0.03510204
0.09594449 -0.09643795 0.046291444 -0.07268735 0.14826524 0.10360142 0.1871681 0.026638117
00000000: 9220 f6bc a083 163d 9fd5 743c c47f 113e
00000010: d3dc 9ebd 386c 023e b4f4 0ebc eb39 c1bd
00000020: f236 7f3d 9b7d 62bd 1577 d0bd 8be7 2b3c
00000030: 383b 313d 043e d13d 0b03 853b 404f 453e
00000040: 49ec c1bc d0f5 a23c eb01 8f3b aeab 99bd
00000050: 8ac4 f83d c1b0 863d 9341 b83d 1665 543d
00000060: 1428 0dbe ccfa 3fbb 16cf 9ebd e348 ed3d
00000070: e4b0 15bc 183e 163d 020f 883c 160b 12be
00000080: 0249 aabd f729 96bd 7da2 24bd cc88 9d3d
00000090: d2af 11bd 33b7 72bd af6e e3bc 4e86 ea3d
000000a0: 6379 3cbc 4213 263d bfc3 cd3d 3fa2 bfbd
000000b0: 46e4 71bd c609 7ebd 5d76 30be 19ff 433e
000000c0: c0c3 b0bd e5eb 32bb 66d2 883d 3b1f 05bd
000000d0: db52 413e e18a 40be a627 cf3d 6257 793e
000000e0: 0296 fa3d b532 49be d811 f3bc 2271 85bd
000000f0: 3a66 f63b 1ad7 33bc 9af6 50bc 671e 9bbb
00000100: d946 7fbc 444d abbd 1728 e43d e8d0 8338
00000110: 7173 543d 2e0f 22bd 0708 b43d bc7a 8ebc
00000120: a2e6 0cbc 43f2 02be a09e 463d 893c 5c3e
00000130: 5a76 6cbd f068 5e3d 9c83 573d 5dad db3d
00000140: 236e 143d 9309 6f3e e038 973e 60f1 2bbd
00000150: 611e a23d da00 063e 56d0 fabc c708 5dbb
00000160: e6f3 413d fe22 a2bc b5b3 19be cab9 8f3d
00000170: e326 d73d 1ab7 19bc 7de6 5b3e 2458 06be
00000180: 38e2 733d e742 873d 0322 fa3b 6236 903d
00000190: 3e3c 213d 50a6 c4bd 1453 6e3d 8d51 05bd
000001a0: aa4a 9c3b 3e08 47be c0d4 4b3d 8ce5 313d
000001b0: 5170 4dbe 6759 fbbd 0e1c 683d 25f5 033d
000001c0: e32e 873d d322 a0bd cf11 c53b 852f 833d
000001d0: bbd9 233e 5d4d df3d ee16 fa3d 0fe1 973a
000001e0: b3b0 d83d fa7e 83bd baa1 63ba 2b90 19be
000001f0: 74d3 0a3d 7a0d 89bd 948c 1cbe 56f2 29bd
00000200: 31ca d5bc 2f5e 7abe 3362 973d 5e5d a03d
00000210: 4164 253d 2d1a e93d 4e02 87bd d031 67bd
00000220: 8508 23be fa21 20bd 03f0 953d 9b3d d1bb
00000230: 1f79 22bc 64b8 b5bc 6f3a b7bd 307a bbbd
00000240: 999c 683d 97a7 2bbc 8eeb 513d a7bf f13c
00000250: f0c4 9c3e 6ba8 b03d 0785 d13d b233 a7bd
00000260: ae0a 1d3e 84a6 86bd f6c6 a3be 8610 7b3d
00000270: dfd3 6abd 7af6 a03d 910d 693e 813b 363e
00000280: e194 c3bd 3a04 a83d ff6d ed3d f479 d93d
00000290: 6a5c debd d7ac 013e 96c9 4bbd 5371 adbc
000002a0: ae5c c3bd 6f23 073e c446 343e 76a4 f83c
000002b0: ea34 cf3c 6e3a 1ebd d173 bc3d 437c aa3d
000002c0: 7ea2 d23d 9773 51be ab8b c8bd 67cb 663e
000002d0: 66e2 a83d fe05 a6bb 9957 653e c01a 2bbe
000002e0: d46a d93d 72d7 e4ba c5d7 54be 159a bcbd
000002f0: b07b 3ebe 1db5 d0bd 5bfc 1abe ffc3 debd
00000300: 3d0e b13d 3c72 6a3d ef9a 22bd 6fd1 503c
00000310: 1b06 2e3e c217 f739 b7e3 10be 7b3b 233e
00000320: f96d 9ebd 60bc 7abd 7a54 ad3d 5841 edbc
00000330: 0a29 c63d c467 3cbd 6b98 2c3e 4b85 b6bd
00000340: 4bad f7bd a55d aabd 61d3 b0bc 2e08 503d
00000350: ade8 2bbd 339f 0fbe 93bb e7bd 2a0c 263e
00000360: 1f58 033e fe5f a23d 4d21 59bd bf74 453e
00000370: e05f 133e a913 c23d b18d ce3d 0148 91bd
00000380: 9b3d c8bd c26d e63c b122 a23c 9be6 e33d
00000390: 9fb4 fabc e9a4 c1bd 835d 29bd 9e18 28bd
000003a0: a078 d93b 3b68 ab3d 2b6a 97bd 2648 d23d
000003b0: 9fd1 e63d b5c2 323e ca5e c5bc 4b94 463c
000003c0: 06f7 49be 1171 033d d2ce a13d 2c05 173e
000003d0: fb38 d7bd 4ba2 c1bd 2283 4b3d 28c7 0f3d
000003e0: 8b7e c43d 4381 c5bd 199c 3d3d 1bdd 94bd
000003f0: d8d2 173e fb2c d43d ffa8 3f3e 2e38 da3c

arith.constant4 f4 [64]
-0.06342437 -0.016408408 -0.16347042 0.06853145 -0.03774426 -0.09315708 -0.08714623 -0.13913868
0.034559768 0.07265687 0.11303619 -0.0966423 -0.02943177 -0.047534194 -0.08585008 -0.014273163
-0.17984131 0.007801638 0.0089607155 -0.05546372 0.0074512586 0.11000413 -0.036017757 0.05631335
-0.042021666 -0.05883464 0.05749544 -0.14335963 -0.07664723 -0.03626966 -0.01704895 0.0016305081
-0.017169273 0.031522676 -0.010120269 0.01927273 -0.066248804 0.012351306 -0.04479975 0.040813625
-0.074406415 -0.04299199 0.045834754 0.004503717 0.040851925 0.059522662 -0.027165508 -0.18609093
-0.032450058 -0.09651312 -0.031781513 -0.030463018 -0.09919398 -0.11489438 -0.008879057 0.11812797
-0.10618549 0.0015679923 -0.07952709 -0.018935544 -0.097393684 0.04009526 0.15364857 -0.08651063
00000000: a3e4 81bd ed6a 86bc ca64 27be 385a 8c3d
00000010: ba99 1abd 24c9 bebd b979 b2bd 5f7a 0ebe
00000020: 8b8e 0d3d 20cd 943d 857f e73d 66ec c5bd
00000030: e51a f1bc 37b3 42bd 2bd2 afbd fcd9 69bc
00000040: 5228 38be e2a4 ff3b f7cf 123c ed2d 63bd
00000050: b029 f43b d849 e13d 5b87 13bd d4a8 663d
00000060: e91e 2cbd 97fc 70bd 5780 6b3d decc 12be
00000070: 39f9 9cbd 7f8f 14bd 3daa 8bbc c6b6 d53a
00000080: 93a6 8cbc ec1d 013d 7ccf 25bc d8e1 9d3c
00000090: 74ad 87bd 225d 4a3c f17f 37bd 302c 273d
000000a0: 6462 98bd 5e18 30bd 39bd 3b3d eb93 933b
000000b0: 5954 273d 09ce 733d 338a debc 9f8e 3ebe
000000c0: 5aea 04bd aca8 c5bd 552d 02bd 948d f9bc
000000d0: 3726 cbbd bf4d ebbd 7779 11bc 14ed f13d
000000e0: c777 d9bd 1785 cd3a 19df a2bd b71e 9bbc
000000f0: 5776 c7bd ed3a 243d 0d56 1d3e 7c2c b1bd

arith.constant5 f4 [64]
0.028964749 0.016737128 -0.016198117 0.0072193313 0.038411178 0.029775774 -0.02851797 0.0065162447
0.026256543 -0.011454057 0.024307607 -0.022452569 0.02783964 -0.08360085 0.042300984 -0.03623237
-0.018926714 -0.008084036 -0.07426656 -0.024666833 0.047669195 -0.020391092 -0.01598836 0.060561188
-0.06367264 0.037253432 -0.06441436 0.002006358 -0.016956294 0.09903471 0.009177235 0.009070129
-0.01914355 -0.021640955 0.054473884 -0.0025492995 0.032198 0.022110127 -0.011748283 -0.003977913
-0.02242145 0.05436951 -0.007210869 0.053480033 -0.009190072 0.050034087 -0.036784858 -0.0017979603
-0.013352296 -0.0013833727 0.022489063 -0.018718317 -0.0114316195 0.0648668 -0.023168245 -0.024340153
-0.020622043 -0.0074942536 0.0014035797 0.031436995 -0.016778348 0.025790717 -0.004414218 -0.04260819
00000000: 7b47 ed3c 4d1c 893c eab1 84bc 2490 ec3b
00000010: 0a55 1d3d 53ec f33c 859e e9bc 3986 d53b
00000020: f617 d73c cca9 3bbc bf20 c73c 73ee b7bc
00000030: f50f e43c ec36 abbd cc43 2d3d 6568 14bd
00000040: 320c 9bbc e872 04bc 1119 98bd 1912 cabc
00000050: c640 433d 380b a7bc 05fa 82bc 020f 783d
00000060: cd66 82bd 0e97 183d adeb 83bd 1a7d 033b
00000070: ede7 8abc b6d2 ca3d 1d5c 163c e19a 143c
00000080: efd2 9cbc 5f48 b1bc 0220 5f3d 2612 27bb
00000090: 0de2 033d 4c20 b53c df7b 40bc 2759 82bb
000000a0: 30ad b7bc 90b2 5e3d 2749 ecbb e10d 5b3d
000000b0: f591 16bc 8bf0 4c3d b8ab 16bd 89a9 ebba
000000c0: 97c3 5abc 4952 b5ba fc3a b83c 2857 99bc
000000d0: b04b 3bbc e3d8 843d 55cb bdbc 0065 c7bc
000000e0: 8fef a8bc 5b92 f5bb 52f8 b73a 14c4 003d
000000f0: bf72 89bc 0e47 d33c 25a5 90bb ed85 2ebd

arith.constant6 f4 [64]
0.9339291 0.9436128 0.8813396 0.9533023 0.97843844 0.91559833 0.9040369 0.83732694
1.0569725 1.0271875 1.1224939 0.8666848 0.969004 0.91998726 0.9118019 1.0819373
0.8581968 0.9721631 1.083289 1.0212522 1.0578802 1.0439835 0.9344157 1.0257536
1.0014346 0.9408198 1.086722 0.85112596 0.9274792 1.0204252 1.0412085 0.9815602
0.9960874 0.9877541 0.99357593 1.0783514 0.9307458 0.9814574 0.9701398 1.0190727
1.0567634 0.96095514 0.96743625 1.0355339 1.009538 1.074298 0.9877218 0.83363974
0.9978058 0.88964057 1.046564 0.9965489 0.89135534 0.894867 0.9878685 1.09947
0.91659766 0.9738217 0.87980163 0.9906464 0.93915313 1.0242387 1.129693 1.039799
00000000: fa15 6f3f 9c90 713f 799f 613f 9f0b 743f
00000010: f17a 7a3f a764 6a3f f66e 673f 0f5b 563f
00000020: e04a 873f e17a 833f e1ad 8f3f 0edf 5d3f
00000030: a510 783f 4984 6b3f d96b 693f ec7c 8a3f
00000040: c9b2 5b3f aedf 783f 37a9 8a3f 64b8 823f
00000050: 9e68 873f 40a1 853f de35 6f3f e54b 833f
00000060: 022f 803f 91d9 703f b519 8b3f 64e3 593f
00000070: 476f 6d3f 4b9d 823f 5246 853f 8747 7b3f
00000080: 95ff 7e3f 74dd 7c3f fe5a 7e3f 6b07 8a3f
00000090: 5b45 6e3f cb40 7b3f 155b 783f f970 823f
000000a0: 0644 873f 2801 763f e7a9 773f 608c 843f
000000b0: 8b38 813f 9982 893f 56db 7c3f 6a69 553f
000000c0: 3370 7f3f 7cbf 633f cff5 853f d41d 7f3f
000000d0: dd2f 643f 0116 653f f3e4 7c3f 6fbb 8c3f
000000e0: 25a6 6a3f 614c 793f ae3a 613f 019b 7d3f
000000f0: 576c 703f 411a 833f c899 903f 2218 853f

arith.constant7 f4 [64]
-0.058077157 0.010177711 -0.15200214 -0.0076972228 -0.030915797 -0.100909665 -0.12080701 -0.1272464
0.06776172 -0.039462864 0.026315086 -0.08860653 -0.056738004 -0.08877388 -0.097793676 -0.002539048
-0.09672965 -0.018003194 0.023671458 -0.113538615 0.018235087 0.057289116 -0.10905382 0.046971254
-0.01585122 -0.07230966 0.018625036 -0.13714841 -0.05065653 -0.027273715 0.017778872 -0.029401718
-0.027923994 -0.0027799325 0.031744618 0.04860549 -0.088255756 -0.016757179 -0.054125417 0.058654703
-0.035496093 -0.07092206 0.03632444 -0.010475605 -0.061829794 -0.014630988 -0.026063012 -0.15747222
-0.017725829 -0.097132474 0.015680233 -0.062866054 -0.10115604 -0.14395025 -0.03326309 0.07217165
-0.13316819 -0.122421324 -0.13895108 -0.058836352 -0.1261949 0.059998926 -0.034913547 -0.0005013755
00000000: 50e2 6dbd 6ac0 263c 73a6 1bbe fc38 fcbb
00000010: 2043 fdbc baa9 cebd aa69 f7bd e14c 02be
00000020: a8c6 8a3d d0a3 21bd bc92 d73c 5777 b5bd
00000030: 1c66 68bd 14cf b5bd 0d48 c8bd 2866 26bb
00000040: 321a c6bd 6f7b 93bc a5ea c13c ef86 e8bd
00000050: c061 953c fea7 6a3d 9c57 dfbd ee64 403d
00000060: 6bda 81bc 1617 94bd 8893 983c a270 0cbe
00000070: 397d 4fbd 206d dfbc ffa4 913c dfdb f0bc
00000080: dcc0 e4bc 872f 36bb a506 023d 8d16 473d
00000090: 6fbf b4bd 5a46 89bc 9db2 5dbd ea3f 703d
000000a0: 5a64 11bd 963f 91bd f0c8 143d dfa1 2bbc
000000b0: 3d41 7dbd d0b6 6fbc 1982 d5bc 6640 21be
000000c0: c235 91bc 64ed c6bd d573 803c ebbf 80bd
000000d0: e62a cfbd b267 13be e13e 08bd bbce 933d
000000e0: 3e5d 08be 08b8 fabd 3149 0ebe 63fe 70bd
000000f0: 3c39 01be 6fc1 753d 8201 0fbd be6e 03ba

arith.constant8 f4 [64, 6]
0.11579086 0.23488264 0.058239996 -0.14387494 0.091324314 0.12653482 -0.07862701 -0.1997857
-0.12706819 -0.0114574535 -0.15879533 -0.10380983 -0.096866876 0.12952834 -0.21227965 -0.008971084
0.028174125 -0.015347199 0.057821 -0.123557046 -0.051136468 0.029047938 0.09771303 0.0463839
0.22963496 -0.16597171 0.017961662 -0.11214674 0.16700023 -0.238081 0.08217157 -0.18873385
0.00813186 0.005995142 0.17446893 -0.07564553 -0.26897442 0.0035775583 0.0346395 0.10341335
0.20786431 0.22735861 0.05935207 -0.16187958 -0.069376364 -0.32584476 -0.013221662 -0.14738457
0.23150122 -0.16606267 0.096483886 0.014318468 0.122179665 0.15386808 -0.04256763 0.16724887
-0.022615364 -0.24499275 0.021066654 -0.15940428 -0.0026993433 0.28128165 0.046915337 0.0107939495
-0.09093502 -0.07898126 -0.15207274 -0.19662468 -0.016816841 0.08984286 -0.045151193 -0.22516312
0.075634256 -0.112177156 -0.033128567 -0.21517703 -0.06714909 -0.27125397 0.18924814 -0.1526737
-0.064974286 -0.103120625 0.19735417 0.032856338 0.08790444 -0.041261494 -0.10851801 0.097625405
-0.16734871 -0.19854207 -0.046108883 -0.29767317 0.015402696 0.05392735 0.12953572 0.055652723
-0.033155967 0.13019328 -0.043763045 -0.043214895 0.042428985 -0.043284975 -0.19466907 -0.057155605
-0.057417825 0.0009270228 0.11406634 -0.056615323 0.00015496755 -0.020679895 -0.18282436 0.05666569
0.13212122 -0.12538503 -0.12242061 0.11264921 -0.08611258 -0.10625315 -0.041510195 0.06793432
-0.021263115 -0.13041818 -0.29968682 -0.0789644 -0.014958032 0.20961273 -0.13985297 0.00018520054
0.112142354 -0.03263472 -0.046257783 0.1792204 0.27298248 -0.14633182 0.060396247 0.03740322
-0.036911312 -0.06407622 -0.21283582 -0.13605738 0.13445044 -0.1604682 -0.21597622 -0.23891528
-0.09006389 -0.005558995 -0.018061226 0.19669603 -0.021916479 0.19866839 0.15540212 -0.19338305
0.071805514 -0.1143858 0.07405564 -0.15644132 0.21056478 -0.08109153 0.094292626 -0.04157073
0.072350085 0.42072946 -0.052491598 -0.025593663 -0.082814634 0.105914675 0.036997426 0.44278467
-0.010410252 -0.18962188 0.05867838 0.024995936 0.17707916 0.046611156 -0.07932651 -0.011871961
-0.092404336 0.16014114 -0.19989786 0.013843549 -0.12620045 -0.07968535 -0.08359483 -0.061546605
-0.2208235 0.22374286 0.06711303 0.27038038 -0.009287458 -0.1478889 -0.25454223 -0.028039364
0.038675986 -0.021452723 0.18998593 -0.18985724 -0.16204843 -0.01790651 -0.26906 0.10088031
-0.19977063 -0.022697447 -0.12917629 -0.16276713 -0.12733504 -0.09667635 -0.22936139 0.19895859
0.16187769 -0.14040448 0.22988778 -0.30442774 0.17703168 -0.10134149 0.007982578 0.07755622
0.093385 -0.21190251 -0.002596547 0.0023514049 -0.045319296 0.12607187 -0.04731815 0.05489195
0.16358729 -0.19206133 0.17498735 0.17140988 -0.16913317 0.14132985 0.11522422 0.021852039
-0.106561564 -0.24684343 -0.07540337 -0.0038525753 0.010146319 -0.047615603 -0.08828728 0.14925148
0.11054233 -0.10886909 -0.014569723 -0.003608823 0.047129452 -0.028163947 0.10989192 -0.0064018737
-0.09864657 0.010388453 0.0942332 0.12517336 0.11362603 -0.054687664 0.03957372 0.022939628
00000000: c223 ed3d 1385 703e 108d 6e3d f453 13be
00000010: 3e08 bb3d 5892 013e 3307 a1bd 9f94 4cbe
00000020: 2a1e 02be 0bb8 3bbc 3e9b 22be 409a d4bd
00000030: 2462 c6bd 14a3 043e d65f 59be 74fb 12bc
00000040: 6ccd e63c d172 7bbc b7d5 6c3d 7a0b fdbd
00000050: 7974 51bd f1f5 ed3c c51d c83d 0bfd 3d3d
00000060: 6d25 6b3e 7df4 29be 5624 933c 31ad e5bd
00000070: 1c02 2b3e 81cb 73be 9149 a83d 7243 41be
00000080: 7e3b 053c e572 c43b fca7 323e 0bec 9abd
00000090: 04b7 89be 7875 6a3b 26e2 0d3d 61ca d33d
000000a0: 62da 543e b2d0 683e 281b 733d c3c3 25be
000000b0: 3215 8ebd 20d5 a6be ab9f 58bc fbeb 16be
000000c0: a80e 6d3e 550c 2abe 5899 c53d 0298 6a3c
000000d0: 5539 fa3d 988f 1d3e 655b 2ebd 4a43 2b3e
000000e0: db43 b9bc 61df 7abe fa93 ac3c e03a 23be
000000f0: 77e7 30bb 2604 903e 4c2a 403d 1bd9 303c
00000100: 243c babd edc0 a1bd f5b8 1bbe fb57 49be
00000110: 79c3 89bc 89ff b73d 75f0 38bd 2991 66be
00000120: 22e6 9a3d 23bd e5bd d2b1 07bd 5e57 5cbe
00000130: 7685 89bd cde1 8abe 44ca 413e 7f56 1cbe
00000140: 3d11 85bd e830 d3bd 3617 4a3e 5e94 063d
00000150: 3e07 b43d d001 29bd b13e debd d4ef c73d
00000160: 765d 2bbe 9d4e 4bbe abdc 3cbd 9e68 98be
00000170: 975b 7c3c ede2 5c3d 03a5 043e 1cf4 633d
00000180: 8dce 07bd 6351 053e e140 33bd 1a02 31bd
00000190: 04ca 2d3d 964b 31bd 5457 47be ff1b 6abd
000001a0: f42e 6bbd 7203 733a 9d9b e93d 78e5 67bd
000001b0: c97e 2239 e268 a9bc 4f36 3bbe 481a 683d
000001c0: c94a 073e ef64 00be a8b7 fabd a1b4 e63d
000001d0: cb5b b0bd 409b d9bd 9806 2abd 2621 8b3d
000001e0: fc2f aebc 588c 05be 8d70 99be 16b8 a1bd
000001f0: 8912 75bc b8a4 563e 9e35 0fbe 6432 4239
00000200: e4aa e53d fcab 05bd cd78 3dbd 8d85 373e
00000210: 5cc4 8b3e 02d8 15be 0e62 773d 1e34 193d
00000220: 5130 17bd 653a 83bd a2f1 59be a052 0bbe
00000230: 60ad 093e c751 24be df28 5dbe 35a6 74be
00000240: 6b73 b8bd 3b28 b6bb 23f5 93bc af6a 493e
00000250: 308a b3bc ba6f 4b3e bc21 1f3e 3506 46be
00000260: c50e 933d 1a43 eabd 7caa 973d 2732 20be
00000270: 4b9e 573e 5113 a6bd 7e1c c13d 1246 2abd
00000280: 482c 943d da69 d73e 6e01 57bd cda9 d1bc
00000290: b89a a9bd cbe9 d83d 9d8a 173d acb4 e23e
000002a0: c38f 2abc 3d2c 42be be58 703d 47c4 cc3c
000002b0: 3d54 353e 57eb 3e3d f075 a2bd 9d82 42bc
000002c0: 7c3e bdbd 0afc 233e 06b2 4cbe 0ed0 623c
000002d0: b13a 01be 1332 a3bd c433 abbd 4b18 7cbd
000002e0: 8e1f 62be d91c 653e 8e72 893d 4c6f 8a3e
000002f0: 6c2a 18bc 3070 17be 5c53 82be cfb2 e5bc
00000300: b66a 1e3d 9fbd afbc ac8b 423e f069 42be
00000310: 06f0 25be acb0 92bc 3bc2 89be 569a ce3d
00000320: ac90 4cbe ffef b9bc ca46 04be 6dac 26be
00000330: 1e64 02be 40fe c5bd b6dd 6abe cdbb 4b3e
00000340: 44c3 253e 31c6 0fbe b467 6b3e f4dd 9bbe
00000350: cb47 353e 218c cfbd 5cc9 023c ccd5 9e3d
00000360: a340 bf3d f9fc 58be d42a 2abb 071a 1a3b
00000370: baa0 39bd fc18 013e add0 41bd 62d6 603d
00000380: 6d83 273e baab 44be e22f 333e 1286 2f3e
00000390: 3f31 2dbe c6b8 103e adfa eb3d 0c03 b33c
000003a0: f33c dabd 86c4 7cbe 156d 9abd 7d7b 7cbb
000003b0: bf3c 263c 9408 43bd f6cf b4bd 61d5 183e
000003c0: 0464 e23d c2f6 debd d9b5 6ebc 0182 6cbb
000003d0: d00a 413d 14b8 e6bc 040f e13d cfc6 d1bb
000003e0: 3707 cabd 5434 2a3c 56fd c03d 722d 003e
000003f0: c4b4 e83d 2c00 60bd 0e18 223d e3eb bb3c

arith.constant9 f4 [64, 6]
0.013042185 0.07611535 0.05230932 -0.15141916 0.028971843 -0.2689802 0.06632187 -0.1189884
0.120583646 0.15714033 -0.0049988707 -0.09152639 -0.07204335 0.025185047 -0.116474465 0.1750211
0.0769538 -0.0946995 -0.08929234 0.22846723 -0.15524317 -0.057582274 -0.016625363 -0.080229774
-0.043365937 -0.1142674 0.1444858 0.074571826 0.04097615 0.0782696 -0.14140634 -0.0184005
-0.09313255 0.35382214 -0.109942384 -0.32895464 0.016499056 0.049520947 -0.08576592 -0.03739978
0.33668476 0.16149905 -0.022095513 0.03265385 0.060422964 0.10233277 0.047857117 0.0027249707
0.0861403 0.0019426474 -0.109549865 -0.012065083 -0.022179425 0.030838473 -0.10180277 0.3260999
-0.087618455 0.105981395 0.0733625 0.12737478 -0.16377833 -0.22370018 -0.05218136 0.09200294
0.060485125 0.10023322 0.10365376 0.2048231 -0.066750534 -0.123862356 -0.043041054 0.023181675
0.01494623 -0.05214856 0.11473921 -0.2628662 -0.22927767 -0.123928525 0.10652981 0.29234815
-0.06979618 -0.12365867 -0.100653045 -0.28554353 0.067642935 -0.12105021 0.11263883 0.22233194
0.09333784 0.11794021 0.13781421 -0.041288614 -0.15581056 0.06400723 0.16019577 0.11358233
-0.02491435 0.05609868 0.13561448 -0.2510774 0.17385474 0.14571223 -0.082751565 0.17551334
-0.06017771 -0.13020891 0.024804318 0.14684439 -0.05204541 0.3602444 -0.031590205 0.19876339
-0.27011484 -0.6482711 -0.15651844 -0.091382876 -0.05224777 -0.06684045 0.15591238 -0.19962995
-0.078718364 -0.08974955 -0.22069582 0.06816694 -0.15037936 -0.039409507 -0.13252556 0.20651095
-0.08962321 0.175811 -0.30295238 -0.41599527 0.039255556 0.060669765 0.005093504 -0.051370546
0.024405604 0.2681587 0.01282786 -0.1889406 0.02708379 -0.12464545 -0.05773817 -0.19277467
-0.07671285 -0.09568572 -0.123518616 -0.05089019 0.115579054 -0.062357247 -0.09534092 -0.19630812
-0.08335495 0.34900486 0.025931861 -0.06579682 0.028699439 -0.034229986 0.21680975 -0.20365468
0.15576091 0.11730656 0.108935766 -0.14973277 -0.08105525 0.013933399 0.07336435 0.11392466
0.06111064 0.14156643 0.0365891 -0.03989498 -0.17393415 -0.096520714 -0.07814194 -0.34493998
-0.09649346 0.043906495 0.098997824 0.2769972 -0.0001973156 -0.005402005 -0.19465354 -0.12745541
-0.108832635 -0.072575 -0.038271654 0.022216827 -0.13822292 0.074740164 0.33402935 0.15629508
-0.03967578 -0.2954192 0.066632904 0.29076976 0.11151858 -0.20495003 -0.1509929 0.10702755
-0.12115775 -0.31360132 -0.1405186 -0.31366396 -0.067149594 -0.095426224 -0.08593068 0.24783364
0.020982917 -0.068518944 0.1703404 0.08152316 0.08930049 -0.1084685 -0.042226776 0.23430263
0.061405372 -0.25710207 0.029108169 -0.049236782 0.2566798 0.0077913194 0.027848942 0.03252054
-0.013376608 0.10965873 0.008680786 -0.35807824 0.11928104 0.099405296 -0.022783548 0.09444843
-0.17049304 -0.023400716 0.18492846 0.20561515 -0.049377628 0.008635609 0.022680916 0.13380663
0.14950712 0.3335749 0.07262296 -0.22951928 -0.23219652 -0.081902675 -0.04646728 -0.2332469
0.04028425 0.21206717 0.22992325 0.086456165 0.006803305 0.09309076 -0.17033823 -0.18359044
00000000: e4ae 553c 5de2 9b3d 4c42 563d a00d 1bbe
00000010: 5c56 ed3c c6b7 89be c3d3 873d 31b0 f3bd
00000020: 8ff4 f63d 65e9 203e 91cd a3bb 3072 bbbd
00000030: 778b 93bd df50 ce3c 2a8a eebd bb38 333e
00000040: f499 9d3d d0f1 c1bd e7de b6bd 50f3 693e
00000050: 11f8 1ebe 64db 6bbd ea31 88bc 824f a4bd
00000060: 7ba0 31bd 0705 eabd 16f4 133e 1db9 983d
00000070: 9cd6 273d d04b a03d d3cc 10be a5bc 96bc
00000080: 47bc bebd 2d28 b53e 7929 e1bd be6c a8be
00000090: 0729 873c 7ad6 4a3d 0ba6 afbd 8330 19bd
000000a0: f261 ac3e 0260 253e a601 b5bc 0bc0 053d
000000b0: 127e 773d d893 d13d d305 443d 6c95 323b
000000c0: 536a b03d 6ea0 fe3a ae5b e0bd a0ac 45bc
000000d0: a0b1 b5bc f7a0 fc3c f87d d0bd 91f6 a63e
000000e0: 4e71 b3bd c60c d93d 143f 963d 896e 023e
000000f0: 82b5 27be a911 65be 1fbc 55bd 0a6c bc3d
00000100: 40bf 773d 1347 cd3d 6c48 d43d 26bd 513e
00000110: 81b4 88bd 8cab fdbd d14b 30bd 7fe7 bd3c
00000120: 08e1 743c ba99 55bd 64fc ea3d 6696 86be
00000130: c4c7 6abe 3dce fdbd 4d2c da3d a8ae 953e
00000140: 4df1 8ebd c240 fdbd 2f23 cebd c332 92be
00000150: 6188 8a3d 2ce9 f7bd 30af e63d fcaa 633e
00000160: e927 bf3d a38a f13d 2b1f 0d3e 401e 29bd
00000170: ce8c 1fbe 3916 833d 5c0a 243e da9d e83d
00000180: 2e19 ccbc bbc7 653d 86de 0a3e 388d 80be
00000190: fa06 323e 9635 153e a779 a9bd c5b9 333e
000001a0: e77c 76bd 7c55 05be 6d32 cb3c 605e 163e
000001b0: 912d 55bd f471 b83e bb64 01bd a188 4b3e
000001c0: 7e4c 8abe 18f5 25bf 5f46 20be f226 bbbd
000001d0: c201 56bd a5e3 88bd 7fa7 1f3e cb6b 4cbe
000001e0: 1837 a1bd 9dce b7bd 16fe 61be 1c9b 8b3d
000001f0: 0cfd 19be dd6b 21bd c8b4 07be 9b77 533e
00000200: 608c b7bd cc07 343e 931c 9bbe 55fd d4be
00000210: 6fca 203d dc80 783d 69e7 a63b ec69 52bd
00000220: 43ee c73c 194c 893e f22b 523c a579 41be
00000230: d3de dd3c 1d46 ffbd dc7e 6cbd b966 45be
00000240: a01b 9dbd e0f6 c3bd 54f7 fcbd 3b72 50bd
00000250: b6b4 ec3d 506a 7fbd 1a42 c3bd ff04 49be
00000260: 00b6 aabd c4b0 b23e 0e6f d43c 7cc0 86bd
00000270: 161b eb3c be34 0cbd 6003 5e3e da8a 50be
00000280: ca7f 1f3e 6c3e f03d b719 df3d 8c53 19be
00000290: 4b00 a6bd e948 643c 0c40 963d 5551 e93d
000002a0: 274f 7a3d caf6 103e 74de 153d eb68 23bd
000002b0: cb1b 32be a7ac c5bd e208 a0bd f99b b0be
000002c0: 5d9e c5bd 4cd7 333d 5fbf ca3d 94d2 8d3e
000002d0: 81e6 4eb9 4d03 b1bb 4253 47be ac83 02be
000002e0: a5e3 debd 34a2 94bd bdc2 1cbd 1000 b63c
000002f0: 4f8a 0dbe 5f11 993d e505 ab3e d10b 203e
00000300: 1283 22bd 2f41 97be d576 883d c6df 943e
00000310: da63 e43d 6cde 51be e29d 1abe 4331 db3d
00000320: 8e21 f8bd 5a90 a0be 1ce4 0fbe 9098 a0be
00000330: ba85 89bd d36e c3bd 6dfc afbd 1ac8 7d3e
00000340: 5ee4 ab3c a953 8cbd b76d 2e3e 9df5 a63d
00000350: 2de3 b63d bc24 debd fcf5 2cbd 07ed 6f3e
00000360: 3384 7b3d e2a2 83be 4174 ee3c 82ac 49bd
00000370: 896b 833e 534e ff3b 7723 e43c 4234 053d
00000380: 8f29 5bbc c294 e03d db39 0e3c 0856 b7be
00000390: 9e49 f43d 0195 cb3d 90a4 babc 2e6e c13d
000003a0: ba95 2ebe dcb2 bfbc e35d 3d3e c78c 523e
000003b0: 3240 4abd 5f7c 0d3c 54cd b93c 9b04 093e
000003c0: 6518 193e 54ca aa3e 59bb 943d 1a07 6bbe
000003d0: edc4 6dbe 97bc a7bd 7954 3ebd 46d8 6ebe
000003e0: 1901 253d 2328 593e 0071 6b3e ee0f b13d
000003f0: 42ee de3b 5ea6 be3d 256d 2ebe 22ff 3bbe
