app/src/main/assets/respeck_lstm_essential5.tflite (tflite, 186316 bytes, 28 tensors)

sequential/dense/BiasAdd/ReadVariableOp f4 [64]
0.08129385 0.00033562945 -0.04832235 -0.022723682 -0.16415712 -0.005321453 -0.09527842 0.12793596
-0.028081613 0.020144688 0.3282984 0.14625949 0.12936546 -0.21329011 0.14862362 -0.3217081
0.28374 -0.02181288 0.098066665 0.005626877 0.0009997946 0.12554246 0.23058277 0.27987656
-0.17928712 -0.27632102 0.048727404 0.14333305 0.2790834 0.09825608 -0.23632947 -0.14373313
0.053868487 -0.39695913 0.13980435 0.049637936 0.017649762 -0.015243253 -0.08019064 -0.12199065
0.17349668 0.18389721 -0.082788624 -0.26409695 0.1618733 0.16008031 0.050198507 -0.06379887
-0.19532834 0.023659311 0.043652315 0.108908616 0.17914902 0.14426225 -0.04939063 0.28900045
0.1021783 0.101244785 0.2151074 0.23497786 -0.05855017 0.14858358 -0.012899953 -0.17482036
00000000: 647d a63d 6cf7 af39 a8ed 45bd 0427 babc
00000010: ce18 28be 955f aebb 5521 c3bd a501 033e
00000020: 690b e6bc 7906 a53c ba16 a83e 0cc5 153e
00000030: 6178 043e b968 5abe ca30 183e edb6 a4be
00000040: 5f46 913e edb0 b2bc 2dd7 c83d aa61 b83b
00000050: 8a0b 833a 348e 003e e41d 6c3e fb4b 8f3e
00000060: 0b97 37be f379 8dbe 6396 473d e6c5 123e
00000070: 05e4 8e3e 7c3a c93d 5a00 72be c72e 13be
00000080: 34a5 5c3d 3a3e cbbe df28 0f3e 2651 4b3d
00000090: 3c96 903c d6be 79bc fe3a a4bd 3cd6 f9bd
000000a0: 1da9 313e 8d4f 3c3e 158d a9bd b737 87be
000000b0: 1dc2 253e 18ec 233e f39c 4d3d fba8 82bd
000000c0: 2704 48be 2cd1 c13c c5cc 323d 7b0b df3d
000000d0: d772 373e 7cb9 133e d44d 4abd def7 933e
000000e0: db42 d13d 6d59 cf3d 1d45 5c3e 099e 703e
000000f0: 4ed2 6fbd 4b26 183e 535a 53bc 1c04 33be

sequential/dense_1/BiasAdd/ReadVariableOp f4 [5]
0.0093180435 -0.18506786 -0.0093249 0.11191863 -0.12361183
00000000: b5aa 183c 6e82 3dbe 77c7 18bc 9835 e53d
00000010: 3328 fdbd

arith.constant f4 [64, 64]
-0.09675831 -0.05551293 0.01099281 -0.024868634 0.03214112 -0.17407182 0.10793679 0.16367017
0.007372721 0.17459954 -0.03343128 -0.092902996 -0.05057567 0.0007445338 -0.23258553 0.29086885
0.011547485 -0.08983784 0.09079516 0.039037745 0.2055531 0.032665733 0.19559762 0.08916516
0.036385346 0.20638886 0.012385662 0.058872234 -0.12216187 -0.07443993 0.014143072 0.081229754
-0.08865536 -0.18848072 0.14152373 0.068466924 0.19663441 -0.0821319 -0.10577193 -0.18622158
0.06568212 -0.06769322 -0.08353391 0.0039035405 0.018924858 0.22133283 0.192188 -0.14832258
-0.38272512 0.15610301 0.13778046 0.06877547 0.08347706 -0.18072952 0.041642208 0.09923236
-0.12846456 -0.14242795 -0.03127936 -0.06955963 -0.1392568 0.09154568 -0.112499066 0.03541019
-0.047830317 -0.06272604 -0.09490161 0.011054424 0.078141704 -0.049121246 0.118760064 -0.24361359
0.12475302 -0.120197035 0.14786927 -0.16031767 -0.002699278 0.051257547 -0.13384013 0.09559877
0.2383473 0.19996805 0.09031496 -0.020561138 0.12124652 0.0037783852 -0.17804553 0.16280246
0.11754717 0.18096028 -0.25029442 -0.18939425 -0.00206501 -0.12919427 -0.0925756 0.11957207
-0.110402934 -0.21216671 -0.2167124 0.20910114 0.16175981 0.07160955 -0.07685015 -0.06705022
-0.12166367 -0.118982725 -0.24237035 0.094883524 0.05894153 0.18550865 0.1596241 -0.0041335016
0.2968441 -0.11784075 0.16562057 -0.019627245 0.026296886 -0.15242933 0.092762865 0.044087667
0.0035846788 0.0802616 -0.056824133 0.15194222 -0.1637921 -0.38211796 -0.19307365 0.025112737
-0.071996085 -0.3050366 -0.14666988 -0.11177527 -0.11999131 0.070657976 0.10757557 0.21969706
-0.039283942 0.08346266 -0.13536024 -0.10717952 -0.022828124 0.018962929 -0.033753786 -0.012485677
0.32681853 -0.012917617 0.008190548 -0.138816 0.07475424 -0.10231275 0.023076445 0.09918298
0.05168038 -0.43273428 0.13754669 -0.022405814 -0.0055182856 0.12933886 -0.045081887 -0.017213237
-0.12671731 0.13729677 0.11493248 -0.0182136 -0.07198474 -0.35126397 -0.061670784 0.03553685
-0.022284925 0.051054474 0.22513187 -0.16078942 0.09662436 -0.15331464 0.12989645 -0.010779837
-0.047280315 0.0048495 -0.24889411 -0.14786965 0.18490498 0.07222372 -0.09817851 0.029246904
-0.3364654 0.10416577 -0.15107283 -0.03610616 0.10035808 0.16680913 0.1535764 -0.19371967
-0.054048732 0.030684436 -0.13852632 0.061742894 0.0971792 -0.030732552 0.0035105466 -0.047718327
-0.07255448 0.06904686 -0.13547872 -0.1297927 0.12785275 0.006753454 -0.163125 0.17986853
0.1339337 -0.07628381 -0.28775835 0.011985502 0.116072506 0.021806888 -0.04616248 0.053818326
0.10381788 0.2238129 -0.11627842 -0.10191127 -0.056491815 0.03522866 -0.033002585 -0.059083685
0.03410155 -0.1935557 0.03086624 -0.11521541 -0.056419004 -0.008386546 -0.1553214 -0.016552813
0.024421038 0.054404724 -0.038169384 -0.01197802 0.07429555 0.0019477444 0.24828592 -0.12060495
0.046423316 -0.11425948 -0.19731371 0.007337327 0.14986329 0.01691934 0.45810834 0.0699123
0.16089886 0.09324614 -0.24677567 0.044778 -0.11725439 -0.26827767 0.09818551 0.02131946
00000000: 3929 c6bd 8761 63bd 301b 343c 4eb9 cbbc
00000010: 68a6 033d e23f 32be f70d dd3d 2799 273e
00000020: de96 f13b 39ca 323e 3def 08bd ed43 bebd
00000030: 6f28 4fbd d12c 433a e72a 6ebe c3ec 943e
00000040: aa31 3d3c e7fc b7bd d0f2 b93d 0be6 1f3d
00000050: 837c 523e 81cc 053d be4a 483e 399c b63d
00000060: cd08 153d 9a57 533e 3bed 4a3c 0324 713d
00000070: 0130 fabd f673 98bd 58b8 673c c95b a63d
00000080: f190 b5bd 1701 41be 99eb 103e 6338 8c3d
00000090: 885a 493e c534 a8bd f49e d8bd dfb0 3ebe
000000a0: 5984 863d bea2 8abd d413 abbd 8bd2 7f3b
000000b0: 4e08 9b3c 13a5 623e eecc 443e e0e1 17be
000000c0: 8cf4 c3be 78d9 1f3e 5216 0d3e 27da 8c3d
000000d0: 05f6 aa3d 2911 39be 0591 2a3d 563a cb3d
000000e0: 378c 03be a2d8 11be c91e 00bd 4775 8ebd
000000f0: 5699 0ebe 4d7c bb3d e965 e6bd 460a 113d
00000100: b9e9 43bd 8376 80bd c65b c2bd 9d1d 353c
00000110: c208 a03d 5c33 49bd 7a38 f33d d775 79be
00000120: 837e ff3d dd29 f6bd 0b6b 173e 512a 24be
00000130: 5fe6 30bb 6ff3 513d 630d 09be 4ac9 c33d
00000140: 5111 743e 6dc4 4c3e 0df7 b83d d56f a8bc
00000150: 1850 f83d c99e 773b 9151 36be b0b5 263e
00000160: 92bc f03d a74d 393e 9726 80be 91f0 41be
00000170: 1e55 07bb 814b 04be 4798 bdbd 34e2 f43d
00000180: ef1a e2bd 3b42 59be dbe9 5dbe 9c1e 563e
00000190: 5da4 253e 07a8 923d 9d63 9dbd a051 89bd
000001a0: cd2a f9bd 37ad f3bd ef2f 78be 4b52 c23d
000001b0: ac6c 713d fbf5 3d3e 8074 233e 5372 87bb
000001c0: f3fb 973e 7e56 f1bd 7098 293e 51c9 a0bc
000001d0: 916c d73c 6f16 1cbe 75fa bd3d 4595 343d
000001e0: eeec 6a3b 3260 a43d 6cc0 68bd be96 1b3e
000001f0: 1eb9 27be f7a4 c3be 19b5 45be 3ab9 cd3c
00000200: af72 93bd c22d 9cbe a130 16be 6fea e4bd
00000210: 01be f5bd 21b5 903d 9550 dc3d 44f8 603e
00000220: 33e8 20bd 79ee aa3d e09b 0abe f080 dbbd
00000230: 0c02 bbbc 2558 9b3c 6941 0abd ba90 4cbc
00000240: c254 a73e 6aa4 53bc a631 063c c825 0ebe
00000250: c018 993d 5989 d1bd d00a bd3c 7220 cb3d
00000260: ceae 533d 598f ddbe 0ad9 0c3e 668c b7bc
00000270: bcd2 b4bb 6871 043e c9a7 38bd c602 8dbc
00000280: 2fc2 01be 8697 0c3e b861 eb3d b034 95bc
00000290: bc6c 93bd dfd8 b3be 819a 7cbd 178f 113d
000002a0: e08e b6bc 7f1e 513d f888 663e fba5 24be
000002b0: fee2 c53d 83fe 1cbe 9303 053e ea9d 30bc
000002c0: 01a9 41bd 8ee8 9e3b 19de 7ebe 246b 17be
000002d0: bb57 3d3e 08ea 933d d111 c9bd 3497 ef3c
000002e0: 3145 acbe dd54 d53d d6b2 1abe 0ee4 13bd
000002f0: 8988 cd3d 03d0 2a3e 2243 1d3e 735e 46be
00000300: 3462 5dbd ed5d fb3c d8d9 0dbe 1ee6 7c3d
00000310: e305 c73d d5c2 fbbc 3311 663b 4b74 43bd
00000320: 7197 94bd 7168 8d3d efba 0abe 61e8 04be
00000330: d5eb 023e 144c dd3b 3d0a 27be 752f 383e
00000340: ea25 093e b03a 9cbd 1055 93be d75e 443c
00000350: 6cb7 ed3d 5ca4 b23c de14 3dbd 9b70 5c3d
00000360: 789e d43d 352f 653e 6123 eebd dbb6 d0bd
00000370: f663 67bd ed4b 103d b82d 07bd bc01 72bd
00000380: 11ae 0b3d 7733 46be 32db fc3c 0ff6 ebbd
00000390: 9d17 67bd b967 09bc 930c 1fbe c499 87bc
000003a0: a10e c83c 7dd7 5e3d 8057 1cbd 753f 44bc
000003b0: 4428 983d 754b ff3a aa3e 7e3e baff f6bd
000003c0: 6026 3e3d e000 eabd 9b0c 4abe f66d f03b
000003d0: c375 193e 6d9a 8a3c 2d8d ea3e 2e2e 8f3d
000003e0: acc2 243e d5f7 be3d c3b2 7cbe 2369 373d
000003f0: 1223 f0bd b15b 89be 7c15 c93d 26a6 ae3c

arith.constant1 f4 [64, 64]
-0.04883244 -0.15051831 -0.07026143 0.056303646 -0.10892453 0.008134456 0.24981879 0.094237864
-0.038650624 -0.014035394 -0.07602262 0.025076084 -0.04711144 -0.015616037 -0.08566581 0.107716955
-0.03091904 -0.09930678 0.05454789 7.2604584e-05 -0.013763349 -0.20689179 0.060883276 0.20070383
-0.013933947 0.055749908 0.1100931 -0.06400252 -0.09130434 -0.015943844 -0.14291191 -0.15063366
-0.025841394 0.06954847 0.07906272 0.0693364 -0.0034452032 -0.0594402 0.058964062 -0.050821964
0.21455227 0.04401368 0.120324194 0.08826202 0.08732879 -0.05419667 -0.13820933 -0.0158506
0.030012313 -0.09257502 0.15452588 0.0018356537 -0.016772138 -0.09239127 0.06623434 0.059265144
-0.11927536 0.01862643 -0.04463309 0.124123074 -0.08960019 0.00017487523 -0.103455454 0.10279007
0.1596941 -0.083849005 -0.19555497 0.16979425 -0.06965791 -0.06753557 -0.08999384 -0.0024052036
0.1318667 0.0046294187 0.041466355 -0.017108012 -0.021843094 0.04534816 0.10436282 0.009828011
-0.045227 0.034594234 0.03693364 0.117932595 0.135026 0.039829873 0.0208949 0.06680452
-0.0051969 0.08224613 -0.0019176268 0.07210178 -0.0046991133 -0.15135832 -0.053485 0.28807026
0.068797134 -0.14672 0.07014253 0.1954552 -0.25975057 -0.105568446 0.06520392 0.03376733
-0.11626637 0.094205715 -0.120500766 -0.13119747 -0.04620618 0.05863569 -0.14685272 -0.029637042
-0.009079029 0.16049954 0.1267979 -0.1870884 -0.073192716 -0.049164575 0.03597739 -0.10964259
0.15140146 -0.1581765 0.13439578 -0.17465189 -0.1176172 0.09785373 0.07556028 -0.05007557
0.12033554 -0.045520652 -0.034753595 -0.038717855 -0.1769145 -0.116790965 -0.093965836 0.076824695
0.05140119 0.12384722 -0.07082901 -0.11880731 -0.18191327 -0.18580104 0.05973613 -0.21837239
0.29288968 0.071175285 0.15929246 0.037612613 -0.0078623155 -0.002850291 -0.018185006 0.09713482
0.03831599 -0.05484088 0.1338297 0.22089508 0.050201625 -0.1616448 0.24945095 0.04709234
0.0047439924 -0.06324701 0.15595144 0.032548524 0.1394873 -0.09125486 -0.17398138 0.054855883
0.02353906 -0.12604557 -0.018994555 0.14907646 -0.006229872 -0.07065608 0.12189021 0.12982646
-0.09376012 0.0008715465 0.1271566 -0.122387595 -0.07686979 0.010489844 0.08271412 -0.12168858
0.025545977 -0.16742212 0.063937925 -0.13441703 0.13875678 0.19127801 0.062134344 0.0403573
-0.06951987 0.12709568 -0.07416079 -0.11554808 0.0292689 -0.03790719 -0.16787872 0.08872706
0.06403936 0.025957419 0.11683664 -0.013458862 0.0614683 0.00027937847 0.080915324 -0.0656083
-0.044231642 0.06761715 -0.02501776 0.058852293 -0.028419686 -0.06942731 0.12096008 -0.1107258
0.06220643 0.14003079 -0.027595107 0.083761536 -0.048383072 -0.11500087 0.08985586 0.06597
-0.065680884 -0.18830225 0.0029679085 0.20045823 -0.049702477 0.018256942 0.046962667 0.039408054
0.038351245 0.0017067052 -0.13588811 0.0682415 -0.14362693 0.11575066 -0.17203881 0.0735995
0.1018531 0.103943 0.0020492577 -0.060792245 -0.08887879 -0.13683544 -0.07022307 -0.090316355
0.078303985 -0.020382471 -0.0046259244 -0.12859538 0.05733552 0.05349338 -0.0057281447 0.19126526
00000000: 8604 48bd 7921 1abe 3ae5 8fbd a79e 663d
00000010: d313 dfbd 6246 053c 7fd0 7f3e c8ff c03d
00000020: 1e50 1ebd b6f4 65bc bfb1 9bbd 5c6c cd3c
00000030: edf7 40bd 68da 7fbc 8e71 afbd b59a dc3d
00000040: ed49 fdbc 5a61 cbbd 9c6d 5f3d 4a43 9838
00000050: ab7f 61bc 71db 53be be60 793d 4e85 4d3e
00000060: 364b 64bc 045a 643d 7e78 e13d c113 83bd
00000070: c5fd babd aa9c 82bc 8057 12be b63f 1abe
00000080: 55b1 d3bc 6e6f 8e3d a3eb a13d 3e00 8e3d
00000090: ebc8 61bb 9177 73bd 4d84 713d b12a 50bd
000000a0: 97b3 5b3e b047 343d 886c f63d b8c2 b43d
000000b0: 70d9 b23d 54fd 5dbd bf86 0dbe 1ed9 81bc
000000c0: 62dc f53c f997 bdbd 083c 1e3e 519a f03a
000000d0: b965 89bc a237 bdbd dfa5 873d 02c0 723d
000000e0: a446 f4bd 7496 983c 30d1 36bd 3d34 fe3d
000000f0: 4e80 b7bd b65e 3739 74e0 d3bd 9a83 d23d
00000100: da86 233e 07b9 abbd 903f 48be 8bde 2d3e
00000110: cea8 8ebd 1750 8abd b14e b8bd 9fa0 1dbb
00000120: 1008 073e 61b2 973b a0d8 293d 1a26 8cbc
00000130: 4af0 b2bc febe 393d 2dbc d53d aa05 213c
00000140: f23f 39bd afb2 0d3d ba47 173d a586 f13d
00000150: 4144 0a3e a624 233d c82b ab3c cfd0 883d
00000160: c24a aabb a970 a83d e158 fbba 19aa 933d
00000170: 05fb 99bb adfd 1abe 1613 5bbd f27d 933e
00000180: 83e5 8c3d c53d 16be e3a6 8f3d 6825 483e
00000190: 07fe 84be 4534 d8bd a289 853d 9d4f 0a3d
000001a0: 101d eebd edee c03d 1bc9 f6bd a158 06be
000001b0: b142 3dbd fa2b 703d 8f60 16be 62c9 f2bc
000001c0: 35c0 14bc fe59 243e 4fd7 013e 1a94 3fbe
000001d0: 10e6 95bd cb60 49bd 075d 133d 4b8c e0bd
000001e0: fc08 1b3e 05f9 21be 0c9f 093e f2d7 32be
000001f0: 49e1 f0bd 8967 c83d 59bf 9a3d 0a1c 4dbd
00000200: 7b72 f63d dd73 3abd c959 0ebd 9d96 1ebd
00000210: 1329 35be 1a30 efbd 2971 c0bd 4456 9d3d
00000220: 0e8a 523d 9ca3 fd3d cd0e 91bd 3f51 f3bd
00000230: 7947 3abe a142 3ebe dfad 743d 039d 5fbe
00000240: a3f5 953e 59c4 913d 901d 233e af0f 1a3d
00000250: f1d0 00bc f3cb 3abb b9f8 94bc 9fee c63d
00000260: 3af1 1c3d d5a0 60bd a70a 093e 5232 623e
00000270: 38a0 4d3d 3786 25be 1270 7f3e e6e3 403d
00000280: 7e73 9b3b a687 81bd bcb1 1f3e 9a51 053d
00000290: c2d5 0e3e d4e3 babd 2d28 32be 90b0 603d
000002a0: fdd4 c03c 1712 01be 789a 9bbc 80a7 183e
000002b0: f423 ccbb 23b4 90bd 93a1 f93d 3af1 043e
000002c0: 4e05 c0bd 7f78 643a 5735 023e 59a6 fabd
000002d0: e96d 9dbd 98dd 2b3c 0566 a93d dd37 f9bd
000002e0: cc45 d13c b470 2bbe e3f1 823d 9ea4 09be
000002f0: 4216 0e3e 62de 433e 9580 7e3d b24d 253d
00000300: 6f60 8ebd 5f25 023e 9de1 97bd 79a4 ecbd
00000310: 55c5 ef3c 9244 1bbd 66e8 2bbe 88b6 b53d
00000320: 1127 833d a7a4 d43c 0c48 ef3d 8f82 5cbc
00000330: 2fc6 7b3d 8b79 9239 efb6 a53d a55d 86bd
00000340: 3d2c 35bd dc7a 8a3d 0cf2 ccbc 1a0f 713d
00000350: 67d0 e8bc e82f 8ebd ebb9 f73d 35c4 e2bd
00000360: 2bcc 7e3d 3b64 0f3e 220f e2bc 2b8b ab3d
00000370: 542d 46bd 9385 ebbd 5906 b83d 481b 873d
00000380: b383 86bd 4ed2 40be 3e81 423b ec44 4d3e
00000390: d394 4bbd 958f 953c ed5b 403d 576a 213d
000003a0: 3216 1d3d 86b3 df3a 4126 0bbe 33c2 8b3d
000003b0: f012 13be af0e ed3d f12a 30be 56bb 963d
000003c0: 5c98 d03d 11e0 d43d d74c 063b 4a01 79bd
000003d0: 1506 b6bd 971e 0cbe 1dd1 8fbd c8f7 b8bd
000003e0: d75d a03d 24f9 a6bc 1195 97bb 82ae 03be
000003f0: a6d8 6a3d e01b 5b3d 29b3 bbbb 0adb 433e

arith.constant2 f4 [64, 64]
-0.048065692 -0.0002748378 -0.1273081 -0.031906497 0.10219545 -0.13046956 -0.14194344 0.13701807
0.06761369 -0.04811861 -0.049282018 -0.063901104 -0.082686886 0.04906054 -0.12179589 0.112757586
0.10497566 -0.09460376 0.13021944 -0.06721614 0.2261358 -0.013515339 0.2353941 0.17585467
0.0647136 0.21604717 0.0709698 0.023865301 -0.059162233 -0.032234054 0.20228896 0.1412305
0.014032151 -0.027656296 0.092966504 0.16289075 0.08711865 -0.06028767 -0.13667625 -0.02472538
0.010668528 -0.10345428 0.11342604 -0.058589462 -0.0707066 0.16449758 -0.043306183 0.023732213
-0.3515681 0.19361417 -0.0814907 -0.0032709124 0.021629581 0.01658843 0.08892508 0.059547383
0.014967487 0.03501508 -0.15149297 -0.0057680467 -0.1550943 0.21936715 -0.13773927 -0.1899196
0.03448171 0.02533671 0.08505733 0.036449883 -0.09014592 0.0009372213 0.029746536 -0.28383517
0.21694307 -0.03586885 0.13292445 -0.14013521 -0.13481349 -0.069891095 -0.23220494 0.043494217
0.15382904 0.22565009 -0.09134711 0.190866 0.14117761 0.16807811 -0.16233964 0.06401798
0.12974782 0.2373101 0.038841467 -0.025365602 -0.093938455 -0.114165105 -0.11467698 -0.0028279964
0.2292729 -0.27792987 -0.22453931 0.12570365 0.015766682 0.01553855 -0.14369194 0.07101
0.037260816 -0.14687695 -0.01295035 0.102766946 0.0027790347 0.27636886 0.29149002 0.24958768
0.13262197 -0.2433581 0.11303265 -0.039717194 0.1765034 -0.03195744 0.26313248 0.093588375
-0.13529417 0.060542595 0.12799808 -0.09677943 -0.13671649 -0.25305608 -0.010111177 0.038943384
-0.35096028 -0.20016834 0.4315718 -0.19146541 -0.22101516 0.093905725 0.23644653 0.3093452
-0.030004092 0.36161593 -0.20483309 -0.10421016 0.049540184 -0.06156765 -0.17336202 0.022337142
0.060616106 -0.0368935 0.13204786 -0.04781846 0.024691824 -0.11032068 0.05015031 -0.0297547
0.036954932 -0.07715032 0.057290643 0.13560486 0.06002154 -0.0412691 0.20584375 0.08133545
0.10113582 -0.12546735 -0.021960765 0.008126409 0.29448283 -0.45383623 0.281473 -0.08102738
-0.1461584 0.016335564 0.14681065 -0.2227016 -0.21934974 0.15246405 0.2005142 0.15269263
-0.0998374 0.0030930634 -0.090875946 -0.09722493 0.13877931 0.20480351 -0.20194805 0.39347824
-0.17509389 0.1193393 -0.087374486 -0.044853393 -0.07315894 0.11963651 0.46729097 -0.19344169
-0.021258527 0.25291798 -0.004518755 0.17235704 0.22539042 0.06366871 -0.10259576 0.013224539
-0.05853234 0.076201074 0.006764991 -0.17985158 0.029970208 -0.14438182 -0.17557687 0.21207723
-0.004848956 -0.01689558 -0.03056189 -0.041072637 0.23232433 0.1326816 0.018476397 -0.12132484
0.027437028 0.16529728 -0.035521045 0.18005696 -0.0951558 -0.007834044 -0.11605041 0.022078697
0.07897738 -0.048896637 -0.090944365 -0.084876955 0.14910085 0.02222679 -0.21121058 -0.06094594
-0.006137357 -0.008266122 -0.1952981 0.066233054 -0.24438126 0.16097842 0.11682411 -0.16383895
0.12549193 -0.1272511 0.039967097 0.079147756 0.04565544 -0.0568682 0.3964234 0.06607291
0.21266131 -0.062271506 -0.20626907 -0.19213219 -0.0068461853 -0.28841496 0.0064079035 -0.17768379
00000000: 88e0 44bd 1b18 90b9 0e5d 02be 63b0 02bd
00000010: d94b d13d d099 05be 9f59 11be 774e 0c3e
00000020: 0c79 8a3d 0518 45bd f1db 49bd 95de 82bd
00000030: be57 a9bd b4f3 483d 2070 f9bd 73ed e63d
00000040: 7bfd d63d 9ebf c1bd 3f58 053e 9ea8 89bd
00000050: 2590 673e 716f 5dbc 270b 713e 3f13 343e
00000060: 9088 843d 783b 5d3e 9d58 913d 2a81 c33c
00000070: 1954 72bd db07 04bd d624 4f3e ba9e 103e
00000080: 1be7 653c 758f e2bc 3965 be3d d5cc 263e
00000090: 436b b23d 34f0 76bd dcf4 0bbe e18c cabc
000000a0: 0dcb 2e3c d6df d3bd e94b e83d 81fb 6fbd
000000b0: 9fce 90bd 0e72 283e d361 31bd 0f6a c23c
000000c0: bc00 b4be cb42 463e 99e4 a6bd ce5c 56bb
000000d0: 8530 b13c 76e4 873c 5a1e b63d f5e7 733d
000000e0: 313a 753c f96b 0f3d f920 1bbe e201 bdbb
000000f0: 0ad1 1ebe c8a1 603e 860b 0dbe 497a 42be
00000100: b23c 0d3d ef8e cf3c 8a32 ae3d 794c 153d
00000110: 6d9e b8bd dbaf 753a 02af f33c d852 91be
00000120: 5326 5e3e 37eb 12bd 591d 083e 9b7f 0fbe
00000130: 8c0c 0abe 1023 8fbd 22c7 6dbe fe26 323d
00000140: 5c85 1d3e d110 673e 3214 bbbd 6072 433e
00000150: dd90 103e ab1c 2c3e 5d3c 26be dc1b 833d
00000160: 9ddc 043e 6b01 733e 3b18 1f3d 86cb cfbc
00000170: ce62 c0bd 65cf e9bd c4db eabd e855 39bb
00000180: 84c6 6a3e d34c 8ebe a2ed 65be 75b8 003e
00000190: 2129 813c 6795 7e3c fb23 13be b16d 913d
000001a0: cc9e 183d e966 16be b42d 54bc 7a77 d23d
000001b0: 7720 363b 3880 8d3e 2e3e 953e ea93 7f3e
000001c0: 0ece 073e de32 79be a97d e73d 7fae 22bd
000001d0: 4fbd 343e cee5 02bd 4db9 863e 43ab bf3d
000001e0: 8e8a 0abe 83fb 773d ee11 033e 4b34 c6bd
000001f0: 68ff 0bbe 9190 81be 5aa9 25bc 1983 1f3d
00000200: 11b1 b3be eef8 4cbe fbf6 dc3e 820f 44be
00000210: cc51 62be a551 c03d 0a1f 723e 7e62 9e3e
00000220: 24cb f5bc b925 b93e c4bf 51be 236c d5bd
00000230: a6ea 4a3d 5c2e 7cbd d085 31be 62fc b63c
00000240: 9848 783d a31d 17bd 8e37 073e 4add 43bd
00000250: 8246 ca3c cfef e1bd 696a 4d3d 21c0 f3bc
00000260: 0e5e 173d fd00 9ebd 98a9 6a3d 00dc 0a3e
00000270: 25d9 753d ca09 29bd b4c8 523e 3393 a63d
00000280: 4c20 cf3d 837a 00be 10e7 b3bc a124 053c
00000290: 74c6 963e 395d e8be 3b1d 903e aff1 a5bd
000002a0: 8caa 15be 29d2 853c 8855 163e e30b 64be
000002b0: 389d 60be 891f 1c3e 9853 4d3e 755b 1c3e
000002c0: 8d77 ccbd feb4 4a3b 2b1d babd dd1d c7bd
000002d0: 2a1c 0e3e 03b8 513e 78cb 4ebe fb75 c93e
000002e0: d04b 33be 2a68 f43d 65f1 b2bd 31b8 37bd
000002f0: 5bd4 95bd fd03 f53d c340 ef3e 9415 46be
00000300: 5d26 aebc 777e 813e 1012 94bb 5d7e 303e
00000310: bfcc 663e be64 823d ba1d d2bd bdab 583c
00000320: 9bbf 6fbd 4f0f 9c3d dcac dd3b 032b 38be
00000330: 1584 f53c d4d8 13be 6cca 33be c62a 593e
00000340: fee3 9ebb 9968 8abc ee5c fabc c83b 28bd
00000350: 6ee6 6d3e afdd 073e d05b 973c 2879 f8bd
00000360: 9ec3 e03c b143 293e 847e 11bd da60 383e
00000370: 0be1 c2bd 5d5a 00bc d6ab edbd 62de b43c
00000380: e5be a13d d747 48bd 0a41 babd f8d3 adbd
00000390: e5ad 183e f514 b63c 9647 58be 73a2 79bd
000003a0: e21b c9bb a16e 07bc 3afc 47be 32a5 873d
000003b0: 153f 7abe 87d7 243e 7b41 ef3d 66c5 27be
000003c0: f580 003e 1d4e 02be 8ab4 233d 3818 a23d
000003d0: 3301 3b3d a1ee 68bd 02f8 ca3e 3c51 873d
000003e0: e3c3 593e 6810 7fbd 3338 53be 4dbe 44be
000003f0: f755 e0bb 20ab 93be 64f9 d13b bdf2 35be

arith.constant3 f4 [64, 64]
-0.05333379 -0.059622 0.0601804 -0.0856411 -0.073165216 -0.017616702 0.13244516 -0.14674582
0.067125 -0.09880871 -0.034567997 -0.14664567 -0.08174485 -0.047816396 -0.03330023 0.1628197
0.17338529 -0.037127666 -0.0075999345 0.02604524 0.025294177 0.12909596 0.02790363 0.0075802337
0.080351174 0.1435377 -0.026641574 -0.12427387 -0.048915867 -0.056666236 0.23469846 0.0508255
-0.07473757 -0.024067264 -0.05224533 0.13882494 -0.03189419 -0.06444249 0.04635349 0.055536367
0.042949475 -0.08505068 0.16201709 0.24181664 -0.019263279 0.104258105 0.19042961 -0.04373237
-0.33270347 0.24831477 -0.019519946 0.024261266 0.06017117 -0.00050819496 0.13841249 0.08362854
-0.23377621 -0.078276 -0.19761814 -0.01820212 0.061485663 0.01335509 0.122166716 -0.19488269
0.034898363 -0.15441543 -0.09840143 0.024043024 0.11526447 -0.010836279 0.028974595 0.106132835
0.14180005 -0.025135938 0.11332551 -0.14168501 0.47159827 -0.15087402 0.06594064 -0.10756136
0.18100823 -0.12442322 0.2939652 0.057580587 0.23351961 -0.06445667 -0.18577147 0.2497322
0.15063313 0.0848081 0.053347472 -0.12598328 -0.13203366 -0.123347595 0.063352056 0.08321705
0.13395171 0.051241964 0.41589442 0.04636945 0.19743554 0.0856427 -0.27810833 -0.026260823
0.04520465 -0.22378705 -0.08107441 0.091652095 0.15056969 0.22475363 -0.036178514 0.39936936
0.22136587 0.090402015 0.0041442886 0.054833777 0.002403523 -0.27920967 0.07924151 -0.06811853
-0.05712996 -0.015597433 -0.006130566 0.13106 -0.26455978 -0.015004523 0.16782539 -0.057701573
-0.17130251 0.015508344 0.24865557 0.18372382 0.10283541 -0.30451325 -0.18033774 0.29118007
0.11476817 -0.017520405 0.035030253 -0.45407748 -0.2819587 -0.16274865 -0.110177524 -0.06588578
0.09816247 -0.21017209 0.34854478 -0.12334097 0.35149774 -0.082623996 0.3921783 0.26392484
-0.11880191 -0.031219013 0.26660505 -0.22122185 -0.42008057 -0.11483154 0.1739776 0.17841305
0.14670752 -0.28990987 0.16137235 0.29414245 0.29025054 0.044157766 -0.049277075 -0.054506615
0.10262042 -0.084351234 -0.16467316 -0.1575218 -0.12131619 -0.020130413 0.52487504 0.3078068
-0.11211322 0.03167879 0.17732824 0.1994353 0.06489102 -0.30158335 -0.24709027 -0.11187252
0.1752951 -0.07314456 0.18615259 -0.34493703 0.2543065 0.18534705 -0.095021255 -0.32445392
-0.15257333 -0.11427572 -0.23419034 0.030566344 0.086850874 -0.012088396 -0.1808136 0.041569516
-0.007955177 0.22404413 0.005231292 -0.17996606 0.07832001 0.026372034 0.017702479 0.083894014
0.039880298 -0.09700144 -0.0067140805 -0.031898856 0.23451783 0.038258355 -0.052937906 -0.102916926
-0.09680838 0.08046388 -0.07293076 -0.25161782 -0.05021991 -0.026324507 -0.067262344 -0.029893847
0.0147213945 -0.16071266 -0.15211706 -0.12705924 0.124915384 0.09292848 -0.092069186 0.12694071
-0.15428105 -0.19815022 0.09020293 -0.11434081 -0.057878178 0.07710607 0.03264302 -0.07119552
-0.006196601 0.034217402 -0.21435 0.07283433 -0.16631237 0.014972527 0.1646755 -0.10997609
0.08806598 -0.04671848 -0.24679351 0.13310839 0.13308024 -0.060989622 0.16672197 -0.23104925
00000000: 8874 5abd 3336 74bd b97f 763d 9a64 afbd
00000010: a5d7 95bd e750 90bc b49f 073e 8944 16be
00000020: d578 893d 395c cabd 2c97 0dbd 482a 16be
00000030: d869 a7bd 20db 43bd d265 08bd 35ba 263e
00000040: ea8b 313e 2e13 18bd df08 f9bb d45c d53c
00000050: bc35 cf3c bb31 043e 2796 e43c 9c63 f83b
00000060: 288f a43d 8cfb 123e 6e3f dabc 4c83 febd
00000070: 015c 48bd db1a 68bd cb54 703e 662e 503d
00000080: 0310 99bd b628 c5bc 33ff 55bd 2028 0e3e
00000090: 7ba3 02bd 6dfa 83bd 28dd 3d3d 1a7a 633d
000000a0: caeb 2f3d 0d2f aebd cfe7 253e c89e 773e
000000b0: 06ce 9dbc 4685 d53d fbff 423e b720 33bd
000000c0: 1c58 aabe 3a46 7e3e 4be8 9fbc 90bf c63c
000000d0: 0b76 763d 6338 05ba 01bc 0d3e 7145 ab3d
000000e0: 0863 6fbe 2b4f a0bd 695c 4abe 9d1c 95bc
000000f0: 64d8 7b3d 4fcf 5a3c 8b32 fa3d 548f 47be
00000100: 96f1 0e3d 141f 1ebe b086 c9bd e0f5 c43c
00000110: c70f ec3d a68a 31bc 215c ed3c 2c5c d93d
00000120: 0834 113e e2e9 cdbc 3417 e83d e015 11be
00000130: 5475 f13e b87e 1abe e30b 873d 2149 dcbd
00000140: 395a 393e 9ad1 febd 9b82 963e 9fd9 6b3d
00000150: c41f 6f3e dc01 84bd e03a 3ebe ccb9 7f3e
00000160: 923f 1a3e deaf ad3d e182 5a3d c301 01be
00000170: d533 07be aa9d fcbd b9be 813d b36d aa3d
00000180: a32a 093e 18e3 513d 1df0 d43e e4ed 3d3d
00000190: 8b2c 4a3e 7165 af3d 3764 8ebe f020 d7bc
000001a0: 8328 393d 6f28 65be 570a a6bd 18b4 bb3d
000001b0: f12e 1a3e d125 663e ec2f 14bd 247a cc3e
000001c0: bcad 623e b124 b93d d0cc 873b 6299 603d
000001d0: 6d84 1d3b 92f4 8ebe 5f49 a23d ba81 8bbd
000001e0: 1b01 6abd 608c 7fbc eae2 c8bb 9834 063e
000001f0: 6174 87be 88d5 75bc 6bda 2b3e 7c58 6cbd
00000200: ed69 2fbe b616 7e3c 919f 7e3e 1922 3c3e
00000210: 5f9b d23d 29e9 9bbe 75aa 38be 8e15 953e
00000220: 930b eb3d f486 8fbc e27b 0f3d d87c e8be
00000230: e45c 90be 95a7 26be c1a4 e1bd 20ef 86bd
00000240: 6809 c93d 5a37 57be 7674 b23e 319a fcbd
00000250: 83f7 b33e c536 a9bd 98cb c83e 2821 873e
00000260: 6a4e f3bd 04bf ffbc 7580 883e fb87 62be
00000270: cd14 d7be cc2c ebbd 2f27 323e e9b1 363e
00000280: 7f3a 163e 116f 94be cb3e 253e d799 963e
00000290: b89b 943e c6de 343d c2d6 49bd 5442 5fbd
000002a0: a82a d23d 57c0 acbd 15a0 28be 654d 21be
000002b0: 9f74 f8bd 89e8 a4bc 365e 063f da98 9d3e
000002c0: 9e9b e5bd 9ec1 013d 8995 353e c438 4c3e
000002d0: 95e5 843d 2269 9abe 3b05 7dbe 6b1d e5bd
000002e0: 8f80 333e d1cc 95bd c99e 3e3e 969b b0be
000002f0: 7634 823e 9ecb 3d3e 819a c2bd d31e a6be
00000300: 2f3c 1cbe 6409 eabd 98cf 6fbe 4566 fa3c
00000310: dfde b13d 680e 46bc 3327 39be cc44 2a3d
00000320: 6e56 02bc d36b 653e 426b ab3b 0649 38be
00000330: 3e66 a03d 2a0a d83c ca04 913c a0d0 ab3d
00000340: 8659 233d b1a8 c6bd ca01 dcbb 60a8 02bd
00000350: 7125 703e cbb4 1c3d 6bd5 58bd 1cc6 d2bd
00000360: 7943 c6bd 3fca a43d b95c 95bd 0dd4 80be
00000370: 64b3 4dbd 7ea6 d7bc d7c0 89bd f1e3 f4bc
00000380: 0132 713c dc91 24be 93c4 1bbe d11b 02be
00000390: a3d3 ff3d 4951 be3d c58e bcbd bffc 013e
000003a0: dafb 1dbe e4e7 4abe 50bc b83d 842b eabd
000003b0: ab11 6dbd cae9 9d3d b0b4 053d f5ce 91bd
000003c0: db0c cbbb 8c27 0c3d 917e 5bbe 2a2a 953d
000003d0: ca4d 2abe 544f 753c b2a0 283e 253b e1bd
000003e0: f05b b43d e05b 3fbd 70b7 7cbe 914d 083e
000003f0: 3046 083e 41d0 79bd 2ab9 2a3e 2d98 6cbe

arith.constant4 f4 [64]
-0.109793305 -0.18838407 -0.18369167 -0.17653845 -0.07690514 -0.14807245 0.0064734793 -0.0450157
-0.15555549 -0.05529666 -0.23824513 -0.024738887 -0.21779837 -0.09627607 -0.066647425 0.0477465
-0.14937404 -0.061371 -0.17300549 0.06774879 -0.072607204 0.027155332 0.041662566 -0.250577
-0.16368918 -0.13702637 -0.20426534 -0.061891418 -0.2318411 -0.21329992 -0.14973943 -0.07708645
-0.18149862 -0.058920484 -0.27589333 0.0067230286 -0.013175927 -0.21787713 -0.07633176 -0.07026449
-0.057501484 -0.15256509 -0.18503653 -0.08090057 -0.123313345 -0.16438316 -0.18871646 -0.14426859
-0.04800456 0.079637446 -0.107225 -0.38293305 -0.11757209 -0.096780136 -0.111242145 -0.088696584
-0.25524712 -0.10321402 -0.416487 -0.106997676 -0.19434585 -0.36458108 -0.044083636 0.024557304
00000000: 50db e0bd c1e7 40be ab19 3cbe 7fc6 34be
00000010: 7180 9dbd 4ea0 17be 7b1f d43b 6262 38bd
00000020: f049 1fbe c07e 62bd 88f6 73be 35a9 cabc
00000030: 8906 5fbe 632c c5bd 727e 88bd d591 433d
00000040: 82f5 18be 2860 7bbd 5a28 31be e1bf 8a3d
00000050: 16b3 94bd dc74 de3c 5ea6 2a3d a14b 80be
00000060: 239e 27be a450 0cbe ef2a 51be db81 7dbd
00000070: c167 6dbe 4b6b 5abe 4b55 19be 80df 9dbd
00000080: c6da 39be 9b56 71bd e441 8dbe da4c dc3b
00000090: d8df 57bc 2f1b 5fbe d353 9cbd d4e6 8fbd
000000a0: ad86 6bbd 063a 1cbe 377a 3dbe 33af a5bd
000000b0: b58b fcbd 0f54 28be e33e 41be 25bb 13be
000000c0: 6ea0 44bd f518 a33d c898 dbbd cd0f c4be
000000d0: a3c9 f0bd aa34 c6bd ecd2 e3bd 8ea6 b5bd
000000e0: c0af 82be df61 d3bd c93d d5be 9921 dbbd
000000f0: 9902 47be 5faa babe 0b91 34bd 662c c93c

arith.constant5 f4 [64]
0.0976874 0.12341558 0.039683513 0.0078004 -0.047724232 0.017709184 0.06982188 -0.037899096
0.036265787 -0.07341656 0.0178507 0.06301175 0.039167963 -0.016376179 0.035007924 0.02333907
-0.07261089 0.034626868 0.042635664 -0.042960104 -0.08595956 -0.013969706 -0.10500525 0.019658407
-0.0340116 0.06779535 0.023160435 -0.1044081 -0.012342791 -0.032312695 0.04251474 -0.0875458
-0.019152632 0.060799442 -0.03448591 -0.06099734 -0.02100881 0.056408245 0.031219278 0.07769967
0.077824704 0.06294564 -0.01835184 0.044116516 0.07310227 -0.041504387 -0.0079067 -0.066623874
0.082885034 -0.016580133 0.082664296 0.030535283 -0.037250366 -0.069535226 -0.07220105 0.02847955
0.018057039 0.036570594 0.04854244 0.010857367 0.10287417 0.014399778 0.029522741 0.051162098
00000000: 5510 c83d 4fc1 fc3d 2e8b 223d 7f9a ff3b
00000010: 7c7a 43bd da12 913c c6fe 8e3d 153c 1bbd
00000020: 6f8b 143d 6c5b 96bd a23b 923c 4e0c 813d
00000030: 966e 203d 5627 86bc 7864 0f3d 9431 bf3c
00000040: 05b5 94bd e7d4 0d3d bca2 2e3d eff6 2fbd
00000050: 910b b0bd 32e1 64bc fe0c d7bd ab0a a13c
00000060: bf4f 0bbd 4ad8 8a3d f4ba bd3c ead3 d5bd
00000070: 6b39 4abc 515a 04bd f023 2e3d 364b b3bd
00000080: fbe5 9cbc d608 793d 1941 0dbd 59d8 79bd
00000090: ab1a acbc 550c 673d 92bf ff3c 0121 9f3d
000000a0: 8f62 9f3d a5e9 803d 9956 96bc 85b3 343d
000000b0: a5b6 953d 8100 2abd 1a8b 01bc 1972 88bd
000000c0: a1bf a93d 0fd3 87bc e64b a93d 2125 fa3c
000000d0: d793 18bd 7c68 8ebd 25de 93bd f24d e93c
000000e0: 5bec 933c 0ccb 153d 70d4 463d 19e3 313c
000000f0: b1af d23d 0ced 6b3c add9 f13c 598f 513d

arith.constant6 f4 [64]
0.7636346 0.8742008 0.95191085 0.9106277 1.190527 1.0228347 0.83255476 0.97787076
1.111838 0.9839409 0.94141 1.0678473 0.86141586 0.9346926 1.0360435 0.8734477
0.85547036 0.90306556 1.0108789 1.1097904 1.1938651 1.0254513 0.8854783 0.9241967
0.9309232 1.0156184 0.70948696 1.0350777 0.8920666 0.95304614 0.94621533 1.141248
0.91400754 0.99128956 0.82705426 1.2183545 1.164817 0.7526913 0.95534533 0.7407786
0.8202872 0.9441755 0.90957254 0.8058701 0.7296735 0.74906194 0.9410678 0.74049085
1.0538812 1.0412998 1.09167 0.7360114 0.8385407 1.1735094 0.96700746 0.80642575
0.7742877 0.9159122 0.8110428 0.929006 0.68055195 0.6052326 1.0102557 0.93639106
00000000: 8f7d 433f a0cb 5f3f 6eb0 733f e61e 693f
00000010: 3063 983f 3fec 823f 4f22 553f bd55 7a3f
00000020: b550 8e3f 8de3 7b3f 3f00 713f 38af 883f
00000030: c085 5c3f 0448 6f3f 139d 843f 459a 5f3f
00000040: 1b00 5b3f 4e2f 673f 7b64 813f 9d0d 8e3f
00000050: 92d0 983f fd41 833f b5ae 623f 2898 6c3f
00000060: fc50 6e3f c9ff 813f f0a0 353f 6d7d 843f
00000070: 7a5e 643f d5fa 733f 2b3b 723f 6a14 923f
00000080: 66fc 693f 27c5 7d3f d4b9 533f 0af3 9b3f
00000090: b918 953f 61b0 403f 8391 743f aba3 3d3f
000000a0: 58fe 513f 7cb5 713f bfd9 683f 814d 4e3f
000000b0: e2cb 3a3f 86c2 3f3f d2e9 703f cf90 3d3f
000000c0: 94e5 863f 5049 853f d8bb 8b3f 3e6b 3c3f
000000d0: 9aaa 563f 8e35 963f cd8d 773f eb71 4e3f
000000e0: b837 463f 3979 6a3f 80a0 4f3f 56d3 6d3f
000000f0: a738 2e3f 86f0 1a3f 0f50 813f 53b7 6f3f

arith.constant7 f4 [64]
-0.15018196 -0.38535017 -0.30233195 -0.2745805 0.014966685 -0.113818936 -0.11147321 -0.06962189
-0.115657255 -0.13507271 -0.1707008 -0.21009274 -0.28111154 -0.079733334 -0.053582992 0.0044604396
-0.13272174 -0.09011161 -0.1432514 -0.016917508 -0.056622636 -0.2205636 -0.07297872 -0.29008633
-0.27367458 -0.13938858 -0.18411577 -0.17341304 -0.23162325 -0.16994518 -0.07712615 -0.1535594
-0.16541441 -0.08514354 -0.23927188 0.026578376 -0.19805297 -0.18284017 -0.2593456 -0.15631299
-0.09253256 -0.1486972 -0.27618247 -0.06737889 -0.18406516 -0.12397836 -0.13761319 -0.15691736
0.07188217 0.120830305 -0.00051772513 -0.32468164 -0.22229722 -0.11834617 -0.11596097 -0.1000502
-0.27178562 -0.2160209 -0.33347848 -0.3121543 -0.20513706 -0.38998926 -0.09621721 0.063223206
00000000: 4dc9 19be 9e4c c5be 41cb 9abe d195 8cbe
00000010: d436 753c e719 e9bd 114c e4bd ec95 8ebd
00000020: b6dd ecbd 8050 0abe 31cc 2ebe 8d22 57be
00000030: daed 8fbe 3b4b a3bd d779 5bbd e128 923b
00000040: 35e8 07be 708c b8bd 7fb0 12be 9696 8abc
00000050: 23ed 67bd 6ddb 61be de75 95bd 3286 94be
00000060: 131f 8cbe e1bb 0ebe d888 3cbe 3093 31be
00000070: a52e 6dbe 1c06 2ebe 51f4 9dbd ad3e 1dbe
00000080: 6562 29be bc5f aebd b003 75be e5ba d93c
00000090: 66ce 4abe 743a 3bbe f2c8 84be 8310 20be
000000a0: b681 bdbd 1444 18be ca67 8dbe f2fd 89bd
000000b0: 947b 3cbe 5ee8 fdbd 79ea 0cbe f2ae 20be
000000c0: f636 933d e175 f73d f2b7 07ba ac3c a6be
000000d0: e2a1 63be 7a5f f2bd f27c edbd 1fe7 ccbd
000000e0: 7c27 8bbe 9534 5dbe b1bd aabe b0d2 9fbe
000000f0: 730f 52be acac c7be 870d c5bd 2b7b 813d

arith.constant8 f4 [64, 6]
0.11231357 0.33599958 0.057391632 0.1575356 0.06483792 0.051865723 -0.034440283 -0.08471984
-0.0142167015 -0.31824216 -0.11338608 -0.18332037 0.3388385 0.07793955 -0.23371258 0.19086668
-0.029957484 -0.060758792 -0.21223271 -0.1724691 0.11518926 0.041090667 -0.040539805 0.15240301
0.004518203 -0.1860518 0.2506259 0.27244177 0.13975988 0.05667428 -0.102739975 -0.14587878
0.04216485 0.058949124 0.17165186 0.2767654 -0.039310485 0.3508743 -0.12457952 -0.001259336
0.0726931 0.035926927 0.06690466 -0.15869832 0.03934414 -0.053515717 0.24384317 0.047079325
0.029719606 -0.08561505 0.2419547 0.02255277 -0.17524248 -0.108250625 0.29885024 -0.2626008
-0.19779897 -0.30383432 -0.13895516 0.06997887 -0.20290662 0.32097158 0.21326445 -0.036821503
-0.081632406 0.13589926 0.052556485 0.11418944 -0.019762794 -0.26610243 0.20132758 -0.11883333
-0.36990142 0.17022228 0.0017831064 0.043749228 0.024391504 0.20100014 0.25286242 -0.14768726
0.06475825 0.058783565 -0.22213234 -0.09298129 0.20109612 0.17040107 0.051444735 0.10124801
-0.01529796 0.10209663 -0.14530323 0.3249647 0.0010224917 -0.0202639 0.08863105 0.20163813
0.062464815 -0.032684207 -0.08593303 -0.24493794 -0.3129183 0.006392446 -0.35024142 -0.22947413
-0.184857 0.09295453 0.27250358 -0.28018615 0.05327088 -0.09179437 0.20205416 -0.1355068
0.06400299 -0.037259858 0.44591418 -0.18942384 0.038304735 -0.24177362 0.042234972 0.2523151
-0.06504498 0.117719695 -0.3794055 -0.003955632 0.40563524 0.1965271 0.2932459 -0.08534347
0.13449882 0.16957082 -0.27732703 0.43947902 -0.13673538 0.38451377 -0.11932517 -0.51751536
-0.4055699 0.16276672 0.0017265524 -0.00024172205 0.15586618 -0.28308162 -0.1372118 0.17909276
-0.17029995 -0.34345156 -0.08944179 0.1263007 -0.08561072 0.25971156 -0.025183884 0.10724681
0.16865282 -0.07162675 -0.2595567 0.067492746 -0.21328203 -0.027512325 -0.19089442 -0.24096881
-0.045714952 0.080717415 -0.51557106 0.22839263 -0.12563163 0.003829203 0.09138625 -0.36275247
-0.2905452 -0.04473507 -0.007993819 -0.06595291 0.10435012 -0.12790497 0.066061676 0.10962407
0.024773259 0.17921475 -0.31195027 0.041110214 -0.0646086 -0.282651 0.07316058 -0.117919706
-0.11720222 0.21245725 -0.38868678 0.14912236 0.12929486 -0.010542574 -0.10500919 -0.055029154
-0.009326022 0.21218853 0.10470792 -0.016104741 0.1918037 -0.06283908 0.057960466 0.13183694
-0.32401082 -0.15336427 0.04413726 -0.2135752 0.04485625 0.15405233 0.038907062 0.11720493
-0.064549945 0.07720958 -0.255008 -0.14988577 -0.0884448 -0.18578078 -0.15514077 -0.019031681
0.21512242 0.072497874 -0.10520156 -0.34649616 -0.38699904 0.22831894 0.16678429 -0.12576099
0.0069048624 0.058414277 0.123576425 0.0657868 -0.17169097 -0.17073064 -0.19310907 0.19554672
-0.09495712 -0.16570808 0.026524212 -0.26693916 -0.09074068 -0.14342156 -0.33539307 -0.16895385
0.28030884 0.078680046 -0.32391587 -0.16670002 -0.1097599 -0.45042673 -0.19775255 0.2287577
0.049948502 0.16360709 -0.07319601 0.016775057 -0.018028408 -0.34352645 0.015386749 -0.059505742
00000000: a804 e63d 2308 ac3e 7d13 6b3d 0351 213e
00000010: bec9 843d 2771 543d 4111 0dbd 9881 adbd
00000020: 2bed 68bc a3f0 a2be f636 e8bd 56b8 3bbe
00000030: 3d7c ad3e c59e 9f3d 5a52 6fbe 8e72 433e
00000040: 6669 f5bc 36de 78bd 8853 59be bd9b 30be
00000050: 59e8 eb3d b04e 283d 110d 26bd 890f 1c3e
00000060: 6f0d 943b 5d84 3ebe 0a52 803e 7d7d 8b3e
00000070: 371d 0f3e 4a23 683d 5669 d2bd 3f61 15be
00000080: 0db5 2c3d a374 713d 81c5 2f3e 32b4 8d3e
00000090: 0804 21bd cca5 b33e 8c23 ffbd 4e10 a5ba
000000a0: 1fe0 943d 1d28 133d 4f05 893d d081 22be
000000b0: 5227 213d 4c33 5bbd 06b2 793e 40d6 403d
000000c0: 8876 f33c f156 afbd f9c2 773e 96c0 b83c
000000d0: c472 33be 81b2 ddbd e602 993e 9d73 86be
000000e0: d08b 4abe 2c90 9bbe 434a 0ebe 1551 8f3d
000000f0: c1c6 4fbe 6356 a43e ff61 5a3e 25d2 16bd
00000100: e42e a7bd 2d29 0b3e 7845 573d 27dc e93d
00000110: 95e5 a1bc 943e 88be d128 4e3e e45e f3bd
00000120: b863 bdbe c04e 2e3e 1fb7 e93a 6432 333d
00000130: b1d0 c73c fbd2 4d3e 2f77 813e 543b 17be
00000140: f99f 843d 09c7 703d a976 63be f96c bebd
00000150: 24ec 4d3e 9e7d 2e3e b7b7 523d 1e5b cf3d
00000160: 4ba4 7abc 0a18 d13d 5fca 14be c661 a63e
00000170: 2105 863a 7a00 a6bc 3284 b53d 3a7a 4e3e
00000180: 1bdb 7f3d e0df 05bd a8fd afbd 03d1 7abe
00000190: d436 a0be b977 d13b d852 b3be 44fb 6abe
000001a0: 274b 3dbe f25e be3d 9785 8b3e 8f74 8fbe
000001b0: 9132 5a3d b0fe bbbd 49e7 4e3e 4bc2 0abe
000001c0: 0014 833d cb9d 18bd dd4e e43e 53f8 41be
000001d0: 6de5 1c3d 8193 77be 94fe 2c3d 722f 813e
000001e0: 4d36 85bd 0617 f13d 7041 c2be 3f9e 81bb
000001f0: 6caf cf3e 663e 493e 5424 963e 8fc8 aebd
00000200: 0fba 093e f9a3 2d3e cffd 8dbe 6503 e13e
00000210: 5c04 0cbe fdde c43e c160 f4bd e37b 04bf
00000220: dca6 cfbe 52ac 263e 7c4d e23a c576 7db9
00000230: 629b 1f3e 13f0 90be 4081 0cbe 1864 373e
00000240: 1c63 2ebe e2d8 afbe 422d b7bd f854 013e
00000250: ac54 afbd eaf8 843e 6f4e cebc 37a4 db3d
00000260: 53b3 2c3e 0cb1 92bd 9ee4 84be a339 8a3d
00000270: 9b66 5abe 8761 e1bc d479 43be 87c0 76be
00000280: 9a3f 3bbd 2c4f a53d 77fc 03bf c2df 693e
00000290: 94a5 00be 5ef3 7a3b b728 bb3d b1ba b9be
000002a0: 57c2 94be 1f3c 37bd 82f8 02bc 5212 87bd
000002b0: 84b5 d53d 85f9 02be 584b 873d 9682 e03d
000002c0: 4af1 ca3c 1284 373e f2b7 9fbe 2f63 283d
000002d0: 8451 84bd a2b7 90be 37d5 953d e37f f1bd
000002e0: b807 f0bd 658e 593e f401 c7be 88b3 183e
000002f0: df65 043e c3ba 2cbc 0f0f d7bd 4066 61bd
00000300: 2ccc 18bc f347 593e 1b71 d63d 17ee 83bc
00000310: 3068 443e c7b1 80bd f467 6d3d 4300 073e
00000320: bfe4 a5be 860b 1dbe 46c9 343d 75b3 5abe
00000330: 30bb 373d e5bf 1d3e 035d 1f3d 2309 f03d
00000340: c332 84bd 0e20 9e3d 6990 82be a87b 19be
00000350: 8c22 b5bd 513d 3ebe 39dd 1ebe 54e8 9bbc
00000360: 0d49 5c3e c479 943d ea73 d7bd f267 b1be
00000370: bd24 c6be 71cc 693e 80c9 2a3e 7dc7 00be
00000380: 2f42 e23b cf43 6f3d a315 fd3d 3bbb 863d
00000390: c2cf 2fbe 03d4 2ebe 62be 45be 663d 483e
000003a0: e178 c2bd 61af 29be 4e49 d93c 40ac 88be
000003b0: 40d6 b9bd 1add 12be a4b8 abbe 3d02 2dbe
000003c0: a484 8f3e 0123 a13d 4dd8 a5be 69b3 2abe
000003d0: ccc9 e0bd 559e e6be a57f 4abe 753f 6a3e
000003e0: cd96 4c3d 9e88 273e cae7 95bd d86b 893c
000003f0: 50b0 93bc b3e2 afbe b418 7c3c 4bbc 73bd

arith.constant9 f4 [64, 6]
0.094553255 -0.2343963 0.21037512 0.05957743 0.15446126 -0.3350817 -0.21834251 -0.23270456
0.043844078 -0.19799832 -0.056815535 -0.068732284 -0.07019164 0.1861445 -0.021695303 -0.4316974
-0.28220338 -0.19481725 -0.038367704 0.3038368 -0.17601188 -0.020395363 0.15718816 0.1590576
0.0038155187 0.29508474 -0.28308058 -0.06493345 -0.12777683 0.14388083 -0.09990468 -0.5208843
0.11038735 -0.014102966 -0.113939 0.14294088 -0.02888873 -0.3656145 -0.12160314 0.30840427
0.06262015 -0.24154359 0.17186803 0.50336975 0.041274656 -0.32503587 -0.040726837 0.118489705
0.13065185 0.26472825 0.07879511 -0.080710344 -0.21482782 0.007089339 -0.0026746534 0.18617785
0.14982605 -0.24377017 0.06664835 0.59102976 0.09675731 -0.027512787 0.10672693 0.022542419
-0.095875755 0.024604209 -0.09722406 -0.5501365 0.18852313 0.21565995 0.027920766 -0.28252453
-0.07212349 0.10304138 -0.07482084 0.18129866 0.35026518 0.15955953 -0.0927727 -0.14816716
0.0751831 0.35074782 0.0057756733 0.42809138 -0.028366907 0.23527469 -0.39056244 0.030506702
-0.13023528 0.031247782 -0.20417885 -0.18411404 -0.10910162 -0.31911507 -0.17963879 0.0069713444
0.10077754 0.11449491 0.05181941 0.44028008 -0.07965298 -0.43085247 0.10174559 -0.34908193
0.24799527 0.19560215 -0.20901386 -0.47224262 0.13891904 0.3982738 0.020912074 -0.23007596
-0.1432607 0.20342216 0.18341473 -0.09937011 0.5319284 -0.33176947 -0.32110998 -0.08023031
0.16244937 0.17527695 0.19864401 0.21068849 0.101671785 0.23361947 0.037282914 -0.13382624
0.42094633 0.22096457 -0.10889557 0.042259082 0.09772294 0.54314154 0.051800687 0.15006407
0.07052713 -0.547973 0.11871201 0.18015079 -0.0298141 0.35446143 0.19907117 0.19737795
-0.067157894 -0.07447961 -0.29368454 0.02266159 0.20176469 0.22040622 0.18538645 0.122987844
-0.023501232 0.14970814 0.13083087 0.059499018 -0.041184325 0.2575016 -0.13932149 -0.059720144
0.077406056 -0.59341455 -0.06651413 0.37111947 -0.11348968 0.24247865 0.3929836 -0.11207386
-0.10744661 -0.17159761 -0.023877366 0.040755305 0.19234195 -0.22499214 -0.03299679 -0.37044373
0.05595342 0.12958033 0.02070031 0.16113935 -0.031490255 -0.038887434 0.114491574 -0.122022934
-0.4576926 0.08823065 -0.0944877 0.58679855 -0.09726806 -0.05745289 0.20233288 0.052744597
0.15692843 0.24594979 0.042515025 -0.34111544 0.21812531 0.07572747 -0.12473315 0.01945712
-0.12225457 0.33069536 0.22280285 -0.41104892 0.104761936 0.44358936 -0.14764316 -0.5403632
-0.038970225 -0.09589444 0.13851821 0.4528523 0.13922323 0.17291911 -0.23291934 -0.118080966
-0.06383826 0.25834703 0.049414054 -0.6006354 -0.52620405 0.20895857 -0.11285776 -0.23303564
0.16471645 0.03623696 -0.0357367 0.044981666 -0.18106492 -0.21822958 0.1280612 -0.34492898
-0.14153236 0.092439 -0.048055176 -0.2944195 0.09161165 -0.33670968 -0.052199714 0.2200945
-0.030032067 0.08902372 0.045508493 0.28700417 -0.09689223 -0.7109999 -0.15836854 -0.25488603
0.19334729 -0.055217266 0.12671849 0.2794379 0.031719405 0.019477729 -0.34065214 -0.14734639
00000000: 23a5 c13d 9505 70be 936c 573e 7707 743d
00000010: 182b 1e3e d48f abbe 2e95 5fbe 1b4a 6ebe
00000020: d995 333d 12c0 4abe 68b7 68bd 83c3 8cbd
00000030: a2c0 8fbd aa9c 3e3e 59ba b1bc 7107 ddbe
00000040: f67c 90be 2c7e 47be 7427 1dbd 7f90 9b3e
00000050: 753c 34be 2d14 a7bc eff5 203e ffdf 223e
00000060: c80d 7a3b 5915 973e f0ef 90be d4fb 84bd
00000070: eed7 02be 7f55 133e d39a ccbd ac58 05bf
00000080: c312 e23d 2010 67bc da58 e9bd 185f 123e
00000090: 0fa8 ecbc d331 bbbe 110b f9bd 2ae7 9d3e
000000a0: fe3e 803d 3457 77be 2cfe 2f3e d7dc 003f
000000b0: 9d0f 293d 1a6b a6be 2fd1 26bd bbaa f23d
000000c0: 99c9 053e 768a 873e 555f a13d 774b a5bd
000000d0: d3fb 5bbe b04d e83b 3d49 2fbb 68a5 3e3e
000000e0: 006c 193e e39e 79be ee7e 883d ba4d 173f
000000f0: b228 c63d 7f62 e1bc a693 da3d e1aa b83c
00000100: 825a c4bd c48e c93c 681d c7bd bfd5 0cbf
00000110: 350c 413e f6d5 5c3e 17ba e43c 0ea7 90be
00000120: 7bb5 93bd 5c07 d33d ab3b 99bd 5ba6 393e
00000130: f555 b33e 9363 233e 9dff bdbd 22b9 17be
00000140: 99f9 993d 3895 b33e dc41 bd3b cb2e db3e
00000150: b761 e8bc d9eb 703e cdf7 c7be 31e9 f93c
00000160: 665c 05be 59fb ff3c 4314 51be 6488 3cbe
00000170: ac70 dfbd 0d63 a3be 3bf3 37be e06f e43b
00000180: 7464 ce3d 4f7c ea3d 9740 543d 646c e13e
00000190: 1a21 a3bd b298 dcbe fe5f d03d deba b2be
000001a0: 79f2 7d3e ee4b 483e bb07 56be c9c9 f1be
000001b0: cb40 0e3e 8bea cb3e cc4f ab3c 0899 6bbe
000001c0: efb2 12be e64d 503e 12d1 3b3e 8e82 cbbd
000001d0: 762c 083f b0dd a9be 8768 a4be ca4f a4bd
000001e0: 2159 263e cd7b 333e 5669 4b3e b9be 573e
000001f0: 4c39 d03d f139 6f3e f8b5 183d bf09 09be
00000200: 4786 d73e 8944 623e a404 dfbd dc17 2d3d
00000210: f722 c83d 530b 0b3f f52c 543d 65aa 193e
00000220: 8770 903d f547 0cbf 481f f33d 7379 383e
00000230: b33c f4bc f87b b53e 50d9 4b3e 721d 4a3e
00000240: 148a 89bd c488 98bd d25d 96be cca4 b93c
00000250: 679b 4e3e 2bb2 613e f2d5 3d3e 0de1 fb3d
00000260: a885 c0bc 174d 193e 87f8 053e 3eb5 733d
00000270: e5b0 28bd 40d7 833e 4baa 0ebe 1c9d 74bd
00000280: 1187 9e3d 04ea 17bf 8f38 88bd 5f03 be3e
00000290: 476d e8bd 534c 783e 2535 c93e fb86 e5bd
000002a0: f80c dcbd 49b7 2fbe 779a c3bc 09ef 263d
000002b0: 4af5 443e 5764 66be a427 07bd cdaa bdbe
000002c0: 6a2f 653d b5b0 043e b293 a93c b701 253e
000002d0: edfb 00bd 6e48 1fbd 8f7a ea3d 29e7 f9bd
000002e0: af56 eabe 45b2 b43d c482 c1bd 6e38 163f
000002f0: 7a34 c7bd b953 6bbd 5a30 4f3e b80a 583d
00000300: d9b1 203e 43da 7b3e 3c24 2e3d afa6 aebe
00000310: 3e5c 5f3e 0117 9b3d 1874 ffbd 8a64 9f3c
00000320: 9b60 fabd e750 a93e 6e26 643e 0175 d2be
00000330: 6d8d d63d 251e e33e c52f 17be 3e55 0abf
00000340: 3e9f 1fbd 4e64 c4bd b8d7 0d3e 42dc e73e
00000350: 8990 0e3e b511 313e 6882 6ebe 6fd4 f1bd
00000360: a2bd 82bd 1046 843e 6466 4a3d 3ec3 19bf
00000370: 4fb5 06bf 3cf9 553e f821 e7bd e5a0 6ebe
00000380: 6eab 283e 356d 143d a560 12bd b23e 383d
00000390: 1569 39be 9377 5fbe 7a22 033e 889a b0be
000003a0: dced 10be a950 bd3d 81d5 44bd 27be 96be
000003b0: e49e bb3d 3665 acbe 5ecf 55bd 7460 613e
000003c0: cf05 f6bc 1152 b63d 1d67 3a3d 36f2 923e
000003d0: 6f6f c6bd 1704 36bf 5d2b 22be 6c80 82be
000003e0: d5fc 453e 802b 62bd 7ec2 013e 7c12 8f3e
000003f0: 35ec 013d c28f 9f3c f569 aebe f9e1 16be
