app/src/main/assets/respeck_lstm_essential5_64_n_9632.tflite (tflite, 186928 bytes, 30 tensors)

sequential/normalization/truediv;sequential/normalization/Sqrt f4 [1, 1, 6]
00000000: ae3a 1240 e5ab fd3f 4fc7 fa3f a48a 9c3d
00000010: 5daf 8a3d a6f4 ec3d
2.2848315 1.9818083 1.9592074 0.07643631 0.06771729 0.115701005

Const_1 f4 [1, 1, 6]
00000000: 30f7 02bd 16c7 20bf 87ea 3e3d 4187 413e
00000010: 4b90 ac3d 33d3 14bd
-0.031974018 -0.6280378 0.04661038 0.18899252 0.08425959 -0.036334228

sequential/dense/BiasAdd/ReadVariableOp f4 [64]
00000000: 83f0 823e 85a1 5e3d c950 243e 53f2 c13c
00000010: a4e5 fe3d c523 073e a35e 173e 7646 9cbd
00000020: f683 913b 3606 7dbd 0161 203d 90b7 0e3e
00000030: 65f5 103d 7725 333e 2d1f 91bd 90c4 c1bd
00000040: 1997 613d 4f5d 963d 6970 12bd 9a14 043d
00000050: 12d2 ac3d c4a6 dcbd da02 053e b8e0 643d
00000060: e91f 85bd cac9 503e 12f5 c7bd db1b c83d
00000070: bc6d ec3d 188a dd3d c099 213e 1c3e 923d
00000080: 3897 2b3d bf1a 903d 0c4a 2b3c 96d6 1fbc
00000090: c728 753e c6d5 3c3d b7e3 513d 28f1 303e
000000a0: 1138 92bd 69d3 74bd 0df1 b43d aa00 afbd
000000b0: f5d2 7e3d 9b3a 843d 61b8 273d 41f0 0a3e
000000c0: 1d55 ce3d 1488 0fbc b6f4 ec3d 09f2 eb3d
000000d0: 05c0 263d 78af 743c c70a 94bc bcf0 abbc
000000e0: e2ea d33d 57f1 44bd b80a 4dbd 616f a8bd
000000f0: 06bb a93d 7ffd f33d c18e 1dbd f371 9c3d
0.2557412 0.054353256 0.16046442 0.02367512 0.12446144 0.13197239 0.14782195 -0.07630627
0.00444078 -0.0617735 0.03915501 0.13937211 0.035390276 0.1749476 -0.070860244 -0.094613194
0.05507574 0.07342016 -0.035751734 0.03224621 0.08438505 -0.107739955 0.12989369 0.05587837
-0.06500227 0.20389476 -0.0976354 0.09770938 0.11544368 0.10817355 0.15781307 0.07140753
0.04189226 0.070363514 0.010454666 -0.009755751 0.23941337 0.046102308 0.051242556 0.17279494
-0.071396 -0.05977193 0.08835039 -0.085450485 0.062212903 0.064564906 0.04094732 0.13568212
0.10074828 -0.008760471 0.115701124 0.11520774 0.040710468 0.014934413 -0.018071545 -0.020988815
0.10347535 -0.048081722 -0.05005905 -0.08224369 0.08287625 0.11913585 -0.03846622 0.076389216

sequential/dense_1/BiasAdd/ReadVariableOp f4 [5]
00000000: 7e10 bdbc f51f dabd 90ba 163b 9246 803d
00000010: dffe a0bd
-0.023079153 -0.106506266 0.0022999384 0.0626346 -0.07861113

arith.constant f4 [64, 64]
00000000: f715 843d f8e4 ad3d 2398 c4bd 7654 283d
00000010: 3f9b 873d 8d92 2b3d 5c62 e7bc d417 403d
00000020: 2443 133e 5f35 b2bc 50b9 bdbc ac66 2d3d
00000030: 2a75 9d3c a893 753d 44a9 1dbd 72e0 40bd
00000040: c40a 34be 6a22 9d3c ce77 f03d aa69 27bc
00000050: f799 c9bd 9bba 96bd 4732 61bc 0bb7 6f3d
00000060: 759f b73d 3b15 d1bd b373 d73b f32e 91bb
00000070: 316b 74bd 3388 23bd 4476 a0bd 1558 b2be
00000080: 6d83 343e cf7f 4ebd 4d93 18be e985 643e
00000090: 5f82 ac3d b233 913c e12a 3cbd 1891 ce3d
000000a0: 7a64 cd3d 3001 b43c 6a32 f63d e3f9 a9bd
000000b0: e3ac 80bd 66bf 0c3e 650c 96bd 23ee 59be
000000c0: a306 56be 95d7 843d 9fbc 903c 63d9 16be
000000d0: 4038 6e3d 0b8d 293d c413 743d 2619 02be
000000e0: a391 913d f72e 3cbc c609 3f3d e1c6 4a3d
000000f0: 00d4 a7bc a1c3 acbd 6507 8e3d 84df fd3d
00000100: ef59 ddbd ca8f 4a3e cefc 353d 4d4c 053e
00000110: ad22 09be 67a6 6a3d cb1b b93c 2c79 ef3d
00000120: 018b 3e3e c40d f53d e6c6 4fbe 3583 f1bd
00000130: b86d ae3c 67ab b7bc 96aa 9fbd 7fed 44bd
00000140: 7837 b7bd 19e9 be3b 9708 78bd 35e8 e9ba
00000150: 1fd2 493e 7f68 6f3e 6a2d cabd 064e c53d
00000160: 2f8a 0f3e f13d 0dbe 4811 b83c 401b cfbc
00000170: 506e 83bd 21ae 9bbd ba51 15bd 5924 a03d
00000180: 8779 24be e8e3 b53d 42e6 7cbd 95af b0bd
00000190: 8d32 d73d 06ce 0abe 237b 44bc 2874 b23d
000001a0: a76e 8d3d d02e 613d d86a 933e 1e8c 033e
000001b0: 06cc b13c f6d3 40be f5d7 e93d 4eab 333c
000001c0: 7e59 c3bd d5d3 2b3d 3779 863d 16c7 41bd
000001d0: f323 433e 0b52 bebd 39ed 783d 7e36 c3bc
000001e0: 241a d43d f86b 1abe fae6 eabc 94b6 853c
000001f0: c6ce 113d e873 d43d 6c72 91bd 2546 53bd
00000200: 68a7 39bb aeae 983e a465 b7bc 7cfe d6bc
00000210: 84cf b0bd aab8 d1bd 18f7 6fbd ce2a 27bd
00000220: f0bb 4ebe 5286 eb3d 2bd4 48be 923a f7bd
00000230: a684 92be 31e5 db3d 72f9 9a3d d736 de3c
00000240: 4bd0 2d3e defc 1abd fb38 9d3d 2ec1 303d
00000250: 4a13 903b 47cd 17be f51b 56bd f64c d0bc
00000260: 075a 4b3e b796 0dbe a500 873d c8a3 3abd
00000270: 1e4c 25be 5346 a93d 44c7 953d fe8c 203d
00000280: d469 3dbd 5b08 873d 34e5 8d3d 0274 f0bb
00000290: 918d a4bd c48e 93bd d15d 8c3b 13eb e83c
000002a0: 899a a23d 8abd f73b 2a6a c8bd 2b86 f3bd
000002b0: a8d2 adbd 2705 99bb 3dfb 2c3d 1ed1 843c
000002c0: 05b6 463d a48f 903d 0bf1 b2bd c9d6 eabc
000002d0: 228c ed3d 5e0a 4f3d 5b7e 1c3d 2501 09be
000002e0: 62a1 49bd 80e4 ad3e f9c6 ce3d 1a0f 933d
000002f0: eff4 cd3c 129e cbbd 88ec 2ebd dfc5 603d
00000300: 00db 93bd 640b d13d f8e7 673c ab31 f03d
00000310: c31f 81be 1af1 6fbd d778 83bd 148e 283e
00000320: c3aa 95bc f7e2 bd3c 9674 cbbc c02b e2bd
00000330: 5104 f8bd 2b08 06be b517 223d 10d2 c03d
00000340: da26 03be 8c8b 823d 0115 383d 6d17 eabc
00000350: 9140 8a3d e402 54bc b272 f2bd 5107 c8bd
00000360: 19df b5bd 1279 57bd cf9d 473d 1459 91bd
00000370: 7314 553e 6368 0e3d 6d4b c9bd aec9 663d
00000380: 55a6 1b3e 8489 10bb 0798 e33d aba6 9dbd
00000390: f37d 0ebd 1ee5 30bd 4fad 00be 068b de3d
000003a0: e8a1 f73d 78b5 e13c be0e 943c e73c d4bd
000003b0: 569a 82bd c5da 5f3d ff0b 313e b2ff 0e3e
000003c0: 5813 ac3c 589e c8bd 2979 8a3d bd15 903d
000003d0: 9e25 a9bd c588 223d 6518 edbd ad09 e0bc
000003e0: 3ef9 a13d 22f8 2b3e 5cd9 0e3e 6fe3 623d
000003f0: 9c6f 703c ccb1 07bc db99 9e39 a188 f3bc
0.06449502 0.08490938 -0.0959933 0.041096173 0.06621408 0.04188781 -0.028245144 0.046897724
0.14381081 -0.021753965 -0.023159653 0.042334244 0.019220907 0.05995527 -0.038491502 -0.047089048
-0.17582232 0.019181449 0.11741601 -0.010218063 -0.098438196 -0.07359811 -0.013744897 0.058524173
0.08965961 -0.102091275 0.0065750717 -0.0044306456 -0.05967254 -0.03992481 -0.078350574 -0.34832826
0.1762826 -0.050414857 -0.14899941 0.22316708 0.08423304 0.017724846 -0.04593933 0.10086268
0.1002893 0.021973222 0.120213345 -0.08299615 -0.062829755 0.13744888 -0.07326583 -0.21282248
-0.20900969 0.064864315 0.017668067 -0.14731364 0.058159113 0.041394275 0.059589162 -0.12704906
0.07107856 -0.011485807 0.04664018 0.049506072 -0.020486832 -0.08435751 0.06935004 0.12396148
-0.10808169 0.19781414 0.044430546 0.13017388 -0.13392134 0.0572876 0.02259626 0.116930336
0.18607713 0.11965516 -0.20290717 -0.11792604 0.021292552 -0.022420598 -0.077962086 -0.048078056
-0.08946127 0.0058261272 -0.060555067 -0.0017845692 0.19709061 0.23379706 -0.09871943 0.096340224
0.14017557 -0.1379316 0.022469178 -0.025281549 -0.06417525 -0.07601572 -0.036454894 0.07819433
-0.16061984 0.0888136 -0.06174303 -0.086272396 0.10507689 -0.13555154 -0.011992249 0.08713561
0.06905871 0.054976285 0.28792453 0.12846419 0.021703731 -0.18830857 0.11418144 0.010966135
-0.09538554 0.041950066 0.06566089 -0.047309004 0.19056682 -0.09292992 0.06077311 -0.023829695
0.103565484 -0.1508025 -0.028674591 0.016322412 0.035597585 0.1037367 -0.07101902 -0.051580567
-0.0028328542 0.2982077 -0.022387333 -0.026244394 -0.086333305 -0.102403 -0.058585256 -0.040812306
-0.2018888 0.11500229 -0.19612186 -0.12071718 -0.28616828 0.10737074 0.07567109 0.027125759
0.16973989 -0.03783881 0.07676884 0.04315298 0.0043968307 -0.14824401 -0.052272756 -0.025427323
0.19858561 -0.13827024 0.0659192 -0.04556635 -0.16142318 0.082653664 0.073133975 0.03919696
-0.046243504 0.065933906 0.06928483 -0.007338048 -0.08034814 -0.07204965 0.0042836447 0.028432405
0.079396315 0.0075604366 -0.09785874 -0.11890825 -0.08487445 -0.0046698037 0.042231787 0.016212996
0.04851343 0.07058647 -0.087373815 -0.02866687 0.11598994 0.050546996 0.03820644 -0.13379343
-0.049226172 0.33963394 0.10096545 0.07180615 0.025141208 -0.09942259 -0.042706043 0.054876205
-0.07219505 0.10207251 0.014154427 0.117282234 -0.25219545 -0.05857954 -0.06419533 0.16460449
-0.018269902 0.023179514 -0.024835866 -0.11043501 -0.12110198 -0.13089053 0.03957339 0.09415066
-0.1280779 0.06374273 0.044941906 -0.028575623 0.06750596 -0.012940142 -0.11838283 -0.097670205
-0.08880443 -0.052605696 0.048734482 -0.070970684 0.20808582 0.03476752 -0.098288395 0.05634468
0.1520017 -0.0022054622 0.11112981 -0.07697805 -0.034788083 -0.043187253 -0.12566112 0.1086636
0.12091428 0.027552351 0.018073436 -0.10363179 -0.063770935 0.054651994 0.17289732 0.13964728
0.021005318 -0.09795827 0.06761391 0.07035396 -0.08259128 0.039681215 -0.115769185 -0.027348364
0.07908867 0.16793874 0.13950104 0.05539268 0.014675047 -0.008282136 0.0003025074 -0.029728236

arith.constant1 f4 [64, 64]
00000000: 7839 9bbc cd68 cf3c 6a18 863d a03d 633d
00000010: a4cc ffbb 842f 4abd a174 d2bb 88cf 61be
00000020: ca10 d8bd 617b 9dbd 390e 923d e7ea 08bc
00000030: a02d b63d bb4e 85be f476 963d 81cb a43d
00000040: 777e 143e 8b0d cfbc 1818 403b e8bb 57bd
00000050: e453 71bd 9864 0ebd 4fd2 043d f898 003d
00000060: 3d17 293e 7f3d 4b3b 6ccd 19be b501 2e3d
00000070: 5cb7 7e3d fff5 54bd e402 51bc e26a 083e
00000080: fed0 3dbd 5683 143c 83ee 7e3c 0dbb 0abe
00000090: 3f24 a8bd 1efe c93d 5522 f23d 25c0 f43c
000000a0: 3eb2 003e 860c c13b b615 b03d 4f9e 363e
000000b0: 5bec 5e3d dc93 9e3c 982c ff3b cd77 b1bc
000000c0: 7a2e 043e b69d 133e 923c 5dbd 6a67 a2bd
000000d0: 3339 a8bd ae43 aebc 8798 003d 3eec dc3d
000000e0: cd19 f9bc 1431 1fbc 08e9 19bd 4e88 963d
000000f0: db26 903d 5ef2 b2bd d3f6 0c3d 72b6 3d3c
00000100: 20bc 193d c80a 9abc a90e 39be e1b9 8dbc
00000110: a5b4 0f3c cfcb 5fbd ed53 39be a597 6c3d
00000120: 575f ee3c 7fc1 923d c3b7 0fbe ebf4 79bd
00000130: a77b b43c d8df febc d0dc c8bc 9772 16be
00000140: 5464 40be 7dfa 1c3e f413 90ba d6fc 87bd
00000150: 3042 413e ae4b 55bd 9151 9a3d 1174 0b3a
00000160: 9204 7f3d da35 b8bd 5104 ce3d b003 093c
00000170: dbc1 a5bd f925 91bc 9f6e edbd 01c5 d8bd
00000180: c1ea 753d f586 0e3d dbcd 893d 3a08 e2bb
00000190: 7a80 993c 146c d3bd 7f59 b0bc d07e 833d
000001a0: 5030 bbbd 66c4 9c3d ab53 35bd 479f a23c
000001b0: 790c b83c dd42 e2bc 0859 0f3d 5944 97bd
000001c0: 0f0a 2cbe 8fc7 1fbe 7336 b1bc 0189 473b
000001d0: bbfe 88bc 87fc bebd 8344 aebd 54d2 e3bd
000001e0: 55f5 d1bc f5e0 e2bd bdaa aabc e0b2 b93d
000001f0: de57 d4bd 374d 88bd ea5f b6bd 535e f2bb
00000200: 98d4 203e 5cec 033d 22bf 87bc 14a8 21bd
00000210: 6304 d6bd 20d8 1dbd 53a1 b13d c902 1dbd
00000220: 752a a5bc 0d1b 833b 7bf8 353b 4211 4ebd
00000230: bd43 f73d 4d33 c2bd 869c edbb 1b37 b7bc
00000240: 7b3a afbd 74b5 583c 81e8 083d 2f4d 5dbc
00000250: 2dd5 9abd 5d24 8a3d 3134 2b3d c7ab 6bbd
00000260: 079e 423d db74 0abe e8f8 5dbd 1b41 47bc
00000270: dc48 d53d e08b 57be fdde 0a3e 569b 6e3e
00000280: 16d5 1abb 461d e7bc c0e7 1fbd 34ba 9e3c
00000290: 92fb da3d 88e8 2fbc 6539 1c3e 6125 82bd
000002a0: 9574 6dbc ea78 ae3d 1729 753c 6d59 183e
000002b0: dcf4 f73c 1c91 1d3d 2a6d fe3d b9c1 4e3d
000002c0: 5690 1a3e 0c8a 15be 6511 59bd 30cc 59be
000002d0: b88a 813d a50d 623d 8a9c dbbd 1fe5 cf3d
000002e0: 97da 83bc 9c87 a6bc b097 63be 4fee f6bc
000002f0: cee3 77bd 1eea fd3d 8eac ba39 c793 3abe
00000300: 151a 97bd cd17 ac3d 046a 8c3d 5808 043d
00000310: 9d75 85bd fc85 4e3d 58b2 23be 9e50 e03c
00000320: f733 543d c25e c23c 1944 21be 403d 17bd
00000330: 36af 8c3d edd5 3cbd 86ea 8b3d e9af a83d
00000340: 066f 623d cc40 a23d a580 24bd 2c44 33bc
00000350: 4bf3 0dbd 480d 47be 7318 6fbd ee39 873c
00000360: 2d86 81bc 8a6f 49bd f6de 073d 58fc adbd
00000370: 1f2e 2d3d 89b5 3bbe 7005 133d 0469 17bd
00000380: 011f eb3d 715c adbd 412e c9bc 4804 7abd
00000390: 6bee a73d b051 6d3d 84e9 033d 9cd8 463d
000003a0: 947f 7d3c 9b2c dcbd 6747 a73d 1d14 6fbd
000003b0: 6db8 a83d 4f19 cd3d a33b 1e3e d469 2bbd
000003c0: 27bc d3bc 079b 62bd 9172 cfbd 6cd6 4cbd
000003d0: 3848 f9bc 8562 343c 26e4 c1bd d07a d7bd
000003e0: 130b 9b3b 1a53 1ebc 1e6c 39bd 4e4a 3dbc
000003f0: b945 73bd 22fc 71bd 0d97 803d e5a1 3ebc
-0.018948302 0.025318528 0.06547625 0.055478692 -0.0078063775 -0.04936172 -0.0064225947 -0.22051823
-0.10550077 -0.07689548 0.07131619 -0.008356786 0.08895421 -0.2603663 0.07346907 0.08046628
0.14501368 -0.025275012 0.0029311236 -0.052669436 -0.058917895 -0.034763902 0.03242713 0.031395882
0.16512771 0.0031011996 -0.15019768 0.042482097 0.062186584 -0.051992413 -0.012757037 0.13322023
-0.04634189 0.009064516 0.015559795 -0.13547917 -0.082100384 0.09862922 0.118229546 0.029876778
0.12567994 0.0058913855 0.08597891 0.17833827 0.054424625 0.019357614 0.0077872984 -0.02166357
0.12908354 0.1441563 -0.054012842 -0.07929881 -0.08214035 -0.021272507 0.03139546 0.10787247
-0.03040781 -0.009716291 -0.03757575 0.07350217 0.07038661 -0.08737634 0.034415077 0.011579143
0.037532926 -0.018803969 -0.18071999 -0.017300548 0.008771096 -0.054637726 -0.18098421 0.057761807
0.029098196 0.07165813 -0.14034943 -0.061024588 0.022031618 -0.031112596 -0.024519354 -0.1469215
-0.18788272 0.15329929 -0.0010992275 -0.066400215 0.18872905 -0.052074127 0.07535089 0.00053197244
0.062260218 -0.08994646 0.10059417 0.008362696 -0.080936156 -0.017718302 -0.11593365 -0.105844505
0.060038332 0.034796674 0.06728717 -0.0068979533 0.01873802 -0.10323349 -0.02152705 0.06420672
-0.09140074 0.076546475 -0.044269245 0.01985134 0.022466885 -0.027619774 0.034997016 -0.07386083
-0.16800712 -0.1560347 -0.021632409 0.003044665 -0.016723027 -0.093255095 -0.08509161 -0.11124101
-0.025629679 -0.110780634 -0.020833367 0.09067321 -0.10368322 -0.066553526 -0.08905013 -0.007396498
0.15706098 0.03220783 -0.016570631 -0.039466932 -0.104500555 -0.03853619 0.08673348 -0.038332734
-0.020161847 0.0040010274 0.0027766514 -0.050309427 0.12073467 -0.09482441 -0.007251325 -0.022365144
-0.08556076 0.013226856 0.033424858 -0.0135071715 -0.07560191 0.06745217 0.04179782 -0.057536867
0.047513988 -0.1352114 -0.054192454 -0.012161518 0.104142874 -0.21049452 0.13561626 0.23301443
-0.0023625544 -0.0282122 -0.039039373 0.019375898 0.106925145 -0.010736592 0.1525627 -0.06354786
-0.014493127 0.08519156 0.01496341 0.14877863 0.030268125 0.038468465 0.12423165 0.050477717
0.15094122 -0.14603442 -0.052995104 -0.21269298 0.063252866 0.055188794 -0.10723217 0.10151123
-0.016095443 -0.020328335 -0.22225833 -0.030142931 -0.060519986 0.1239817 0.00035605248 -0.18220435
-0.07378022 0.08402977 0.068561584 0.03223452 -0.065165736 0.050420746 -0.15986001 0.027382191
0.05180737 0.023726825 -0.15748633 -0.036923647 0.06869356 -0.046102453 0.06831841 0.08236677
0.05528166 0.07922515 -0.040161747 -0.010941546 -0.03465585 -0.1943866 -0.058372926 0.016507115
-0.01581105 -0.049178638 0.033171616 -0.084953964 0.042280313 -0.18330969 0.035893857 -0.036965385
0.11480523 -0.084648974 -0.024558188 -0.06103924 0.081997715 0.05793923 0.03220512 0.04854642
0.0154723115 -0.10750695 0.08167916 -0.05836879 0.082383014 0.10014593 0.15452437 -0.041848972
-0.025846554 -0.055323627 -0.10129274 -0.050009176 -0.030429944 0.011009817 -0.09467344 -0.105214715
0.0047315448 -0.009663368 -0.045269124 -0.01155336 -0.059392665 -0.059078343 0.06278811 -0.011635278

arith.constant2 f4 [64, 64]
00000000: 58d7 09be 16ca fcbc 34ff 48be df4a adbd
00000010: 8db0 0d3d 93d4 99bb 3a8e d1bd 3d28 313e
00000020: df2c 483e 8b94 df3c 438b 90bd 29d7 42bc
00000030: ca65 bfbd 9542 d73d efcd 413b 8763 c63d
00000040: b5c9 64bd 5a71 5bbc 1b98 353e 8c80 843b
00000050: f575 09bd 9ce3 ddbb 8bb8 bdbb b7bc 563d
00000060: b982 57bd a3ff 3ebe be94 883c 79a6 17bd
00000070: 6326 323c 5043 d53d 6c58 d7bd 3872 74be
00000080: b94d 273d f1af e33d 8528 283d ae3e 6a3d
00000090: 8340 8c3d b446 923c 5019 c9bd 69cd 203e
000000a0: 5ad5 0e3e 6cce 26bd e008 943d 02e2 d93c
000000b0: 8c31 99bd 794a 623d 61b5 a03d 5272 7bbd
000000c0: 7d8f 5abe 9e75 dfbc 7fd8 a53d edc3 b43c
000000d0: 9cb2 04bd 4adb b83a 35b6 1cbc 9206 1dbd
000000e0: ed36 8c3d 91ea b23d d6bf 4ebc e8cc 933d
000000f0: ae99 bc3c 1ceb 313b 10e6 f6bd 2040 95bc
00000100: 5c05 c83d 54d8 5abd bed8 dc3c 543d 0a3d
00000110: 617b 00bb 38e4 0e3e 676d 1e3d cd24 a53d
00000120: 5bae 293e d867 fbbc 7131 b7bd 90d9 6f3d
00000130: 2667 873d 53d5 6b3c fdf5 7e3d 1659 083d
00000140: a9cd a23d 3df3 f53c 933e 8d3d 5b05 ea3d
00000150: ca13 f3bc 942d f3bb f311 96bd 7e83 913b
00000160: 49e1 593d e9b9 24bd 3613 a3bb 3c2c 5d3e
00000170: 82f8 31be b4b2 b7bd c33c 003d 26f9 803d
00000180: 9b26 763d 643e c03d a5a8 65be d957 c43d
00000190: 4bcb 003e 369f b33d 360a 6fbd 79ed 84bd
000001a0: 540a dfbd 8032 b13c 90f4 9a3e 9f91 b6bb
000001b0: 1d44 c0bd b3fa d3bc 092f 08bd eec3 e8bd
000001c0: d073 d1bd 0699 003e d790 ac3d f9be 30bd
000001d0: 78c4 b4bd c0c2 cfbc 9c78 883d 3ede a1bd
000001e0: 0dd4 1fbd 47bc 9dbd 26e1 50bc f034 33be
000001f0: 507f 953d f187 ef3d 1102 9d3d 95de 953d
00000200: c1b4 163d 9f70 a53e 7294 983d 5843 14be
00000210: be42 c6bd c190 9abd b386 13be 5c8f dabd
00000220: 0ca9 61be 42e5 c5bd 4ca1 9fbd 466c 33be
00000230: 926c ffbd 93bd 083d aa01 67bc fd25 803d
00000240: 7adb 033e ee86 febc 400f df3d f95a 88bd
00000250: a9f0 adbb 163f 5bbd 3446 49be d623 763c
00000260: f6a1 1d3d 669a 61be 1b64 89bc 2cd3 30be
00000270: 7524 723b 5892 5a3e d419 b73c e6d4 053e
00000280: 3c4b 663c f540 253d 3e6b 923d 7be3 a83d
00000290: 925e 463b 93ee 3cbe e974 febd 20f7 183e
000002a0: 7784 e53d aa08 1a3e d7e9 48be c581 00be
000002b0: d810 5dbd 7336 913c cb56 253c 0314 3abd
000002c0: d419 cf3b 3ee8 cd3d e646 b1bd 4d73 f1bb
000002d0: f220 3d3c a9a0 163d 7985 1f3d ceb9 503d
000002e0: b848 633d 0cb4 0a3e eeac 263e f1c9 e73c
000002f0: e6e1 a73d f24e cbbd 52f2 cbbd 0553 0cbe
00000300: 0d75 85bd 90a2 013d c889 af3d 2c52 e53d
00000310: 5a29 12be 6647 14bd 3568 15be eab4 843d
00000320: ec12 c23c cbea 493e 2607 c5bd acb1 6fbe
00000330: a7c6 fabd 040b 3a3d 53ff 3b3d d270 013e
00000340: 41fd 20be d1e7 ae3c c79a 70bd f5c9 ccbc
00000350: d317 a23e e095 f63d 872e 30be ad82 d73b
00000360: c74f 333e fbcc 0cbd 2b5f b0bb 9ce8 38be
00000370: 7d97 e63d b0c0 f6bd 569f 3abe b21d 323e
00000380: 3247 aabd 7990 07bd b46a 7c3d 4be2 9fbd
00000390: f1a1 773d 3dd7 cdbd 7144 423d 914d 253d
000003a0: 6279 993c 1b82 163e a014 b13d f860 e8bd
000003b0: 4427 013b c4d7 e53d c88d 143e 0c67 7e3d
000003c0: 6284 d03d dcf8 eaba f069 48bc b997 f93d
000003d0: 31a8 1abd 97ce 4b3d d55e 1bbe 5e98 32bc
000003e0: 2bf0 d03d cdcf 5a3d 4488 253d 5145 233e
000003f0: 521e f43d 539f de3d 2e92 ffbd 391d f3bc
-0.13461053 -0.03085808 -0.19628602 -0.08461546 0.0345922 -0.0046945303 -0.10232206 0.17300506
0.19548367 0.02729251 -0.07057812 -0.0118921185 -0.093455866 0.105107464 0.002957221 0.09686952
-0.055856425 -0.013393724 0.17733805 0.0040436443 -0.03355976 -0.006771518 -0.0057898215 0.052426066
-0.0526149 -0.18652205 0.016672488 -0.037023995 0.01087341 0.104132295 -0.10514912 -0.23871696
0.040845606 0.111175425 0.041054267 0.057188682 0.06848242 0.01785598 -0.09819281 0.15703358
0.13948575 -0.040724203 0.07228255 0.026597027 -0.074801534 0.055246804 0.07847095 -0.06138832
-0.21343799 -0.027277764 0.08097934 0.022066081 -0.032396898 0.0014103439 -0.009564926 -0.038336344
0.06846414 0.08736146 -0.012618979 0.07216817 0.023022499 0.0027148193 -0.120556 -0.018219054
0.09766647 -0.053428963 0.02695882 0.033749893 -0.001960479 0.13954246 0.038678553 0.0806366
0.16570418 -0.030689165 -0.08944977 0.058557093 0.06611471 0.014394122 0.06224631 0.033288084
0.07949383 0.030023212 0.06896701 0.11426803 -0.029672522 -0.007421205 -0.07327642 0.004440724
0.053193364 -0.04021636 -0.0049766554 0.21598905 -0.17379954 -0.08969632 0.031307947 0.06297521
0.06009541 0.093869 -0.22427614 0.09587068 0.1257755 0.087706015 -0.058359347 -0.06490607
-0.10890642 0.021630526 0.3026471 -0.0055715586 -0.093879916 -0.025876379 -0.03324798 -0.113654956
-0.102271676 0.12558374 0.084260635 -0.043150876 -0.08826536 -0.025361419 0.066636294 -0.079037175
-0.039020587 -0.07701927 -0.012748992 -0.17500663 0.072996736 0.11695851 0.0766641 0.07317845
0.036793474 0.32312486 0.07450189 -0.14478815 -0.09680699 -0.07547141 -0.14406852 -0.10671875
-0.22037143 -0.09662868 -0.07794437 -0.17521772 -0.1247188 0.033383917 -0.014099518 0.06257246
0.12876692 -0.031070199 0.108915806 -0.06657977 -0.00530823 -0.05352696 -0.19655687 0.015023192
0.038484536 -0.22031555 -0.016771367 -0.17268056 0.0036948 0.21344888 0.022351183 0.13069496
0.014056023 0.04034515 0.07149361 0.082465135 0.003026877 -0.18450384 -0.124246426 0.1493802
0.11206906 0.15042368 -0.19620453 -0.12549503 -0.05397114 0.017726159 0.010091494 -0.04542924
0.0063202176 0.10054062 -0.08656101 -0.0073684813 0.011543499 0.03677431 0.03894565 0.050958447
0.055489272 0.13545245 0.16276905 0.028294535 0.081973836 -0.09927167 -0.09958328 -0.13703544
-0.06516466 0.031649172 0.085712016 0.11197314 -0.14273587 -0.036200903 -0.14590533 0.06479819
0.023690663 0.19718473 -0.09620504 -0.2340762 -0.12244921 0.04542066 0.045897793 0.12640694
-0.15721609 0.021350773 -0.058741357 -0.024998644 0.316588 0.12040305 -0.17205249 0.006576857
0.17510901 -0.034375172 -0.0053824387 -0.18057483 0.11259363 -0.12048471 -0.18224844 0.1739414
-0.08314361 -0.033096764 0.061625198 -0.07806834 0.060457174 -0.10050819 0.047428552 0.040357176
0.018734638 0.14698069 0.08646512 -0.1134662 0.0019707242 0.11222795 0.1450721 0.062109992
0.101815 -0.0017926949 -0.012232289 0.12187142 -0.037758056 0.049757566 -0.15172894 -0.010900585
0.102020584 0.05342083 0.040413156 0.15944411 0.11919846 0.108702324 -0.124790534 -0.02967702

arith.constant3 f4 [64, 64]
00000000: 4afb 253d 86f9 bc3d b6a1 393d a642 9e3d
00000010: c85a 843c 6c8e a53d 511b 1bbd 17ec fa3c
00000020: 571d e43d 9702 c73b f30b c0bc eb7c b23c
00000030: 57a3 4cbc 26a8 1c3e cb53 d33d 28b6 80be
00000040: dc93 8bbd bd32 93bc ebac 183d ff38 143e
00000050: dfc1 f4bc 5e8a c7bc 94f9 d9bc 816c b5bd
00000060: de0f bdbd 1fd5 92bd 0af2 27bd 48dd 92bc
00000070: e4e0 46be 135f 333d b0b4 073d 6599 debd
00000080: 6047 01bd e95c a3bc b712 94bb ada8 223d
00000090: 16b1 8b3d fb42 173d ca32 273d 3df0 973d
000000a0: 2099 fe3d 24e6 99bd 0c94 8e3c a19c b3bd
000000b0: 1915 1ebe 6fcf 743d 46f5 383d bda8 8abd
000000c0: 741d 98bd 0495 ac3c d46e 3f3c 8704 82bd
000000d0: e820 5cbd e571 ed3d 0ed1 cf3d a5ac fbbc
000000e0: 97c3 113c 04ec b43d dbdd 4a3d 09a9 b0bc
000000f0: bce6 3ebe 558e bebe 5251 0e3c 2592 84bb
00000100: cc1c 5f3d 524f 19be ea70 843d 6a36 71bd
00000110: 97bf f0bc 44af 053d c241 9f3c f74f 11bd
00000120: 553f 88bb 14eb 1fbe 1bb4 573c 5cca e13d
00000130: cfd9 8f3d 1512 c23c 6275 b3bb 1d19 87bd
00000140: 61d0 0a3c 338d d73d c7ee b13d 5e5f 593e
00000150: 143f 983a fdf0 9abb fca3 4dbd ee91 103d
00000160: 0eac 5e3c 94e4 9ebd 5256 02be 3e86 913d
00000170: 5d94 abbd 8807 94bd 5a28 5ebc 1ff3 ac3b
00000180: f7e3 963d 0a03 bebd 5edb 06be 3a51 b3bb
00000190: 2ca9 03bd b58a 30bd 9766 17be e670 453d
000001a0: 4a32 24bc 6012 debd a100 863e 981b 9a3d
000001b0: 2ea5 30bd 0d34 a63c a727 48bd 5df2 8cbd
000001c0: 45de 9abd bed3 243c dac8 6fbd 9735 53be
000001d0: b7e3 9b3c 8975 0b3e 9dcf cabd 2eba fc3c
000001e0: b809 7cbe 0790 25be 88a1 56bd aabd 813b
000001f0: 0428 d63d b64a 26bd ffd6 cebc d443 083c
00000200: fb72 e0bd 5b64 083e 8003 713c 7b90 82bd
00000210: 586f 85bc 9657 79bd 461b 123d 08ed 77bd
00000220: f02e 04be ca0b d13c 6c11 2ebb a8a8 36be
00000230: 456f 5bbe faca 1c3e 3b53 e43d e431 983d
00000240: d84e 8f3d b645 fc3c 5e95 4e3d 64e7 05bc
00000250: f86b 8abd eea0 f9bd 60ad e3bd 084b ff3d
00000260: 74ea 14bd 2e30 64bd b36a fabc eb94 5fbe
00000270: c829 41be 6679 643e 25ea 433e 2b36 9cbc
00000280: 5847 a2bd 330c 453d 28fc 86bd b9f9 6a3d
00000290: f723 dd3d bb2e c5bd 0710 b4bd 4143 ae3d
000002a0: fb48 843d cf5d 013d 767a 12be 28f5 50be
000002b0: 3d53 a53c 140d 663d c6da b73d 6708 4a3d
000002c0: 89dd f73c 795f 0a3e 1e46 e8bd 9040 72bd
000002d0: f74d d23d dccc 433e e3bb b6bc cb1b 213e
000002e0: 3135 2cbd 69fa 713e 603e 453e 688a 5e3b
000002f0: bf34 e6bd e0da b9be 5ce5 693c 4b00 cf3c
00000300: 5ef6 063d 24ac 433c 49d7 953d 77f1 723b
00000310: a2f4 cabd f7e3 a63d 5dfb 25be 8eee ff3c
00000320: a2d4 21bd fead 50bd 25a8 acbd d69f 51be
00000330: 7b18 8dba cd16 cdbc b1b4 42be 0213 e73d
00000340: 7fec a4bd 8c4f 973c 0383 d53c 0e89 aebd
00000350: 60bd 613e f564 a2bd e6d1 80bd 5708 aabd
00000360: 28bd 533e b5e8 00be 623c e4bd 841b 18be
00000370: 3e8d 813d 9037 5bbe f14b b1bd 746b 9e3d
00000380: 725e 303c bf22 4c3d b404 d03d edd2 c5bc
00000390: 5877 ebba c63c 20be a1bb 6cbd 8d13 103e
000003a0: 3314 7b3d 4c2a ed3d ddee 72bc f442 8a3c
000003b0: 1670 b43d a7d4 eebd 77b2 ca3d edfd 343e
000003c0: 4565 0e3e 014c cf3c d7c5 80bd f182 143d
000003d0: 1124 5cbd 3697 573b 96ad 0cbe 5a6c 023e
000003e0: e590 b83c e996 033c 4653 d53d 672c fb3d
000003f0: 5357 fabc a112 b63d 39cc 813d 3bcb eb3c
0.04052285 0.0922728 0.045320235 0.07727556 0.01615657 0.080838054 -0.037867848 0.030630155
0.11138409 0.006073307 -0.023443198 0.021788081 -0.012490115 0.15298519 0.103187166 -0.25138974
-0.06815311 -0.01796853 0.037274282 0.14474867 -0.029877601 -0.02435797 -0.026608266 -0.08858586
-0.09231542 -0.07169556 -0.04100231 -0.01792778 -0.19421726 0.04379184 0.0331313 -0.108691014
-0.03156221 -0.019941764 -0.0045188325 0.039711643 0.06820886 0.036929112 0.04081992 0.07418869
0.1243155 -0.07514599 0.017404579 -0.08770109 -0.15437736 0.059768137 0.045155786 -0.067704655
-0.07427493 0.02106715 0.011684138 -0.0634852 -0.05374232 0.11593989 0.10147296 -0.030721972
0.00889673 0.08834079 0.049527984 -0.021564977 -0.18642706 -0.37217966 0.00868638 -0.004045742
0.054470822 -0.14971665 0.06466849 -0.058889784 -0.029388232 0.03263785 0.019440535 -0.03547665
-0.0041579404 -0.15617019 0.013165499 0.11024925 0.070239656 0.023690263 -0.0054766396 -0.06596587
0.008472533 0.105249785 0.08688121 0.21227786 0.0011615478 -0.004728435 -0.050205216 0.03529542
0.013590826 -0.077584416 -0.12728241 0.07105683 -0.083779074 -0.07227999 -0.013559425 0.0052780057
0.073676996 -0.092779234 -0.1316962 -0.0054723294 -0.032143757 -0.04310103 -0.14785229 0.04820337
-0.0100217555 -0.108433485 0.26172355 0.07524794 -0.043126278 0.020288492 -0.04886594 -0.068821646
-0.07561926 0.010060249 -0.058541156 -0.20625912 0.019029481 0.13619055 -0.0990288 0.030850496
-0.24613082 -0.16168223 -0.052400142 0.0039593773 0.10456851 -0.040598594 -0.025249003 0.008316953
-0.10959431 0.13319533 0.014710307 -0.06375214 -0.016288444 -0.060874544 0.03567054 -0.060528785
-0.1290853 0.025518317 -0.0026560677 -0.17837775 -0.21429165 0.15311804 0.111486875 0.07431391
0.0699746 0.03079496 0.050435416 -0.008172844 -0.06758875 -0.12188898 -0.11117053 0.12465483
-0.036356404 -0.05571001 -0.030568456 -0.21834151 -0.18863595 0.22311935 0.19132288 -0.019068798
-0.07923764 0.048107337 -0.06591064 0.05736706 0.107978754 -0.09628054 -0.087921195 0.085089214
0.064592324 0.031583603 -0.14304528 -0.2040602 0.020181293 0.056164816 0.089772746 0.04932442
0.030257003 0.13512982 -0.11341499 -0.059143603 0.10268777 0.19121116 -0.022306388 0.15733258
-0.042042915 0.2363068 0.19262075 0.0033957008 -0.11240529 -0.362998 0.014275875 0.025268694
0.032949798 0.011942897 0.07316453 0.0037070194 -0.09909941 0.081489496 -0.16209169 0.031241681
-0.039509423 -0.050947182 -0.084305085 -0.20471129 -0.0010764742 -0.025035286 -0.19014241 0.11282922
-0.080529206 0.018470548 0.026063448 -0.08522235 0.22044897 -0.07929412 -0.06290035 -0.08302372
0.20677626 -0.1258877 -0.111443296 -0.14854246 0.06325768 -0.21407914 -0.08657063 0.07735339
0.010764705 0.049837824 0.10157147 -0.024148429 -0.0017964644 -0.15648183 -0.057796124 0.14069958
0.06129856 0.11580333 -0.014827457 0.016877629 0.08810441 -0.11661654 0.09897321 0.1767499
0.13905819 0.025304796 -0.06287735 0.036257688 -0.053745333 0.0032896525 -0.13738093 0.12736645
0.022530029 0.008031585 0.10416274 0.122643284 -0.030559218 0.08890272 0.063377805 0.028783431

arith.constant4 f4 [64]
00000000: 93f2 dcbc 80bd 88bd 4784 27be 43c6 60bd
00000010: 5720 f2bd 5450 d9bc b42d 7fbb 37d8 3e3d
00000020: 6e39 dbbd 6a64 20bd 45d2 293d 2679 13be
00000030: 73c1 03bd 879d fdbd c4d8 c6bd 8f66 d1bd
00000040: e9fe a33d 5d50 88bc 1b87 92bd aeb4 0fbe
00000050: c7ab 893d 0a54 51bd 5d95 d9bd aeb4 17be
00000060: 0904 65bd d57d 9cbc a445 9bbd 5db9 bbbd
00000070: 5bf2 6a3d bde7 93bd 833f 86bb a0bb e83d
00000080: 4df9 b9bd ecdc dbbd 04eb a4bd c85e efbd
00000090: c593 bebd bb01 a7bd 4a6f 1bbe 2202 10bd
000000a0: 0caa 0dbe 04c3 03bc 08dd acbd 4715 fb3c
000000b0: e8a9 debd 228c 11be 4ab1 5ebd 05fc cabd
000000c0: d6e2 61bd 6258 d7bc ff8d a0bd 96a9 03be
000000d0: e438 0cbe a333 6f3d 08eb e5bd 4330 79bb
000000e0: 9662 27be bf25 8e3d b039 e9bd 5ea8 a7bd
000000f0: 6e90 1bbd fcf3 6f3d 4225 c8bd d52a 2dbe
-0.026971137 -0.06676769 -0.16359054 -0.054876577 -0.118225746 -0.026527561 -0.0038937153 0.046592917
-0.10704313 -0.039158262 0.041460294 -0.14401683 -0.03216691 -0.123835616 -0.097093135 -0.102246396
0.08007605 -0.016639883 -0.071546756 -0.14033768 0.06722217 -0.051105537 -0.10624192 -0.14815018
-0.05591205 -0.01910297 -0.07581642 -0.091662146 0.057360034 -0.07221935 -0.0040969267 0.11363912
-0.090807535 -0.10735497 -0.08052638 -0.11688 -0.093055286 -0.08154627 -0.15179172 -0.035158284
-0.13834399 -0.008042101 -0.08440596 0.030649794 -0.10872251 -0.14213613 -0.054368295 -0.0991135
-0.05514797 -0.026287261 -0.078395836 -0.1285766 -0.13693577 0.058398854 -0.11226469 -0.003802315
-0.16346201 0.06940793 -0.11387956 -0.0818641 -0.037979536 0.05858229 -0.09772731 -0.1691087

arith.constant5 f4 [64]
00000000: 645a b53d 60b0 28bd 729b cbbb 72f4 ab3a
00000010: 1bcf 9e3c 5009 463d e817 a53d 75ee 3fbd
00000020: 7c70 97bc 2417 13bd 88e8 953d 165c c13d
00000030: 18d4 393d 1983 aebb 9762 583b d886 63bd
00000040: 9514 793d 97da ef3a ba79 eabb 4319 6e3d
00000050: 5190 a5bd 4206 c4bd 1144 6f3d 1830 003d
00000060: 396d 203c 5d4b 9d3c c3ee c6bc f067 ad3d
00000070: adf2 58bd 2442 55bd cd31 573d 8589 053e
00000080: 5cc9 413c e252 083b e7a3 97bd 0326 1d3d
00000090: 7266 e538 40ac df3c e5c0 f33c 514f 8dbd
000000a0: 1ec8 a3bd 41a2 a5bd 20af 13bc dcf1 573d
000000b0: 4a78 963d 94fe 47bd 83bc e4bd 715e 603d
000000c0: 4d3f a0bd 7d4c 30bc 9548 c93d 6bd9 0ebd
000000d0: 7252 013d c24a 533d e2d0 a2bd bd6c ac3d
000000e0: 7256 96bd c892 e9bd 2175 48bd bb49 7abd
000000f0: f7f1 68bc 4bc3 56bd b22c 493d c034 473d
0.08855131 -0.04118383 -0.006213599 0.0013119115 0.019385865 0.048348725 0.080612004 -0.04685827
-0.018486254 -0.03591074 0.073197424 0.09441392 0.045368284 -0.0053256867 0.0033017749 -0.05554852
0.060810644 0.0018299398 -0.007155624 0.05812956 -0.08084167 -0.09571506 0.058414523 0.031295866
0.009791666 0.019200975 -0.024283772 0.0846709 -0.05296581 -0.05206503 0.052537728 0.13040741
0.011827793 0.0020801355 -0.07404309 0.03836633 0.00010938653 0.027303815 0.029755065 -0.06899894
-0.07997154 -0.08087588 -0.009013921 0.05272089 0.07347162 -0.04882677 -0.11168768 0.054777566
-0.07824574 -0.010760424 0.09828297 -0.034875315 0.031572767 0.051584966 -0.079499975 0.08419178
-0.07340707 -0.114049494 -0.048939828 -0.06110547 -0.014217845 -0.05243234 0.04911489 0.04863429

arith.constant6 f4 [64]
00000000: e4cb 753f 4211 7a3f b4fa 573f 3e8f 793f
00000010: 0cc0 603f 3e4d 833f ce5e 8e3f 2189 813f
00000020: e334 693f d225 613f fc6f 813f 2362 703f
00000030: 1e0f 6a3f aed7 5d3f 3ab3 6d3f 6989 763f
00000040: da61 8c3f 9a68 813f f849 663f 9142 783f
00000050: 0120 8c3f f091 883f db95 713f 4562 4d3f
00000060: 620c 803f ab39 813f 1e16 6b3f 4935 753f
00000070: 36c8 883f 5cf2 7a3f 50b5 833f d318 653f
00000080: 106d 793f 38b4 743f 1528 713f 056a 753f
00000090: 0a27 763f 6431 7c3f 8ad3 443f f0a4 793f
000000a0: 4dde 6e3f cc8b 843f 964c 6e3f aa57 7d3f
000000b0: f0ce 603f cd31 633f c2b7 843f 3a89 593f
000000c0: b9c1 803f e406 7a3f af04 763f ff2f 633f
000000d0: bd16 623f 7782 823f dfa1 533f 7736 833f
000000e0: e3d1 643f 3ade 623f f518 5a3f be5e 6d3f
000000f0: 8530 803f 641f 913f 5319 7b3f f8f5 633f
0.9601424 0.97682583 0.8436692 0.97484195 0.8779304 1.0257947 1.1122682 1.0119973
0.91096324 0.87948334 1.01123 0.93899745 0.91429317 0.86657226 0.92851603 0.9630342
1.0967362 1.0110047 0.8995662 0.9697657 1.0947267 1.0669537 0.94369286 0.8022807
1.0003779 1.0095724 0.91830623 0.9578443 1.06861 0.9802606 1.0289707 0.89491004
0.9743204 0.9558749 0.94201785 0.958649 0.9615332 0.98512864 0.76885283 0.975173
0.93307954 1.0355163 0.9308561 0.9896189 0.8781576 0.88747865 1.0368578 0.84975016
1.005912 0.97666764 0.96100897 0.8874511 0.88315946 1.0196065 0.8266887 1.0250996
0.8938276 0.8862034 0.8519433 0.9272269 1.0014807 1.1337705 0.98085517 0.89047194

arith.constant7 f4 [64]
00000000: 0fbf 20bd 6bda 89bd 4d3d 2abe f385 13bd
00000010: 609f 04be a6ca 3fbd 54b9 19bc 7d86 4ebd
00000020: fea0 1cbe b45a 23be 8cef 673d 4f29 afbd
00000030: 6cb9 d3bd a340 18be 6679 54bd 2889 43bd
00000040: 8cbe b7b9 c13a 80bd 6ac3 e4bd 000b 58bd
00000050: 0a23 683c e639 babb 3876 91bd 5c39 0bbe
00000060: b8bb 333b 119b 52bd 04b5 0dbe 086c e9bb
00000070: 8930 d4bc 9fcb e5bd f747 80bd 3a31 623d
00000080: 6988 8bbd 6d8d 32be 2cb5 92bd 3b3c 11bd
00000090: b30b 61bd 75a8 0fbd e589 1fbe 4b15 d3bb
000000a0: cace dcbd 2d85 6dbd fe5e 80be 2838 0cbc
000000b0: b8f5 96bd e7bf 11be 1f6b 833c 143e dbbd
000000c0: aaee 04be e3ac f3bd 0984 86bd 65dd c5bd
000000d0: 32a6 c9bd 8137 0abc f24d 93bd c6c0 b6bd
000000e0: ab1f ddbd 0ece a33d 2091 11be 6cd0 93bd
000000f0: e254 04bd c659 cd3c 397e 30bd b436 5dbe
-0.039244708 -0.06731113 -0.16624947 -0.036016416 -0.12951422 -0.04682412 -0.009382565 -0.050421227
-0.15295789 -0.15952569 0.056624934 -0.08552801 -0.10338101 -0.14868407 -0.051873587 -0.047738224
-0.00035046448 -0.062612064 -0.11170085 -0.052744865 0.01416851 -0.0056831716 -0.071026266 -0.135961
0.0027425122 -0.051417414 -0.13838583 -0.007123474 -0.02590205 -0.11220478 -0.06263726 0.055222727
-0.068131275 -0.17436762 -0.07163462 -0.03545783 -0.054942798 -0.035072763 -0.15579946 -0.0064417473
-0.107816294 -0.057988334 -0.25072473 -0.008558311 -0.07371086 -0.14233361 0.01604229 -0.107052
-0.12981668 -0.1189821 -0.065681525 -0.09661368 -0.09846152 -0.008436085 -0.07192601 -0.08923487
-0.10797056 0.07998286 -0.14215517 -0.07217488 -0.032307513 0.025067221 -0.043089125 -0.21602899

arith.constant8 f4 [64, 6]
00000000: 2063 f0bb 9149 693c 886b e0bc 50e8 a4bd
00000010: 5e8e 1abd ca8d d93c db54 063d a52d 0f3d
00000020: 2a4a 903d 1587 783e 5782 703b 75d6 01be
00000030: cbfe c5bc 5a6a 2c3d 0db6 3bbe 7d75 89bd
00000040: 8c72 123d 4aa4 2d3e febf 093e 7eae 2b3d
00000050: d4d1 65bd f861 3abd 383e 5d3d 18f1 f33d
00000060: 9f2d 35bd bb19 3abd 12ab de3b d194 143d
00000070: 97f8 1bbe be4f 9e3d e25b ab3e 54a8 8f3a
00000080: e428 39bb f993 c1bd bbec 713e cb20 473e
00000090: 928a b63c a3ba a43c 9ddd d4bd bf3a b63d
000000a0: 9ada 6e3e 5898 b4bd 2739 093e 1c28 c13d
000000b0: 1edc 82bd 530f 64bc 3c16 473e a34c 18be
000000c0: 5370 c93d db9d a3be ba25 0cbe 5691 153e
000000d0: 8092 8fbe d8e7 fc3d 0adf 813d a798 953e
000000e0: b1a4 26be 3f0f 69be dd22 3fbe 270c 02bd
000000f0: 7f76 613e a7e8 86be 898f c5bd 6c19 6fbe
00000100: 9163 2c3e b7bf 3dbc e7d1 a23d 8a55 403d
00000110: 4eaf 023d 5679 953e cfbc e0bd e028 cd3c
00000120: 7dff 963d 714d 73be 8f26 31bd c2e1 05be
00000130: d7ab 66bd 76d7 9a3e ab0b 503e 98a4 203e
00000140: 92b6 9b3c d934 babe 8efc b4bc e297 54be
00000150: 0c6f c0bc 278b 073e 2e51 96bd 8c4b 56be
00000160: d749 d93b 002a eeba 6bfe 2bbe b057 513d
00000170: 5310 b63d c10b a83c bc68 e43d 8d39 293e
00000180: 7dee 6c3c 9625 823e b98b ee3d ccac edbd
00000190: 723c b1bd f49b 163e c37e 92ba 7353 45be
000001a0: 7f39 d5bd 00e5 8e3d 8741 0e3e 0bcc db3d
000001b0: 1925 1fbe 81c7 36be 2e22 833d e1f1 b0bd
000001c0: 4c01 783d 5f57 bdbd dc17 26be ad0a 7dbe
000001d0: 965c 27be 0ed5 f0bd 1e1e 1c3e 99f6 223d
000001e0: 3757 80be 1447 353d b0eb 3b3e 3a3b 823d
000001f0: d8ea 03bd 2315 99bd c613 1cbe 732f 26bb
00000200: 2457 e0bb 72aa a73b 61ac e53d adab c73d
00000210: f476 febd 5535 abbd f03d 05be d95e e93c
00000220: fcd2 02be 243b 11be 8354 23bc edf6 83be
00000230: 78f2 5ebb 6d0b a3be fca7 8a3e c86d e1bd
00000240: 5c9a 2abd df04 5ebe 3748 443e 5cfb 44bd
00000250: 1a6f 56be fc73 0cbd 9a3c 063d bcac acbe
00000260: f270 213e 8f47 e7bd d86a 5d3e 4f74 203e
00000270: f92e 8b3e 66cf 203e 3daf f0ba a884 e3bb
00000280: a3b5 923d a37c 7f3d cf17 353e d2a0 6b3e
00000290: e52d 92bc 40a9 6a3e eec7 a3bd 5855 61be
000002a0: d353 383d 4578 11be 6d6e c93e b146 16be
000002b0: 746a 5dbd 48a3 efbc 4166 0dbe 6ac5 edbc
000002c0: b977 0abe cbc3 2a3e 8640 d93d d922 63be
000002d0: 5c6d 2dbe d5b2 9f3c b401 c2bc be4d 2bbe
000002e0: 076c b03d b323 8ebd 8165 b2bd 07a8 013f
000002f0: e4bb e7bc cbd9 3cbe 84d1 163e 06be de3d
00000300: e8bf 963d d704 aabe 28bc 46be 4914 b7bc
00000310: a942 2a3e 0473 ac3c 2986 da3d 0269 483e
00000320: 0117 8e3e 1744 00bd 2082 fcbd fa3c 64bd
00000330: 8a4d 113b b69e fcbd 6e3f 793d d344 0d3e
00000340: 9dfd 503e 0630 71bd a5f6 24be d4c8 313d
00000350: 2561 45be d257 093e 0403 673d 24d5 6b3e
00000360: c84f 1e3d 1990 25be 6c62 8dbe 216b 30be
00000370: 1865 9d3d c49f 03bd 928e a73d d2e6 953d
00000380: 7fed 25bd a4c5 e1bd 2c51 003e 6d3e 4dbe
00000390: a6a8 723c 2b46 143e af8e e93c 2a5d a2bd
000003a0: 7135 443e 667a 9d3d 7893 85bd d95d fbbc
000003b0: c5d0 343e 2fba afbb 9c6e 36bd f6e7 023e
000003c0: 11aa 92bc 2da9 17bd 8d99 38bd 1cd7 2b3d
000003d0: ac12 abbd 13a3 cd3d 7bf8 08bd 3cc5 023d
000003e0: 8f73 313e 5244 f4bd 38e2 28be f9b7 0abd
000003f0: 5c12 f73d 7ae6 263b ce61 a3bd 5f38 5abd
-0.0073360354 0.014238731 -0.027395025 -0.080521226 -0.03773343 0.026556868 0.03279577 0.03495564
0.07045396 0.2427028 0.0036698782 -0.12679465 -0.024169346 0.042093612 -0.18331166 -0.06711862
0.03575377 0.16957203 0.13452145 0.041914456 -0.05610831 -0.045503587 0.054014415 0.11911219
-0.04423296 -0.045434695 0.0067952955 0.036274735 -0.15231548 0.07730053 0.3346854 0.00109602
-0.0028253132 -0.09452052 0.23625462 0.19446103 0.022282872 0.020108527 -0.10393832 0.08897924
0.23325577 -0.0881812 0.13400708 0.094314784 -0.0638964 -0.013919669 0.19442075 -0.14872985
0.09835877 -0.31956372 -0.13686267 0.14606223 -0.28041458 0.12348908 0.063413695 0.29218027
-0.16273762 -0.22759722 -0.18665643 -0.03174987 0.22017859 -0.26349375 -0.09646518 -0.23349541
0.16834857 -0.011581353 0.07950192 0.046956576 0.031905465 0.29194134 -0.109735124 0.025043905
0.07372949 -0.2376001 -0.043249663 -0.13074401 -0.056316223 0.3024251 0.20316951 0.15687788
0.019007955 -0.36368445 -0.022093084 -0.20761064 -0.023490451 0.13236676 -0.073397025 -0.20927256
0.006631117 -0.0018170476 -0.16796272 0.051109016 0.08889832 0.020513417 0.11152789 0.1652586
0.014461157 0.254193 0.11647744 -0.11605224 -0.08654107 0.14707929 -0.0011176694 -0.19270115
-0.10411357 0.06977272 0.13892184 0.107322775 -0.15541495 -0.17849542 0.06403004 -0.08639885
0.06054811 -0.0924518 -0.16220039 -0.24711104 -0.16343912 -0.11759387 0.15245864 0.039785955
-0.2506654 0.04425724 0.18351626 0.06358953 -0.032206386 -0.07474735 -0.15241918 -0.0025357872
-0.0068463255 0.005116754 0.11214519 0.097495414 -0.12425032 -0.08359782 -0.13011909 0.02848761
-0.12775797 -0.14182717 -0.00996888 -0.25774327 -0.0034019034 -0.31844655 0.27081287 -0.11007267
-0.041651115 -0.21681546 0.19168173 -0.048091277 -0.2094082 -0.0342903 0.032772638 -0.33725536
0.15765741 -0.112929456 0.21622789 0.15669368 0.27184275 0.15704116 -0.0018362772 -0.006943304
0.07163551 0.062374722 0.17684864 0.23010567 -0.01784415 0.22916126 -0.07997118 -0.22005212
0.045001816 -0.14206035 0.3934206 -0.14675404 -0.0540566 -0.029252663 -0.13808538 -0.029024798
-0.13522233 0.16676252 0.1060801 -0.22181262 -0.16936249 0.019494453 -0.023682453 -0.16728875
0.086143546 -0.06940403 -0.087107666 0.50647014 -0.028287835 -0.18442456 0.14728361 0.10876088
0.07360822 -0.33206818 -0.19407713 -0.02234854 0.16626991 0.021050937 0.1067012 0.19571307
0.27751926 -0.031314936 -0.12329507 -0.055722214 0.002217146 -0.12334959 0.060851507 0.13795786
0.20409246 -0.05888369 -0.16109712 0.043404415 -0.19275339 0.13412407 0.05639936 0.23030525
0.038650304 -0.1616825 -0.27614152 -0.17228366 0.07685298 -0.032134786 0.0818149 0.07319416
-0.040509697 -0.11024025 0.12530965 -0.20043345 0.014810717 0.14479892 0.02851042 -0.07927926
0.19161011 0.07689361 -0.06522268 -0.030684398 0.17657764 -0.005362771 -0.04453908 0.12783799
-0.01790336 -0.037026573 -0.045068312 0.04195319 -0.08353171 0.100408696 -0.033440094 0.03192638
0.17329238 -0.119270936 -0.16492546 -0.033866856 0.12064049 0.0025466965 -0.07977639 -0.053276416

arith.constant9 f4 [64, 6]
00000000: 99bd 11be 7017 04be 80b2 813c bf18 9b3d
00000010: 0d14 7f3e 1a29 463e dfd8 1dbd 3bda 933d
00000020: 27c8 d3bd 77e3 debd 3b07 2bbd 4184 dc3b
00000030: 04be 013d 34fa c4bc c88c 2bbd 3699 46be
00000040: d171 52bc b74d 9f3d dfca b53d 8a8a 0bbe
00000050: 8a9d a8bd 4b13 06be a339 943d 1f75 d73d
00000060: 08ca 04bd f69b 31bd 2abe 043e 38f8 4ebe
00000070: 9398 1dbe 8658 11bd df19 8fbe c04b a4bd
00000080: 1705 a3bc abea 8c3e bec4 763e 983d 253c
00000090: dbd1 903d b515 98bd 0cdb 6ebd 1584 e13d
000000a0: 2505 39be a2b5 c8bd 99c7 303e e439 b63a
000000b0: e482 cf3d d4fc 8cbe d39e ccbd ae1c 41be
000000c0: 5272 9ebd 0e06 4dbe bb50 86bd 5385 d03e
000000d0: 16b4 afbc 90d4 76bd 651e a1bd 539b a53e
000000e0: f80c e03d b9ac 893d e7f9 11bd 1103 a9be
000000f0: d611 033e 9770 a1be 9c62 3a3d 2cd3 803d
00000100: 9b53 b5bc 47fe da3e 87b1 f8bd 372b bbbd
00000110: c1fa 3bbd 6405 543c 7716 953c 4076 8ebe
00000120: 3d95 083c dc70 78be 122d 433c c2b1 6fbe
00000130: cc02 5ebd a17a 433e 4b22 cbbd b266 163e
00000140: 4311 c4bd 273e 243e ad16 0e3e c39d 163e
00000150: b3ec cb3d 67a3 43be abf7 7c3c 2317 b3bd
00000160: 67b0 b73d 5db4 5b3e d910 cabc ec39 1f3d
00000170: fa5f 153b f2e1 0f3e de96 463d 9fc3 90bc
00000180: 5f57 43bb 3fcc d7be afe8 98bd 1b3e 77bd
00000190: 797e 31be fc64 833e eb74 ba3d 47c7 1abe
000001a0: 40b8 ad3c 7a53 18be 077a d53e ea7b 723d
000001b0: 1a9f 69bd 4b3d c03d 7322 0ebd fc59 b83d
000001c0: 39be 753d 41db 8b3d 0fcb 57bd 6a11 2abe
000001d0: 21b9 f43d 3336 9a3d bce0 cebd 78b3 9ebd
000001e0: a101 83bd bfdd be3e e09e cdbd df1c 513e
000001f0: 62cc e63d 1d6b 04bd fff1 13be e455 a93e
00000200: 23ae 96bd 73c0 053e acc4 d5be d275 02bf
00000210: 2065 2a3d 5dfe 153d a093 863d 231e 1c3d
00000220: a286 42bd bc42 8a3d 39ea b73c 65a0 8e3c
00000230: 97ea 073d 2f62 493e 5692 07be c66b f03c
00000240: 6d69 1f3e 9411 993e 1533 0bbe 16ee 0e3e
00000250: 7c74 f3bd fd30 3c3c 3048 5bbe 46fe bc3d
00000260: b03e 1a3e 610a 6bbe 87df 08be 4437 dcbd
00000270: ea70 50be b5d6 1e3e 2d2f ab3d a2cc c23c
00000280: 0255 833d ba7b 32bc 7ad7 40bb e324 2dbd
00000290: e20f debd e781 6e3e da22 6fbe 78bf 5bbe
000002a0: 6299 3b3e 5ca9 bb3e 2bfb 783c 427b 55be
000002b0: ccde 9abd eaf4 8c3e b359 cf3d f79f f4bd
000002c0: 55f3 0f3e 59ae a3be f608 8ebe 4239 c63c
000002d0: eca2 28be 8972 87be 1706 053e d375 aa3d
000002e0: 9c0c f53d 894b 463c 44c4 2dbd 14ee 96be
000002f0: cc34 a2bc cec8 043e e354 7d3e b972 9d3e
00000300: e311 883c 56a8 2fbe 1721 c1bd a8d3 d33c
00000310: 3f51 323c acad 7f3e de7a 68be 903e 613e
00000320: 0beb 32bd 7f5d 703e 907b e7bd 9bc2 adbd
00000330: 8b96 7abc a37c 5e3e 3c34 04bd 7692 36bd
00000340: 9a3f 47bd 7d3a 223d 8910 403d f7ec 39be
00000350: 81da 8bbd 3464 493d 4ccf f13b fd49 043e
00000360: 147f b23b e3b9 8a3e a660 bf3d cbf7 0ebe
00000370: 15b4 0b3e e211 f4be dad9 4a3c ff36 853a
00000380: a581 acbd a1ca e93d c3e5 0abe dc2b 17bd
00000390: a001 a0bd 0b3b 40be 356d 9f3d ba45 0b3d
000003a0: 1d95 853e 7c91 27bc a615 5d3e a39d b73d
000003b0: d933 91bd 4531 833e d78c bfbd 2fcc 43bd
000003c0: 14ca 0a3e 52dc 8ebd 9786 d5bd d693 0fbe
000003d0: df54 aebd 0166 63be 7d41 a2bd bc74 a23e
000003e0: 8f34 413d 259a ff3d 4bc9 25be fad4 dbbc
000003f0: 4242 2b38 aabd 04be fd15 21bc e39f d93d
-0.14232482 -0.12899566 0.015832186 0.07573079 0.24909993 0.19351617 -0.038536903 0.072193585
-0.103409104 -0.10883229 -0.041754942 0.006729633 0.031675354 -0.024045087 -0.041882306 -0.19394383
-0.012844519 0.07778495 0.08876585 -0.13627067 -0.08233173 -0.13093297 0.07237556 0.10520386
-0.032419235 -0.043361627 0.12963167 -0.20211875 -0.15390234 -0.035484813 -0.27949426 -0.08022261
-0.019899888 0.27522787 0.24098489 0.010085486 0.07071277 -0.07426015 -0.058314368 0.11011521
-0.18068369 -0.09800269 0.1726364 0.0013902751 0.10132387 -0.27536643 -0.09991231 -0.18858597
-0.077366486 -0.20021841 -0.06558367 0.40726718 -0.021448176 -0.06026131 -0.078671254 0.32345065
0.109399736 0.06722397 -0.035638716 -0.33010152 0.12799773 -0.31531212 0.045504197 0.06290278
-0.022134593 0.42772123 -0.12143236 -0.09139102 -0.045893434 0.012940738 0.018199189 -0.27824593
0.008336362 -0.24261802 0.011912601 -0.23407653 -0.054201886 0.19089748 -0.0991865 0.14687613
-0.09573605 0.16039334 0.13875838 0.14708619 0.09957256 -0.19105302 0.015439908 -0.08744647
0.08969193 0.21455522 -0.024666237 0.038873598 0.0022792802 0.14051035 0.048483722 -0.017671404
-0.0029806716 -0.42148015 -0.07466256 -0.060361963 -0.17333402 0.25662982 0.091043316 -0.15115081
0.021206021 -0.14875594 0.41694662 0.059200205 -0.057036497 0.09386691 -0.034700822 0.09001538
0.059995864 0.06828929 -0.052683886 -0.16608205 0.11949373 0.07529869 -0.101014584 -0.07749075
-0.06396795 0.37278554 -0.100400686 0.2042117 0.11269452 -0.032328714 -0.14447783 0.33073342
-0.07357433 0.13061695 -0.4175161 -0.5096103 0.041600347 0.036619533 0.06571126 0.038114678
-0.047491677 0.0675101 0.022450553 0.017410466 0.033182707 0.1966636 -0.13239416 0.029348265
0.1556756 0.29896224 -0.13593705 0.1395801 -0.11887452 0.011486289 -0.21414256 0.09228186
0.15062976 -0.22953178 -0.13366519 -0.107527286 -0.20355573 0.15511592 0.083586074 0.023779217
0.06412698 -0.0108937565 -0.002942531 -0.042271506 -0.10842873 0.23291741 -0.23353139 -0.21459758
0.1832023 0.36652648 0.015196602 -0.208478 -0.075620264 0.27530605 0.10124531 -0.119445734
0.14057668 -0.31968954 -0.27741212 0.024197225 -0.164684 -0.2645457 0.12990604 0.083232544
0.11965296 0.01210297 -0.0424235 -0.29478514 -0.019800566 0.12967226 0.24739413 0.3075159
0.016610092 -0.17154059 -0.094301395 0.025857762 0.010883628 0.24968594 -0.2270312 0.21996522
-0.043681186 0.23473166 -0.113028646 -0.08484384 -0.015294681 0.21727233 -0.032276377 -0.04457327
-0.04864464 0.03960656 0.04689077 -0.18156801 -0.06828786 0.049167827 0.007379448 0.1291885
0.005447278 0.27094945 0.09344606 -0.13961713 0.13642915 -0.47669894 0.012381041 0.0010163485
-0.08423165 0.114156015 -0.1356421 -0.036907062 -0.0781281 -0.18772523 0.077845015 0.034002043
0.26090327 -0.010227557 0.2159029 0.08965614 -0.07089967 0.25623527 -0.09353035 -0.047802147
0.13553649 -0.069756165 -0.104260616 -0.14021239 -0.085122816 -0.2220688 -0.07922647 0.31729686
0.047169264 0.124805726 -0.16190068 -0.026834954 4.0831284e-05 -0.12962976 -0.009831903 0.10626199
